K-Digital Training/김소현 강사님/Pytorch/숙제/language_model/best_model_epoch_35.pth (torch, 14536 bytes, 6 tensors)

input_layer.weight f4 [50, 26]
0.10105143 -0.0865614 -0.038019367 0.09205082 -0.18463096 0.11761423 -0.040346052 0.099772885
0.027263474 -0.024013273 0.05439495 0.009674759 0.07162714 -0.076426655 -0.014298584 -0.017655812
0.028425848 -0.00078344916 0.1714382 0.061029404 -0.073034875 -0.118446566 -0.032872133 -0.08459287
-0.062845126 0.009390355 0.48407474 0.35230634 -0.58918315 0.04239504 -0.23693034 -0.1682523
0.5764756 -0.38053444 -0.060469676 -0.06261002 0.6263433 -0.07332174 0.29662338 0.13384625
0.07347878 0.08305399 -0.30228657 -0.14319305 -0.15138851 -0.04450191 -0.04249998 -0.36860946
-0.20140271 -0.49591118 0.08121503 0.18087389 0.16174763 0.029757706 0.36582565 0.5132079
0.31386676 -0.031062983 -0.039792452 -0.08476717 0.048226926 0.62907887 0.2033637 0.37890404
0.07591235 0.049285006 0.0033306158 0.2309152 0.24442211 0.15718083 0.31155208 0.103676535
0.45904687 0.2634429 -0.3141849 0.3555896 -0.2650815 0.03416592 -0.46493152 -0.012596064
0.21392031 -0.06412213 0.2546449 0.32938957 -0.22387464 0.19470252 -0.22014387 0.03990432
-0.424922 0.17088151 -0.08587486 -0.28093097 0.22614817 -0.07171163 0.07204313 0.054685432
0.14116797 0.23691474 -0.1716336 0.27845034 0.48718306 0.25626755 0.07262083 -0.27536333
-0.4430191 -0.3009419 0.58352035 0.26315853 0.5379849 0.46370882 -0.36404786 0.43772408
0.1562022 0.04897102 -0.38097638 0.23660314 -0.00058355945 -0.0604473 -0.0077473037 -0.22479887
0.27682823 0.29784352 0.316598 0.10925344 0.16027218 0.3229216 0.015159651 0.38409233
-0.1534852 -0.20619625 0.10872306 0.10938742 0.38073865 0.34856942 0.35950166 0.20380388
0.3644824 0.018084982 0.08324067 -0.07640617 -0.09444878 0.29458126 0.12996174 0.35395536
0.23094127 0.2210113 0.47320724 0.2757737 0.37026015 0.31123397 0.29011548 0.448321
-0.14456518 0.32327396 -0.19268487 0.08612379 -0.11457173 -0.08388337 0.13943261 -0.06408703
-0.1465539 0.07545566 0.062790416 0.1270226 -0.101484634 0.042520918 -0.0713962 -0.044062335
-0.15628855 -0.089382075 -0.06006208 0.08386619 0.035828345 0.048443906 0.19574453 0.19114017
0.13376045 0.0062450324 -0.13567145 0.15326665 -0.049041472 -0.01585508 -0.42917067 -0.14700401
0.24320161 0.5134295 0.27589068 0.26883036 -0.40207952 0.1545685 0.06472191 0.3230017
-0.39081576 0.10454524 0.049573537 -0.29747918 0.15057963 0.089243434 0.6501923 0.1723918
0.16979386 0.07110671 0.3269483 0.35071892 0.19714886 0.44868472 -0.3463149 -0.36895132
0.40696245 0.30714372 -0.2931565 -0.17073777 -0.55037916 -0.23830147 0.6540996 -0.055141408
0.272977 -0.41036713 0.3262944 0.21599768 0.08868003 0.46543655 -0.13460276 0.056363747
-0.25197226 -0.35947314 -0.045814745 0.019905908 0.17978685 -0.18679605 -0.08992564 -0.5189843
0.56870353 0.3990467 -0.3757756 -0.15947577 0.2537989 0.31548846 0.4910144 0.20654865
-0.5823587 0.13012008 0.0349474 0.12282151 -0.46150875 0.13305771 -0.29977348 -0.28876865
-0.011785732 0.106677994 0.6549741 0.15149899 0.13093914 0.26762098 0.12685524 0.33425662
00000000: 0df4 ce3d 1a47 b1bd 32ba 1bbd 2485 bc3d
00000010: e60f 3dbe bbdf f03d e741 25bd ba55 cc3d
00000020: a657 df3c 7cb7 c4bc 3dcd 5e3d e182 1e3c
00000030: 40b1 923d 9485 9cbd 9c44 6abc eca2 90bc
00000040: 53dd e83c 6260 4dba 7f8d 2f3e f8f9 793d
00000050: 4f93 95bd 1d94 f2bd eea4 06bd 073f adbd
00000060: f2b4 80bd 01da 193c a5d8 f73e 7f61 b43e
00000070: b5d4 16bf 6ca6 2d3d de9d 72be 554a 2cbe
00000080: e893 133f 69d5 c2be 0daf 77bd af39 80bd
00000090: 0958 203f b529 96bd 05df 973e fe0e 093e
000000a0: 0b7c 963d 3618 aa3d 4ec5 9abe 33a1 12be
000000b0: 9705 1bbe a347 36bd 7614 2ebd 61ba bcbe
000000c0: 833c 4ebe 12e8 fdbe 1154 a63d 0137 393e
000000d0: 2ca1 253e 6fc6 f33c 804d bb3e 9861 033f
000000e0: 25b3 a03e cc77 febc 69fd 22bd 699a adbd
000000f0: 9989 453d 500b 213f 933e 503e b6ff c13e
00000100: ef77 9b3d 13df 493d 7646 5a3b 0975 6c3e
00000110: ca49 7a3e 03f4 203e c183 9f3e 5d54 d43d
00000120: 3108 eb3e fde1 863e d8dc a0be d70f b63e
00000130: c3b8 87be 90f1 0b3d 810b eebe b95f 4ebc
00000140: ed0d 5b3e 7752 83bd d160 823e c0a5 a83e
00000150: 653f 65be 1960 473e 656d 61be b672 233d
00000160: 608f d9be 90fb 2e3e 29df afbd 2fd6 8fbe
00000170: 6393 673e 8cdd 92bd 598b 933d d5fd 5f3d
00000180: 568e 103e c799 723e b8c0 2fbe 0b91 8e3e
00000190: 0f70 f93e 8035 833e 3bba 943d 6cfc 8cbe
000001a0: 66d3 e2be 0f15 9abe 9761 153f b7bc 863e
000001b0: 61b9 093f 3e6b ed3e 7b64 babe 5f1d e03e
000001c0: 78f3 1f3e d695 483d 560f c3be 1848 723e
000001d0: 03fa 18ba 9797 77bd 18dd fdbb ad31 66be
000001e0: 6ebc 8d3e f27e 983e 2219 a23e 44c0 df3d
000001f0: 641e 243e fb55 a53e 2f60 783c c0a7 c43e
00000200: 392b 1dbe 1c25 53be 32aa de3d 8306 e03d
00000210: 2df0 c23e b177 b23e 9a10 b83e f7b1 503e
00000220: 709d ba3e f526 943c 167a aa3d d77a 9cbd
00000230: 5d6e c1bd 5bd3 963e b114 053e a339 b53e
00000240: de7b 6c3e c950 623e 3848 f23e 3632 8d3e
00000250: bd92 bd3e 0f5a 9f3e 048a 943e 558a e53e
00000260: e508 14be 2a84 a53e 2f4f 45be ab61 b03d
00000270: 95a4 eabd 0bcb abbd 6cc7 0e3e 1040 83bd
00000280: 3a12 16be 7f88 9a3d 4398 803d 3612 023e
00000290: 2dd7 cfbd 6a2a 2e3d 2c38 92bd b57a 34bd
000002a0: 1b0a 20be f30d b7bd a803 76bd 09c2 ab3d
000002b0: bec0 123d 1e6d 463d 4171 483e 40ba 433e
000002c0: 80f8 083e 21a3 cc3b 75ed 0abe eff1 1c3e
000002d0: b6df 48bd 83e2 81bc 42bc dbbe 3888 16be
000002e0: d809 793e 1e70 033f 8b41 8d3e 22a4 893e
000002f0: 5edd cdbe 3447 1e3e ec8c 843d 7b60 a53e
00000300: 0119 c8be d11b d63d 9f0d 4b3d 314f 98be
00000310: 8c31 1a3e 43c5 b63d 0173 263f 7a87 303e
00000320: 71de 2d3e 65a0 913d c465 a73e 6e91 b33e
00000330: 64e1 493e 01ba e53e 3050 b1be 30e7 bcbe
00000340: 625d d03e f141 9d3e 9c18 96be e2d5 2ebe
00000350: a6e5 0cbf 4d05 74be 1273 273f f5db 61bd
00000360: a4c3 8b3e a41b d2be 0f10 a73e 7f2e 5d3e
00000370: e09d b53d b34d ee3e 4ed5 09be acdd 663d
00000380: 8202 81be dd0c b8be 3ea8 3bbd b711 a33c
00000390: 0b1a 383e 7747 3fbe ef2a b8bd 28dc 04bf
000003a0: 8e96 113f d94f cc3e a965 c0be 9e4d 23be
000003b0: eef1 813e b487 a13e 3d66 fb3e 7d81 533e
000003c0: 7615 15bf 333e 053e 0125 0f3d d889 fb3d
000003d0: e04a ecbe 4840 083e e97b 99be 7cd9 93be
000003e0: f118 41bc fe79 da3d 62ac 273f 8d22 1b3e
000003f0: e914 063e 9e05 893e 57e6 013e af23 ab3e

input_layer.bias f4 [50]
-0.036175195 0.038963135 0.2351747 0.0989353 0.0806329 0.31694418 -0.08414486 0.124164514
0.026970968 0.14424855 0.017459586 -0.16699465 0.014006091 0.27109662 0.09012506 0.07791037
0.0006949134 0.34273186 0.0630681 -0.1751982 -0.1398631 0.01159248 -0.023421794 0.19229004
-0.04610242 0.1638968 -0.16539778 -0.18639162 0.03396147 -0.1241764 -0.05719216 0.07234499
-0.17011534 0.19804312 -0.11902199 0.25604174 0.16724363 -0.036779467 -0.17163089 0.02073544
-0.1095619 0.19473398 -0.16498291 0.026023293 -0.10808349 -0.12613353 -0.10228828 -0.01944308
0.06999314 0.12962405
00000000: 712c 14bd cf97 1f3d a3d1 703e 979e ca3d
00000010: dd22 a53d 8246 a23e 2454 acbd f749 fe3d
00000020: 38f2 dc3c e4b5 133e 6807 8f3c a500 2bbe
00000030: ce79 653c 2dcd 8a3e 7d93 b83d 798f 9f3d
00000040: d92a 363a 8d7a af3e d929 813d 2867 33be
00000050: 4638 0fbe 63ee 3d3c 10df bfbc aee7 443e
00000060: e4d5 3cbd 90d4 273e 095e 29be 72dd 3ebe
00000070: 2f1b 0b3d 3250 febd 5442 6abd 9c29 943d
00000080: b732 2ebe d1cb 4a3e cdc1 f3bd e717 833e
00000090: ea41 2b3e 11a6 16bd 02c0 2fbe 5fdd a93c
000000a0: fd61 e0bd 5868 473e 48f1 28be cd2e d53c
000000b0: e05a ddbd 2629 01be 857c d1bd 1847 9fbc
000000c0: 9058 8f3d 2bbc 043e

hidden_layer_list.0.weight f4 [30, 50]
0.072266154 -0.19319269 -0.037470736 0.15861116 0.27382123 0.035404935 -0.11905735 0.238151
-0.09995694 0.1613369 -0.08041341 0.098669164 -0.06439533 0.10235258 0.09475155 -0.09085779
0.08925543 0.1378884 0.28924602 -0.032914348 -0.08412668 -0.05249574 -0.09621578 0.096338026
0.13635021 0.32259342 0.106823236 0.013993698 0.13897683 0.09363801 0.08397372 -0.13292597
-0.035767738 0.15863803 -0.004907141 -0.08729327 -0.07774622 0.114691205 0.117775746 -0.0551064
-0.0303488 0.03424176 -0.046170305 0.26722425 -0.12578061 0.06748417 -0.12710778 -0.06747114
0.115676455 -0.029137818 -0.022966526 -0.0646457 -0.06307904 -0.08601742 -0.0987129 -0.08810855
0.13561314 -0.066633664 -0.117604315 0.09719928 0.05486569 0.09727881 -0.1406711 -0.13461645
-0.1003733 -0.07450125 -0.0003114315 0.061172985 0.08279681 -0.12163721 0.056400493 -0.08178517
0.032507125 0.04440167 0.022631899 0.050035596 -0.007061435 0.09336466 0.02949514 0.123898014
0.03065573 -0.07486503 0.090820596 0.0076615894 0.13667524 -0.015639886 0.13992436 -0.08255639
0.07107584 -0.10550102 0.09709051 0.025671175 0.08029042 -0.121788986 -0.14067921 0.06814215
-0.058182582 0.056008916 -0.08390369 -0.043718357 0.0006335683 0.085164726 0.07986306 -0.012632659
-0.040001154 -0.0024526096 0.072888896 -0.119864516 -0.0432132 -0.13632968 0.02041359 -0.016727764
0.080114484 0.11297735 -0.12091997 -0.06258775 -0.022734838 -0.0014102337 -0.032281976 -0.08891809
-0.05464506 -0.0036420273 0.11372783 -0.036041677 0.09339358 -0.11431797 0.00632427 -0.110361226
-0.13270508 0.01401516 -0.06475542 0.10411641 0.11170315 -0.14076003 -0.009855738 -0.024160227
-0.08060674 -0.098732285 -0.059846405 0.062438283 0.033625025 0.08511538 -0.008434377 0.07345102
0.027347777 -0.030838057 -0.008267594 -0.1286218 -0.0032477689 -0.04645913 -0.047327407 -0.074653454
-0.048782304 -0.122269854 -0.009563538 -0.023610348 -0.037246957 0.10490158 0.077055946 0.022077816
-0.06994627 0.018037757 -0.09730534 0.08067769 0.1142312 -0.038975205 0.109065056 0.11486077
-0.026358975 -0.052513443 0.0071373163 0.023370901 -0.13090983 -0.026684945 -0.05113335 0.07650796
-0.0040596016 0.0930461 0.107930064 -0.044320785 0.030441508 -0.029954368 -0.06163144 -0.096313216
0.0032724838 0.025104884 -0.042735636 0.024016488 0.088377245 0.05895596 0.05831821 0.02188176
-0.10871335 -0.103422984 -0.10487502 0.09293327 -0.124559484 -0.10558221 0.07527232 0.065733254
-0.13368824 0.081715666 -0.032269213 0.030468667 -0.08859125 -0.02146775 0.031431805 0.10783219
0.085757665 -0.076902 -0.092763565 -0.008606016 0.04438392 0.077541135 -0.14092681 -0.011556666
0.005001061 -0.06604639 0.11154429 -0.0375402 -0.13483076 -0.08443951 0.004534394 -0.10524141
0.032302238 0.13757509 0.005789325 -0.034839734 0.133234 0.104402706 0.09397711 0.010727554
0.0064652595 -0.109676085 0.014395813 0.13755406 0.007476177 -0.12620233 0.077621244 0.12692001
0.11855964 0.00667011 0.026567874 0.022886297 -0.057961848 -0.020634929 0.11537247 0.014428233
0.1332876 -0.093913265 -0.020668326 -0.41174778 -0.012907581 0.4261274 0.295002 0.04569763
00000000: 4700 943d 4ed4 45be ea7a 19bd f76a 223e
00000010: 4c32 8c3e c404 113d 57d4 f3bd dbdd 733e
00000020: 39b6 ccbd 8035 253e c9af a4bd 0f13 ca3d
00000030: b3e1 83bd 3b9e d13d 1a0d c23d a613 babd
00000040: 8dcb b63d 9e32 0d3e 0e18 943e 32d1 06bd
00000050: 9c4a acbd c605 57bd c70c c5bd df4c c53d
00000060: 649f 0b3e f72a a53e 24c6 da3d d345 653c
00000070: f14f 0e3e 49c5 bf3d 6afa ab3d bf1d 08be
00000080: 3181 12bd 0272 223e 15cc a0bb d0c6 b2bd
00000090: 6939 9fbd 39e3 ea3d 6934 f13d 40b7 61bd
000000a0: 0c9e f8bc 1641 0c3d 131d 3dbd 9ed1 883e
000000b0: a2cc 00be 2435 8a3d 8b28 02be 4f2e 8abd
000000c0: c7e7 ec3d 6fb2 eebc 4c24 bcbc f764 84bd
000000d0: 952f 81bd e729 b0bd fd29 cabd 4172 b4bd
000000e0: 2cde 0a3e 3b77 88bd 88da f0bd 6b10 c73d
000000f0: d9ba 603d 1d3a c73d 160c 10be e5d8 09be
00000100: 8490 cdbd 1d94 98bd a147 a3b9 8690 7a3d
00000110: 6091 a93d ee1c f9bd 3404 673d fc7e a7bd
00000120: 3126 053d 87de 353d 8866 b93c 20f2 4c3d
00000130: 9c63 e7bb f935 bf3d cb9f f13c 3ebe fd3d
00000140: ba21 fb3c d652 99bd 2600 ba3d 120e fb3b
00000150: 98f4 0b3e 381f 80bc 5548 0f3e 5313 a9bd
00000160: 3690 913d eb10 d8bd 64d7 c63d 5b4c d23c
00000170: 4e6f a43d 816c f9bd 360e 10be 1d8e 8b3d
00000180: dc50 6ebd 9b69 653d b3d5 abbd 0512 33bd
00000190: 0d16 263a d86a ae3d 3e8f a33d 36f9 4ebc
000001a0: 40d8 23bd f6bb 20bb c646 953d 877b f5bd
000001b0: 5300 31bd 029a 0bbe 673a a73c aa08 89bc
000001c0: 1013 a43d ab60 e73d e4a4 f7bd 022e 80bd
000001d0: 693e babc 97d7 b8ba 1b3a 04bd b01a b6bd
000001e0: 80d3 5fbd 14af 6ebb 23ea e83d 70a0 13bd
000001f0: 2245 bf3d 8a1f eabd d23b cf3b 1105 e2bd
00000200: d7e3 07be d79f 653c 7d9e 84bd fc3a d53d
00000210: 9fc4 e43d 6623 10be f679 21bc abeb c5bc
00000220: 2615 a5bd 2734 cabd 8121 75bd 49bf 7f3d
00000230: 65ba 093d f950 ae3d 5730 0abc 7d6d 963d
00000240: 7208 e03c 18a0 fcbc cd74 07bc 6fb5 03be
00000250: 85d8 54bb ee4b 3ebd 62da 41bd e9e3 98bd
00000260: f4cf 47bd 9e68 fabd 63b0 1cbc 7d6a c1bc
00000270: 4490 18bd a4d6 d63d 82cf 9d3d 89dc b43c
00000280: fd3f 8fbd ebc3 933c 0648 c7bd 583a a53d
00000290: 0cf2 e93d 77a4 1fbd 805d df3d 203c eb3d
000002a0: c7ee d7bc 5618 57bd 26e0 e93b 5574 bf3c
000002b0: 3a0d 06be 639a dabc 3471 51bd 35b0 9c3d
000002c0: 6806 85bb f48e be3d 700a dd3d b689 35bd
000002d0: 7860 f93c dd62 f5bc 4071 7cbd dd3f c5bd
000002e0: 2b77 563b c2a8 cd3c 900b 2fbd 3abe c43c
000002f0: 21ff b43d ce7b 713d 13df 6e3d 6041 b33c
00000300: 1ba5 debd 6ecf d3bd b7c8 d6bd cc53 be3d
00000310: 0b19 ffbd 7c3b d8bd 6028 9a3d 289f 863d
00000320: 92e5 08be 8b5a a73d b92c 04bd 6d99 f93c
00000330: 546f b5bd 23dd afbc a3be 003d 20d7 dc3d
00000340: b7a1 af3d cc7e 9dbd d3fa bdbd 3f00 0dbc
00000350: eacb 353d e3cd 9e3d 1e4f 10be 2c58 3dbc
00000360: f1df a33b 5443 87bd 5571 e43d c1c3 19bd
00000370: 1311 0abe 9fee acbd 4195 943b cf88 d7bd
00000380: 5a4f 043d 7ce0 0c3e 61b4 bd3b 1cb4 0ebd
00000390: 7e6e 083e 16d1 d53d 1277 c03d 9fc2 2f3c
000003a0: 87da d33b db9d e0bd 6bdc 6b3c f9da 0c3e
000003b0: b8fa f43b 2f3b 01be e3f7 9e3d 52f7 013e
000003c0: 66cf f23d f090 da3b dfa4 d93c 0b7c bb3c
000003d0: 6769 6dbd 950a a9bc 6748 ec3d 6564 6c3c
000003e0: 8b7c 083e 9955 c0bd 9f50 a9bc 9bd0 d2be
000003f0: 527a 53bc 5f2d da3e 810a 973e 702d 3b3d

hidden_layer_list.0.bias f4 [30]
-0.061563708 -0.04574786 -0.11329633 -0.15307897 -0.076638736 0.06547421 0.19107868 0.19666882
0.08512739 0.20828049 -0.005969916 0.1331281 -0.123380356 -0.0662216 -0.13004947 -0.09745569
-0.10522752 -0.090827666 0.16962472 0.08040125 0.19306003 0.059778415 0.15281057 -0.075824544
-0.14004758 0.012885557 0.21739551 -0.019154105 0.05712621 0.10025909
00000000: 3a2a 7cbd 1c62 3bbd e807 e8bd bcc0 1cbe
00000010: c5f4 9cbd 5817 863d 21aa 433e 8d63 493e
00000020: 4557 ae3d 7b47 553e 499f c3bb bc52 083e
00000030: d7ae fcbd 319f 87bd b02b 05be d996 c7bd
00000040: 8781 d7bd db03 babd 1ab2 2d3e 69a9 a43d
00000050: 87b1 453e 36da 743d 607a 1c3e e649 9bbd
00000060: a268 0fbe f11d 533c ee9c 5e3e 12e9 9cbc
00000070: 2cfd 693d a354 cd3d

output_layer.weight f4 [4, 30]
0.20070305 -0.17253172 -0.07543539 -0.005619387 0.17577688 0.36350122 -0.48769554 -0.65612197
0.29040003 -0.26260146 -0.10630582 -0.013974458 0.1061511 0.11338373 0.13731165 -0.03707145
-0.054891866 -0.46140322 0.23897807 -0.109109685 0.27005014 0.035742413 -0.47007635 0.15383703
-0.065166555 -0.07531495 -0.5503975 0.23137972 0.3259551 -0.19943331 0.1503361 -0.062343717
0.02582382 -0.08304659 0.046126176 0.04034197 -0.54816717 -0.6371793 0.27367815 -0.26110473
-0.12896803 0.13732739 0.17745492 -0.17636323 0.14300214 0.14234003 0.010034954 -0.53538847
0.20019533 0.2110888 0.11321893 0.10508048 -0.73323184 -0.069377795 0.03802957 0.07833821
-0.6319808 0.3864208 0.22366765 0.13715908 -0.21480124 -0.05330312 0.12177281 0.07612066
-0.021484016 -0.32759738 0.033220474 0.32149252 -0.23154725 0.11795124 -0.030407934 -0.26344916
0.12630346 -0.033843726 -0.16337825 -0.16664767 -0.14548504 -0.16881679 -0.04509011 0.16198038
-0.10695016 -0.27267784 0.07520905 -0.09337644 0.14334992 -0.00833362 0.11924652 -0.34601626
-0.41770768 0.15614888 -0.44811395 -0.028823497 0.14163232 -0.12709408 0.019287733 -0.59873086
0.27384728 0.14971404 -0.42328718 0.2732888 -0.121783435 -0.2808369 -0.024083637 -0.14270563
-0.13398688 -0.05919058 -0.02142769 0.16918562 -0.27342004 -0.54525256 -0.59372556 -0.75847244
0.4336673 0.16622965 -0.14420933 -0.13147715 0.5269056 -0.3053522 -0.2953801 -0.35481903
00000000: 1a85 4d3e 28ac 30be df7d 9abd d622 b8bb
00000010: dbfe 333e d51c ba3e 3bb3 f9be 9cf7 27bf
00000020: 50af 943e b373 86be deb6 d9bd 20f5 64bc
00000030: bf65 d93d bb35 e83d 6d9b 0c3e 3cd8 17bd
00000040: 4bd6 60bd 0b3d ecbe abb6 743e e674 dfbd
00000050: 0344 8a3e a366 123d d9ad f0be 7487 1d3e
00000060: 0b76 85bd b93e 9abd dae6 0cbf ceee 6c3e
00000070: 96e3 a63e 3f38 4cbe b5f1 193e 205c 7fbd
00000080: 7a8c d33c 5514 aabd cdee 3c3d 9f3d 253d
00000090: af54 0cbf 2f1e 23bf 8b1f 8c3e 85af 85be
000000a0: 3210 04be 8d9f 0c3e beb6 353e 9098 34be
000000b0: 276f 123e 96c1 113e a669 243c 380f 09bf
000000c0: 0100 4d3e aa27 583e 54df e73d 6f34 d73d
000000d0: 15b5 3bbf f215 8ebd e5c4 1b3d c96f a03d
000000e0: 7ec9 21bf f2d8 c53e 2209 653e 6e73 0c3e
000000f0: dbf4 5bbe 5f54 5abd 0664 f93d 26e5 9b3d
00000100: 3fff afbc d8ba a7be 3112 083d ab9a a43e
00000110: b91a 6dbe 6b90 f13d 0f1a f9bc cfe2 86be
00000120: b255 013e b89f 0abd a14c 27be b0a5 2abe
00000130: 08fa 14be 4fde 2cbe 68b0 38bd 2fde 253e
00000140: af08 dbbd 6e9c 8bbe 3407 9a3d 263c bfbd
00000150: 52ca 123e bc89 08bc 8537 f43d 0b29 b1be
00000160: c8dd d5be 7ee5 1f3e 316f e5be 411f ecbc
00000170: 1008 113e f324 02be 4f01 9e3c 6d46 19bf
00000180: b635 8c3e a34e 193e 19b9 d8be 82ec 8b3e
00000190: 9869 f9bd dbc9 8fbe 0c4b c5bc 6d21 12be
000001a0: db33 09be d271 72bd 1f89 afbc ff3e 2d3e
000001b0: b6fd 8bbe ac95 0bbf 66fe 17bf 402b 42bf
000001c0: a409 de3e 1b38 2a3e 9cab 13be f2a1 06be
000001d0: 49e3 063f 2057 9cbe 0f3c 97be d7aa b5be

output_layer.bias f4 [4]
0.031264845 -0.02517017 0.20826185 0.086681336
00000000: 910f 003d ac31 cebc 9842 553e fc85 b13d
