K-Digital Training/김소현 강사님/Pytorch/숙제/language_model/best_model_epoch_78.pth (torch, 14536 bytes, 6 tensors)

input_layer.weight f4 [50, 26]
00000000: 0df4 ce3d 1a47 b1bd 32ba 1bbd 2485 bc3d
00000010: e60f 3dbe bbdf f03d e741 25bd ba55 cc3d
00000020: a657 df3c 7cb7 c4bc 3dcd 5e3d e182 1e3c
00000030: 40b1 923d 9485 9cbd 9c44 6abc eca2 90bc
00000040: 53dd e83c 6260 4dba 7f8d 2f3e f8f9 793d
00000050: 4f93 95bd 1d94 f2bd eea4 06bd 073f adbd
00000060: f2b4 80bd 01da 193c 796c 143f 778f e33e
00000070: 6b35 1ebf 3d99 e6bd dd3c d8be 1926 bdbd
00000080: 7e5a 5c3f 5ef0 2fbe 8c20 20bd 044b cbbe
00000090: d44e 1d3f 8af0 f8bd cdb4 9a3e ea59 693e
000000a0: fbe2 803e e513 303d f002 5dbf 712e 4fbe
000000b0: 7cfd 1abe a69f 823b acb3 97be 95ab e5be
000000c0: 122e 213e ecdf 62bf 8122 f83e 84d0 f83e
000000d0: 39be 833e e512 793e 5c30 fc3d bbbc 663f
000000e0: 67e9 103f 78ec b5bd 3cf6 80be e8c6 bdbd
000000f0: c79c 2b3e c0d3 8b3f e418 233f f3a5 be3e
00000100: 5b45 6d3e 8719 b03c 002f 8dbe 1d85 c03e
00000110: 2ca1 c93e 0975 c73e 652e 9f3e 6af5 293e
00000120: 84b3 533f dc26 053e 046c 17bf 5d3d c83e
00000130: 8e78 2dbf 8f69 f3be acea 11bf c96a 00be
00000140: 73c8 d13e 9944 18bd 46d2 cb3e 8df1 e33e
00000150: 1293 c7be ae02 423e e5e5 73be 7e6b 593c
00000160: 4749 2cbf 14c3 8c3e fc8c 17be 622a a2be
00000170: 168b 8a3e 9bdb 81bd ad19 103f c6f6 a13d
00000180: defa 4f3e bd8c 813e daf5 e3bd b193 e53e
00000190: 5d4c d83e dec0 2f3f cf88 80bd 25db ddbe
000001a0: d302 f5be 7c35 9bbe feef 0d3f 9478 033f
000001b0: 2ec4 463f 8dc0 c53e 9dd6 21bf ed12 833e
000001c0: 3664 383e 7e58 ef3e c273 50be ea36 913e
000001d0: 899d 623d a75b 09be e42e 68be 589a 08be
000001e0: bb20 523f 4348 d43e 9456 a63e 310d b63d
000001f0: a1af f83e 2109 bd3e 9477 b3be 899a 3d3f
00000200: 49c4 13bf eb93 14bf eebb 8a3e 24eb ff3e
00000210: bd47 5f3e e427 3f3f 6218 1a3f 0bc2 193f
00000220: 2575 6c3e f50f 233f 2047 843e 47ec ae3e
00000230: 4e4c c83e 9366 6d3e 67a4 963e c1ef b53e
00000240: 68ce 073e a1af b33e 6b39 40bd 2ee6 0c3f
00000250: bd5d ba3e 4156 183f 1ea6 013f c488 833e
00000260: 730d c63e bc1a 9ebc 59f8 95be 698f 1dbf
00000270: 95a4 eabd 0bcb abbd 6cc7 0e3e 1040 83bd
00000280: 3a12 16be 7f88 9a3d 4398 803d 3612 023e
00000290: 2dd7 cfbd 6a2a 2e3d 2c38 92bd b57a 34bd
000002a0: 1b0a 20be f30d b7bd a803 76bd 09c2 ab3d
000002b0: bec0 123d 1e6d 463d 4171 483e 40ba 433e
000002c0: 80f8 083e 21a3 cc3b 75ed 0abe eff1 1c3e
000002d0: b6df 48bd 83e2 81bc fbd6 ebbe 1525 2dbe
000002e0: ed3d 4a3e abe5 453f 6000 033f b6af f43d
000002f0: 3753 2cbf 00a2 03be c526 ba3d 5cef 413f
00000300: bded 51be 9e6c 273e 3030 f23d 49f2 babe
00000310: 91ea c7bd 36a5 483e 3c47 a03f e41e 953e
00000320: ad29 3d3e 5d44 c13c 8304 303f 516b cd3e
00000330: 6833 90be 7353 533f 2a55 51bf dfe2 37bf
00000340: 13b9 f93e 81af c63e 789c 86be e6ec c0be
00000350: 5c4e 40bf 4abc afbd b0dc 713f 2c57 793e
00000360: faf4 913e 1f4e 4fbf 090d 6b3e 337d 353e
00000370: e0f0 8b3d a643 103f 114e e23d 2860 71ba
00000380: aa44 5abf f27c e0be 9322 13bd c4de c13d
00000390: 3ae9 09be b197 76be 7d67 c53e 02e9 66bf
000003a0: ff2c 843f 801c 383f 8edd d1be f9fb 3abe
000003b0: 568d 5a3e 62ab 183f c917 403f 09e9 643d
000003c0: ef77 62bf 2ec8 2abe 6f68 863d 29b6 173f
000003d0: 7e28 86be 6525 4e3e f629 65be cca9 b8be
000003e0: 02e9 8bbe e274 653e a8af a63f 2d36 903e
000003f0: fd9e 1a3e 9a94 623e 208b 043f 9019 ca3e
0.10105143 -0.0865614 -0.038019367 0.09205082 -0.18463096 0.11761423 -0.040346052 0.099772885
0.027263474 -0.024013273 0.05439495 0.009674759 0.07162714 -0.076426655 -0.014298584 -0.017655812
0.028425848 -0.00078344916 0.1714382 0.061029404 -0.073034875 -0.118446566 -0.032872133 -0.08459287
-0.062845126 0.009390355 0.57978016 0.44445392 -0.6180026 -0.11259697 -0.42233935 -0.09235782
0.8607558 -0.17181537 -0.03909354 -0.3970567 0.6144841 -0.12155254 0.30216065 0.22788206
0.25173172 0.042987723 -0.8633261 -0.2023256 -0.15135759 0.0039863167 -0.29629266 -0.4485747
0.1574023 -0.8862293 0.48463824 0.48596585 0.25731066 0.24323614 0.12313911 0.9013173
0.56606144 -0.088829935 -0.25187862 -0.09266454 0.16759025 1.0923996 0.63709855 0.37235984
0.23170988 0.021496547 -0.2757492 0.37601557 0.39380777 0.38956478 0.31090084 0.16597524
0.82695794 0.13003105 -0.59149194 0.39109316 -0.67762077 -0.47541472 -0.56998706 -0.12540735
0.40973243 -0.037174795 0.39808863 0.44520226 -0.38979393 0.18946335 -0.23818167 0.013270257
-0.6729931 0.27492583 -0.14799875 -0.3167296 0.2705924 -0.063407145 0.5628918 0.079083964
0.20310542 0.25302687 -0.11130877 0.44839242 0.4224576 0.68653667 -0.06276094 -0.43331257
-0.47853717 -0.30314243 0.55444324 0.5135586 0.77643096 0.38623467 -0.632181 0.25600377
0.18006977 0.46747202 -0.20356658 0.2836221 0.05532602 -0.13413869 -0.22674137 -0.13340127
0.8208119 0.4146138 0.3248793 0.08889235 0.48571494 0.36921027 -0.35052168 0.74063927
-0.5772138 -0.58038205 0.27096504 0.49984086 0.2180471 0.74670243 0.60193455 0.6006171
0.23091562 0.63696223 0.25835514 0.3416464 0.39120716 0.2318366 0.29422304 0.3553448
0.13262331 0.35094932 -0.046929758 0.55038726 0.36399642 0.59506613 0.506441 0.2569028
0.38682136 -0.019299857 -0.29291037 -0.6154695 -0.11457173 -0.08388337 0.13943261 -0.06408703
-0.1465539 0.07545566 0.062790416 0.1270226 -0.101484634 0.042520918 -0.0713962 -0.044062335
-0.15628855 -0.089382075 -0.06006208 0.08386619 0.035828345 0.048443906 0.19574453 0.19114017
0.13376045 0.0062450324 -0.13567145 0.15326665 -0.049041472 -0.01585508 -0.46062455 -0.16908677
0.19750185 0.7730357 0.5117245 0.11947577 -0.67314476 -0.12854767 0.09089426 0.7575586
-0.20500846 0.16350028 0.11825597 -0.36512974 -0.09761537 0.19594273 1.2521739 0.2912513
0.1847293 0.023592168 0.68756884 0.40120938 -0.2816422 0.8254921 -0.81770575 -0.7183055
0.48774013 0.38805774 -0.2629125 -0.3768074 -0.75119567 -0.08580835 0.9447737 0.2434966
0.28507215 -0.8097858 0.22954191 0.17723541 0.06833053 0.56353223 0.11050046 -0.0009207749
-0.85261023 -0.43845326 -0.035921644 0.09466317 -0.13467875 -0.24081303 0.38555518 -0.9019929
1.0326232 0.7191849 -0.40989345 -0.18260182 0.21342978 0.5963651 0.75036293 0.055886302
-0.88464254 -0.16677925 0.06562888 0.5926233 -0.26202768 0.20131452 -0.22379288 -0.36067045
-0.27326208 0.22407869 1.3022356 0.28166333 0.15099712 0.22127 0.5177479 0.39472628

input_layer.bias f4 [50]
00000000: 712c 14bd cb63 7f3d 1670 a43e 461a d63d
00000010: e27a c13d 8aa8 f93e 2454 acbd 3484 093e
00000020: 2480 5b3d 654f 223e e08d 1c3d a500 2bbe
00000030: ce79 653c f5d2 ad3e 3106 fb3d a13e eb3d
00000040: d92a 363a e23b ec3e b2f5 c83d 2867 33be
00000050: 4638 0fbe 63ee 3d3c 10df bfbc ae64 563e
00000060: e4d5 3cbd b763 3a3e 095e 29be 72dd 3ebe
00000070: bdf1 2d3d 3250 febd 5442 6abd 9f66 bc3d
00000080: b732 2ebe 4349 903e cdc1 f3bd c637 ae3e
00000090: 480c 633e 11a6 16bd 02c0 2fbe 5fdd a93c
000000a0: fd61 e0bd fe78 623e 48f1 28be 710d 0f3d
000000b0: e05a ddbd 2629 01be 857c d1bd 1847 9fbc
000000c0: 345c 9f3d 0d29 2f3e
-0.036175195 0.06235103 0.32116765 0.1045423 0.09447266 0.48761398 -0.08414486 0.13429338
0.053589 0.15850599 0.03822124 -0.16699465 0.014006091 0.3395001 0.1225704 0.11486555
0.0006949134 0.46139437 0.09812488 -0.1751982 -0.1398631 0.01159248 -0.023421794 0.20936844
-0.04610242 0.182021 -0.16539778 -0.18639162 0.042466868 -0.1241764 -0.05719216 0.09199261
-0.17011534 0.28180894 -0.11902199 0.34026927 0.22172654 -0.036779467 -0.17163089 0.02073544
-0.1095619 0.22116467 -0.16498291 0.034924928 -0.10808349 -0.12613353 -0.10228828 -0.01944308
0.07781258 0.17105503

hidden_layer_list.0.weight f4 [30, 50]
00000000: 4700 943d 34de 94be 4868 d43d a952 fb3e
00000010: e34c 193f 19bd fe3d 57d4 f3bd 7b6e 1c3f
00000020: dd85 9fbe c1c0 093f 3929 7fbe 0f13 ca3d
00000030: b3e1 83bd 2b4d e33d c757 19bd b641 f6bd
00000040: 8dcb b63d e7a6 863e 8380 ed3e 32d1 06bd
00000050: 9c4a acbd c605 57bd c70c c5bd ea0e a83e
00000060: 649f 0b3e d2ee 283f 24c6 da3d d345 653c
00000070: 47b7 043f 49c5 bf3d 6afa ab3d dabc a1be
00000080: 3181 12bd 9547 703e 15cc a0bb 7147 62bd
00000090: 73c7 97bd 39e3 ea3d 6934 f13d 40b7 61bd
000000a0: 0c9e f8bc 3675 773e 131d 3dbd 972d 1c3f
000000b0: a2cc 00be 2435 8a3d 8b28 02be 4f2e 8abd
000000c0: 2e42 ed3e 26ba 83bd 4c24 bcbc f764 84bd
000000d0: 952f 81bd e729 b0bd fd29 cabd 4172 b4bd
000000e0: 2cde 0a3e 3b77 88bd 88da f0bd 6b10 c73d
000000f0: d9ba 603d 1d3a c73d 160c 10be e5d8 09be
00000100: 8490 cdbd 1d94 98bd a147 a3b9 8690 7a3d
00000110: 6091 a93d ee1c f9bd 3404 673d fc7e a7bd
00000120: 3126 053d 87de 353d 8866 b93c 20f2 4c3d
00000130: 9c63 e7bb f935 bf3d cb9f f13c 3ebe fd3d
00000140: ba21 fb3c d652 99bd 2600 ba3d 120e fb3b
00000150: 98f4 0b3e 381f 80bc 5548 0f3e 5313 a9bd
00000160: 3690 913d eb10 d8bd 64d7 c63d 5b4c d23c
00000170: 4e6f a43d 816c f9bd 360e 10be 1d8e 8b3d
00000180: dc50 6ebd 9b69 653d b3d5 abbd 0512 33bd
00000190: 0d16 263a d86a ae3d 3e8f a33d 36f9 4ebc
000001a0: 40d8 23bd f6bb 20bb c646 953d 877b f5bd
000001b0: 5300 31bd 029a 0bbe 673a a73c aa08 89bc
000001c0: 1013 a43d ab60 e73d e4a4 f7bd 022e 80bd
000001d0: 693e babc 97d7 b8ba 1b3a 04bd b01a b6bd
000001e0: 80d3 5fbd 14af 6ebb 23ea e83d 70a0 13bd
000001f0: 2245 bf3d 8a1f eabd d23b cf3b 1105 e2bd
00000200: d7e3 07be d79f 653c 7d9e 84bd fc3a d53d
00000210: 9fc4 e43d 6623 10be f679 21bc abeb c5bc
00000220: 2615 a5bd 2734 cabd 8121 75bd 49bf 7f3d
00000230: 65ba 093d f950 ae3d 5730 0abc 7d6d 963d
00000240: 7208 e03c 18a0 fcbc cd74 07bc 6fb5 03be
00000250: 85d8 54bb ee4b 3ebd 62da 41bd e9e3 98bd
00000260: f4cf 47bd 9e68 fabd 63b0 1cbc 7d6a c1bc
00000270: 4490 18bd a4d6 d63d 82cf 9d3d 89dc b43c
00000280: fd3f 8fbd ebc3 933c 0648 c7bd 583a a53d
00000290: 0cf2 e93d 77a4 1fbd 805d df3d 203c eb3d
000002a0: c7ee d7bc 5618 57bd 26e0 e93b 5574 bf3c
000002b0: 3a0d 06be 639a dabc 3471 51bd 35b0 9c3d
000002c0: 6806 85bb f48e be3d 700a dd3d b689 35bd
000002d0: 7860 f93c dd62 f5bc 4071 7cbd dd3f c5bd
000002e0: 2b77 563b c2a8 cd3c 900b 2fbd 3abe c43c
000002f0: 21ff b43d ce7b 713d 13df 6e3d 6041 b33c
00000300: 1ba5 debd 6ecf d3bd b7c8 d6bd cc53 be3d
00000310: 0b19 ffbd 7c3b d8bd 6028 9a3d 289f 863d
00000320: 92e5 08be 8b5a a73d b92c 04bd 6d99 f93c
00000330: 546f b5bd 23dd afbc a3be 003d 20d7 dc3d
00000340: b7a1 af3d cc7e 9dbd d3fa bdbd 3f00 0dbc
00000350: eacb 353d e3cd 9e3d 1e4f 10be 2c58 3dbc
00000360: f1df a33b 5443 87bd 5571 e43d c1c3 19bd
00000370: 1311 0abe 9fee acbd 4195 943b cf88 d7bd
00000380: 5a4f 043d 7ce0 0c3e 61b4 bd3b 1cb4 0ebd
00000390: 7e6e 083e 16d1 d53d 1277 c03d 9fc2 2f3c
000003a0: 87da d33b db9d e0bd 6bdc 6b3c f9da 0c3e
000003b0: b8fa f43b 2f3b 01be e3f7 9e3d 52f7 013e
000003c0: 66cf f23d f090 da3b dfa4 d93c 0b7c bb3c
000003d0: 6769 6dbd 950a a9bc 6748 ec3d 6564 6c3c
000003e0: 8b7c 083e 9955 c0bd 9f50 a9bc 9568 e6be
000003f0: be99 ae3c c5ee 133f 99a2 b93e 210f c33d
0.072266154 -0.29075778 0.103714526 0.49086502 0.59882945 0.12438411 -0.11905735 0.6110608
-0.31156817 0.53809744 -0.24918069 0.098669164 -0.06439533 0.11098703 -0.037437227 -0.12024252
0.08925543 0.2629921 0.4638711 -0.032914348 -0.08412668 -0.05249574 -0.09621578 0.3282388
0.13635021 0.6598941 0.106823236 0.013993698 0.5184216 0.09363801 0.08397372 -0.31589395
-0.035767738 0.23464806 -0.004907141 -0.055243913 -0.07411089 0.114691205 0.117775746 -0.0551064
-0.0303488 0.24165806 -0.046170305 0.61007065 -0.12578061 0.06748417 -0.12710778 -0.06747114
0.46339554 -0.06431989 -0.022966526 -0.0646457 -0.06307904 -0.08601742 -0.0987129 -0.08810855
0.13561314 -0.066633664 -0.117604315 0.09719928 0.05486569 0.09727881 -0.1406711 -0.13461645
-0.1003733 -0.07450125 -0.0003114315 0.061172985 0.08279681 -0.12163721 0.056400493 -0.08178517
0.032507125 0.04440167 0.022631899 0.050035596 -0.007061435 0.09336466 0.02949514 0.123898014
0.03065573 -0.07486503 0.090820596 0.0076615894 0.13667524 -0.015639886 0.13992436 -0.08255639
0.07107584 -0.10550102 0.09709051 0.025671175 0.08029042 -0.121788986 -0.14067921 0.06814215
-0.058182582 0.056008916 -0.08390369 -0.043718357 0.0006335683 0.085164726 0.07986306 -0.012632659
-0.040001154 -0.0024526096 0.072888896 -0.119864516 -0.0432132 -0.13632968 0.02041359 -0.016727764
0.080114484 0.11297735 -0.12091997 -0.06258775 -0.022734838 -0.0014102337 -0.032281976 -0.08891809
-0.05464506 -0.0036420273 0.11372783 -0.036041677 0.09339358 -0.11431797 0.00632427 -0.110361226
-0.13270508 0.01401516 -0.06475542 0.10411641 0.11170315 -0.14076003 -0.009855738 -0.024160227
-0.08060674 -0.098732285 -0.059846405 0.062438283 0.033625025 0.08511538 -0.008434377 0.07345102
0.027347777 -0.030838057 -0.008267594 -0.1286218 -0.0032477689 -0.04645913 -0.047327407 -0.074653454
-0.048782304 -0.122269854 -0.009563538 -0.023610348 -0.037246957 0.10490158 0.077055946 0.022077816
-0.06994627 0.018037757 -0.09730534 0.08067769 0.1142312 -0.038975205 0.109065056 0.11486077
-0.026358975 -0.052513443 0.0071373163 0.023370901 -0.13090983 -0.026684945 -0.05113335 0.07650796
-0.0040596016 0.0930461 0.107930064 -0.044320785 0.030441508 -0.029954368 -0.06163144 -0.096313216
0.0032724838 0.025104884 -0.042735636 0.024016488 0.088377245 0.05895596 0.05831821 0.02188176
-0.10871335 -0.103422984 -0.10487502 0.09293327 -0.124559484 -0.10558221 0.07527232 0.065733254
-0.13368824 0.081715666 -0.032269213 0.030468667 -0.08859125 -0.02146775 0.031431805 0.10783219
0.085757665 -0.076902 -0.092763565 -0.008606016 0.04438392 0.077541135 -0.14092681 -0.011556666
0.005001061 -0.06604639 0.11154429 -0.0375402 -0.13483076 -0.08443951 0.004534394 -0.10524141
0.032302238 0.13757509 0.005789325 -0.034839734 0.133234 0.104402706 0.09397711 0.010727554
0.0064652595 -0.109676085 0.014395813 0.13755406 0.007476177 -0.12620233 0.077621244 0.12692001
0.11855964 0.00667011 0.026567874 0.022886297 -0.057961848 -0.020634929 0.11537247 0.014428233
0.1332876 -0.093913265 -0.020668326 -0.45001665 0.021313544 0.5778621 0.36256865 0.0952437

hidden_layer_list.0.bias f4 [30]
00000000: ad57 80ba 1c62 3bbd e807 e8bd bcc0 1cbe
00000010: c5f4 9cbd d949 c63d 0f20 7f3e 58e4 663e
00000020: d475 053e 98d1 8e3e 499f c3bb 3926 153e
00000030: d7ae fcbd 319f 87bd b02b 05be d996 c7bd
00000040: 8781 d7bd 51e0 f9bc e753 5a3e 52f5 bd3d
00000050: 0311 643e f2dc b93d 4140 483e e649 9bbd
00000060: a268 0fbe f11d 533c a5b2 8b3e b181 40bc
00000070: 8d87 8d3d f3e7 f03d
-0.0009791754 -0.04574786 -0.11329633 -0.15307897 -0.076638736 0.09682054 0.24914573 0.22548044
0.13033229 0.27894282 -0.005969916 0.14565362 -0.123380356 -0.0662216 -0.13004947 -0.09745569
-0.10522752 -0.03050247 0.21321069 0.09275307 0.22272114 0.09075345 0.19555761 -0.075824544
-0.14004758 0.012885557 0.27284732 -0.011749671 0.0691062 0.11762991

output_layer.weight f4 [4, 30]
00000000: a484 3f3e 28ac 30be df7d 9abd d622 b8bb
00000010: dbfe 333e d203 b73e 487b a5be 1516 28bf
00000020: 67bb 863e 21ba 85bd deb6 d9bd f9cc 91bd
00000030: bf65 d93d bb35 e83d 6d9b 0c3e 3cd8 17bd
00000040: 4bd6 60bd afa3 efbd afda 563e 60f7 2abe
00000050: 7692 813e 1e26 ed3b 34d8 81be 7487 1d3e
00000060: 0b76 85bd b93e 9abd e04d c9be 4759 383e
00000070: 05fb a43e 2be1 95be 51ae 613e 205c 7fbd
00000080: 7a8c d33c 5514 aabd cdee 3c3d d950 bf3d
00000090: cb3e 8fbf 60da 54bf ddf6 b33e f0fb 5bbf
000000a0: 3210 04be 10af 883e beb6 353e 9098 34be
000000b0: 276f 123e 96c1 113e a669 243c 7605 bdbf
000000c0: a589 8a3e e672 963e a10d 2d3e 2e9e 2f3e
000000d0: a38f a5bf f215 8ebd e5c4 1b3d c96f a03d
000000e0: 74e0 95bf 3125 033f 8d77 9f3e f335 803e
000000f0: 1e51 06be 5f54 5abd 0664 f93d 26e5 9b3d
00000100: 3fff afbc 3d14 92be 4efa 3f3d ca4f ba3e
00000110: 3f39 4cbe f13f ff3d 0f1a f9bc ae33 02bf
00000120: b255 013e b89f 0abd a14c 27be b0a5 2abe
00000130: 08fa 14be 8af4 44be 5e33 343d 916d 943e
00000140: e559 eabc a67f 3cbe 244e 973d 263c bfbd
00000150: 52ca 123e bc89 08bc 9a09 063e 026b 23bf
00000160: 7764 40bf c2d4 a03e 3182 73bf 411f ecbc
00000170: 1008 113e f324 02be 4f01 9e3c 962a 72bf
00000180: 7dd6 c23e 26d9 563e bb66 44bf 4c1f c83e
00000190: 9869 f9bd 6b32 9abe 0c4b c5bc 6d21 12be
000001a0: db33 09be d271 72bd 1f89 afbc fc93 b53e
000001b0: 3104 18bf fd51 4ebf 5039 64bf 3382 88bf
000001c0: ecc6 0b3f 1b38 2a3e 9cab 13be f2a1 06be
000001d0: fd05 213f 2f79 b6be 82ff acbe d97f 20bf
0.18702942 -0.17253172 -0.07543539 -0.005619387 0.17577688 0.35745102 -0.3232062 -0.65658695
0.26314852 -0.06529642 -0.10630582 -0.071191736 0.1061511 0.11338373 0.13731165 -0.03707145
-0.054891866 -0.11701142 0.20981859 -0.16695929 0.25307053 0.00723721 -0.25360262 0.15383703
-0.065166555 -0.07531495 -0.39317226 0.18002807 0.32222763 -0.29273352 0.22039153 -0.062343717
0.02582382 -0.08304659 0.046126176 0.09341592 -1.1191038 -0.83145714 0.3514928 -0.859313
-0.12896803 0.26696062 0.17745492 -0.17636323 0.14300214 0.14234003 0.010034954 -1.4767292
0.2705814 0.29384536 0.1689973 0.17150185 -1.293446 -0.069377795 0.03802957 0.07833821
-1.1709123 0.51228625 0.31145898 0.2504116 -0.13116881 -0.05330312 0.12177281 0.07612066
-0.021484016 -0.28531066 0.04686957 0.36389 -0.19943713 0.12463368 -0.030407934 -0.50860107
0.12630346 -0.033843726 -0.16337825 -0.16664767 -0.14548504 -0.19233909 0.0439943 0.28989843
-0.028607318 -0.18408069 0.07387951 -0.09337644 0.14334992 -0.00833362 0.130896 -0.63835156
-0.751533 0.3141232 -0.9512053 -0.028823497 0.14163232 -0.12709408 0.019287733 -0.9459623
0.38054267 0.20981273 -0.76719254 0.39086378 -0.121783435 -0.3011659 -0.024083637 -0.14270563
-0.13398688 -0.05919058 -0.02142769 0.35464466 -0.59381396 -0.80593854 -0.8914995 -1.0664734
0.54600406 0.16622965 -0.14420933 -0.13147715 0.6289976 -0.3563933 -0.33788687 -0.6269508

output_layer.bias f4 [4]
00000000: efc3 f53c a732 08bd b846 683e 00b9 a13d
0.030000655 -0.03325143 0.22683227 0.07896614
