K-Digital Training/김소현 강사님/Pytorch/숙제/language_model/best_model_epoch_94.pth (torch, 14536 bytes, 6 tensors)

input_layer.weight f4 [50, 26]
0.10105143 -0.0865614 -0.038019367 0.09205082 -0.18463096 0.11761423 -0.040346052 0.099772885
0.027263474 -0.024013273 0.05439495 0.009674759 0.07162714 -0.076426655 -0.014298584 -0.017655812
0.028425848 -0.00078344916 0.1714382 0.061029404 -0.073034875 -0.118446566 -0.032872133 -0.08459287
-0.062845126 0.009390355 0.6073786 0.4894828 -0.63753426 -0.13460088 -0.45679742 -0.07732816
0.9224026 -0.11656581 -0.040254388 -0.45153266 0.63450825 -0.1505778 0.30504316 0.23991528
0.2844465 0.02993408 -1.0031718 -0.20386007 -0.1555429 0.01926676 -0.35206273 -0.47375107
0.24821582 -0.9812441 0.58048326 0.5415614 0.27646288 0.28481933 0.047274165 0.9765803
0.6167142 -0.11529213 -0.2779013 -0.091743015 0.19482328 1.1926827 0.73967636 0.3651821
0.27040282 0.01697904 -0.3472415 0.4077829 0.4297433 0.43434125 0.2996805 0.17937122
0.9160419 0.08668777 -0.66204655 0.40428934 -0.77085257 -0.58415014 -0.60586506 -0.16605212
0.4818191 -0.03138594 0.43951654 0.48952135 -0.44486427 0.20225105 -0.23984067 -0.013277297
-0.77214366 0.3198252 -0.16885051 -0.32453158 0.2973136 -0.061693247 0.6994435 0.08089615
0.22283925 0.26008362 -0.09875239 0.5004004 0.41135 0.8137035 -0.101402745 -0.47978002
-0.49236682 -0.32212934 0.5560431 0.5508443 0.8169681 0.36952505 -0.6832545 0.21164681
0.1884709 0.5426138 -0.17353052 0.3042549 0.06533941 -0.14473252 -0.27091756 -0.11379111
0.94341105 0.42665344 0.32546028 0.07996399 0.5538397 0.38344532 -0.43820453 0.8228056
-0.6739721 -0.6522277 0.29417458 0.5795507 0.18972172 0.8025999 0.6398842 0.6931936
0.22100331 0.7782819 0.2811817 0.4072199 0.48996624 0.19978444 0.32060492 0.34376764
0.12404122 0.3632005 -0.19330324 0.59843194 0.35247812 0.66127706 0.5374116 0.22154559
0.51301473 -0.08754608 -0.3108326 -0.7818644 -0.11457173 -0.08388337 0.13943261 -0.06408703
-0.1465539 0.07545566 0.062790416 0.1270226 -0.101484634 0.042520918 -0.0713962 -0.044062335
-0.15628855 -0.089382075 -0.06006208 0.08386619 0.035828345 0.048443906 0.19574453 0.19114017
0.13376045 0.0062450324 -0.13567145 0.15326665 -0.049041472 -0.01585508 -0.47183326 -0.19276118
0.19358067 0.8115151 0.54783106 0.08823029 -0.72380584 -0.19360644 0.101120636 0.83829945
-0.16889866 0.18565401 0.13231778 -0.37277806 -0.14766237 0.21919766 1.3770651 0.30246675
0.18596071 0.0081871385 0.76174486 0.41364428 -0.38763052 0.90268123 -0.9214353 -0.7802036
0.5068948 0.42711255 -0.26602238 -0.4063631 -0.7829497 -0.053437438 1.0002717 0.31626055
0.27995375 -0.88094103 0.21796091 0.15243213 0.06172574 0.573203 0.15720555 -0.019733023
-0.9862334 -0.44263518 -0.037409905 0.11499918 -0.20275262 -0.2572728 0.4942961 -0.9847699
1.1364555 0.77231914 -0.4222864 -0.20707445 0.21017852 0.63825464 0.78997517 0.025472645
-0.9411262 -0.23275493 0.07677792 0.68014884 -0.22220078 0.22501169 -0.20870312 -0.36925098
-0.32595235 0.24903494 1.4336354 0.2943118 0.15241471 0.20618954 0.5975014 0.4082139
00000000: 0df4 ce3d 1a47 b1bd 32ba 1bbd 2485 bc3d
00000010: e60f 3dbe bbdf f03d e741 25bd ba55 cc3d
00000020: a657 df3c 7cb7 c4bc 3dcd 5e3d e182 1e3c
00000030: 40b1 923d 9485 9cbd 9c44 6abc eca2 90bc
00000040: 53dd e83c 6260 4dba 7f8d 2f3e f8f9 793d
00000050: 4f93 95bd 1d94 f2bd eea4 06bd 073f adbd
00000060: f2b4 80bd 01da 193c 2a7d 1b3f 7d9d fa3e
00000070: 7235 23bf d0d4 09be 5ae1 e9be 3a5e 9ebd
00000080: 9422 6c3f 0eba eebd c9e1 24bd 4a2f e7be
00000090: 226f 223f 1131 1abe 9e2e 9c3e 5aac 753e
000000a0: f9a2 913e 5138 f53c ef67 80bf b2c0 50be
000000b0: a346 1fbe 53d5 9d3c 9141 b4be 808f f2be
000000c0: 4a2c 7e3e d032 7bbf 8d9a 143f c5a3 0a3f
000000d0: 8b8c 8d3e d7d3 913e 8ea2 413d 2b01 7a3f
000000e0: fbe0 1d3f 481e ecbd 1449 8ebe c3e3 bbbd
000000f0: c17f 473e d4a9 983f 6e5b 3d3f 26f9 ba3e
00000100: 3d72 8a3e a117 8b3c a3c9 b1be ecc8 d03e
00000110: 5007 dc3e fa61 de3e b96f 993e 17ad 373e
00000120: b981 6a3f 5c89 b13d e27b 29bf 03ff ce3e
00000130: 9856 45bf dd8a 15bf f919 1bbf 9109 2abe
00000140: feb0 f63e 8b8e 00bd 5008 e13e 8ba2 fa3e
00000150: 40c5 e3be e61a 4f3e cb98 75be 0589 59bc
00000160: 35ab 45bf 21c0 a33e 26e7 2cbe 0129 a6be
00000170: 7d39 983e 0fb2 7cbd bb0e 333f e1ac a53d
00000180: f92f 643e ae29 853e b13e cabd 3e1a 003f
00000190: 789c d23e df4e 503f 3eac cfbd baa5 f5be
000001a0: 8117 fcbe 23ee a4be d758 0e3f 2204 0d3f
000001b0: d224 513f 6332 bd3e c4e9 2ebf f1b9 583e
000001c0: 84fe 403e bde8 0a3f fcb1 31be 4cc7 9b3e
000001d0: abd0 853d c334 14be b5b5 8abe 500b e9bd
000001e0: 6383 713f 5272 da3e bba2 a63e 29c4 a33d
000001f0: 70c8 0d3f f252 c43e 585c e0be 63a3 523f
00000200: 6f89 2cbf 65f8 26bf 0d9e 963e 6f5d 143f
00000210: 6946 423e 3077 4d3f 73cf 233f 2375 313f
00000220: b14e 623e 7c3d 473f 0cf7 8f3e 207f d03e
00000230: dbdc fa3e 4b94 4c3e 5426 a43e 5002 b03e
00000240: 5309 fe3d 6af5 b93e 49f1 45be d632 193f
00000250: 0378 b43e 7449 293f ce93 093f d9dc 623e
00000260: ef54 033f 5c4b b3bd 7325 9fbe 4428 48bf
00000270: 95a4 eabd 0bcb abbd 6cc7 0e3e 1040 83bd
00000280: 3a12 16be 7f88 9a3d 4398 803d 3612 023e
00000290: 2dd7 cfbd 6a2a 2e3d 2c38 92bd b57a 34bd
000002a0: 1b0a 20be f30d b7bd a803 76bd 09c2 ab3d
000002b0: bec0 123d 1e6d 463d 4171 483e 40ba 433e
000002c0: 80f8 083e 21a3 cc3b 75ed 0abe eff1 1c3e
000002d0: b6df 48bd 83e2 81bc 2194 f1be 3063 45be
000002e0: 033a 463e 74bf 4f3f a83e 0c3f 15b2 b43d
000002f0: 574b 39bf c440 46be 5618 cf3d cb9a 563f
00000300: c5f3 2cbe 161c 3e3e 507e 073e c4dc bebe
00000310: ce34 17be 5a75 603e ab43 b03f ecdc 9a3e
00000320: 7c6c 3e3e 5923 063c b601 433f 2fc9 d33e
00000330: 8277 c6be 1e16 673f 2fe3 6bbf 6cbb 47bf
00000340: dcc3 013f 7fae da3e 1634 88be d30e d0be
00000350: 646f 48bf 37e1 5abd e708 803f e7ec a13e
00000360: 1956 8f3e 5a85 61bf 2531 5f3e 2b17 1c3e
00000370: 21d4 7c3d 6fbd 123f 7efa 203e 26a7 a1bc
00000380: cb79 7cbf 14a1 e2be 213b 19bd b184 eb3d
00000390: 629e 4fbe 43b9 83be 6114 fd3e e119 7cbf
000003a0: 6077 913f b5b6 453f ec35 d8be 530b 54be
000003b0: 0a39 573e a864 233f d03b 4a3f 02ac d03c
000003c0: a6ed 70bf 4f57 6ebe be3d 9d3d 3c1e 2e3f
000003d0: 9a88 63be 7769 663e 45b6 55be 770e bdbe
000003e0: 3ae3 a6be 0403 7f3e 5d81 b73f 09b0 963e
000003f0: 9a12 1c3e 5a23 533e daf5 183f 6a01 d13e

input_layer.bias f4 [50]
-0.036175195 0.067406155 0.33677876 0.10825548 0.09493242 0.51651984 -0.08414486 0.1341007
0.0582579 0.15878376 0.041711323 -0.16699465 0.014006091 0.34787443 0.12637691 0.12027171
0.0006949134 0.4791088 0.10316833 -0.1751982 -0.1398631 0.01159248 -0.023421794 0.21229297
-0.04610242 0.18442677 -0.16539778 -0.18639162 0.041870613 -0.1241764 -0.05719216 0.09700227
-0.17011534 0.29400697 -0.11902199 0.35034457 0.22958621 -0.036779467 -0.17163089 0.02073544
-0.1095619 0.22534648 -0.16498291 0.034374345 -0.10808349 -0.12613353 -0.10228828 -0.01944308
0.07744385 0.1775794
00000000: 712c 14bd 3d0c 8a3d 446e ac3e 0db5 dd3d
00000010: ee6b c23d a53a 043f 2454 acbd b251 093e
00000020: d69f 6e3d 3698 223e 7ed9 2a3d a500 2bbe
00000030: ce79 653c 991c b23e f368 013e 0451 f63d
00000040: d92a 363a c04d f53e eb49 d33d 2867 33be
00000050: 4638 0fbe 63ee 3d3c 10df bfbc 5463 593e
00000060: e4d5 3cbd 5fda 3c3e 095e 29be 72dd 3ebe
00000070: 8580 2b3d 3250 febd 5442 6abd 20a9 c63d
00000080: b732 2ebe 1588 963e cdc1 f3bd 5d60 b33e
00000090: a618 6b3e 11a6 16bd 02c0 2fbe 5fdd a93c
000000a0: fd61 e0bd 3ac1 663e 48f1 28be 1dcc 0c3d
000000b0: e05a ddbd 2629 01be 857c d1bd 1847 9fbc
000000c0: e29a 9e3d 60d7 353e

hidden_layer_list.0.weight f4 [30, 50]
0.072266154 -0.32059819 0.12793265 0.58869505 0.67175937 0.13737959 -0.11905735 0.6931952
-0.35648358 0.61904126 -0.2903226 0.098669164 -0.06439533 0.104840346 -0.07073477 -0.13558052
0.08925543 0.28250015 0.49703953 -0.032914348 -0.08412668 -0.05249574 -0.09621578 0.37389335
0.13635021 0.7404872 0.106823236 0.013993698 0.59922296 0.09363801 0.08397372 -0.35864985
-0.035767738 0.24292354 -0.004907141 -0.057846885 -0.08174978 0.114691205 0.117775746 -0.0551064
-0.0303488 0.28240684 -0.046170305 0.68532103 -0.12578061 0.06748417 -0.12710778 -0.06747114
0.54191905 -0.07863672 -0.022966526 -0.0646457 -0.06307904 -0.08601742 -0.0987129 -0.08810855
0.13561314 -0.066633664 -0.117604315 0.09719928 0.05486569 0.09727881 -0.1406711 -0.13461645
-0.1003733 -0.07450125 -0.0003114315 0.061172985 0.08279681 -0.12163721 0.056400493 -0.08178517
0.032507125 0.04440167 0.022631899 0.050035596 -0.007061435 0.09336466 0.02949514 0.123898014
0.03065573 -0.07486503 0.090820596 0.0076615894 0.13667524 -0.015639886 0.13992436 -0.08255639
0.07107584 -0.10550102 0.09709051 0.025671175 0.08029042 -0.121788986 -0.14067921 0.06814215
-0.058182582 0.056008916 -0.08390369 -0.043718357 0.0006335683 0.085164726 0.07986306 -0.012632659
-0.040001154 -0.0024526096 0.072888896 -0.119864516 -0.0432132 -0.13632968 0.02041359 -0.016727764
0.080114484 0.11297735 -0.12091997 -0.06258775 -0.022734838 -0.0014102337 -0.032281976 -0.08891809
-0.05464506 -0.0036420273 0.11372783 -0.036041677 0.09339358 -0.11431797 0.00632427 -0.110361226
-0.13270508 0.01401516 -0.06475542 0.10411641 0.11170315 -0.14076003 -0.009855738 -0.024160227
-0.08060674 -0.098732285 -0.059846405 0.062438283 0.033625025 0.08511538 -0.008434377 0.07345102
0.027347777 -0.030838057 -0.008267594 -0.1286218 -0.0032477689 -0.04645913 -0.047327407 -0.074653454
-0.048782304 -0.122269854 -0.009563538 -0.023610348 -0.037246957 0.10490158 0.077055946 0.022077816
-0.06994627 0.018037757 -0.09730534 0.08067769 0.1142312 -0.038975205 0.109065056 0.11486077
-0.026358975 -0.052513443 0.0071373163 0.023370901 -0.13090983 -0.026684945 -0.05113335 0.07650796
-0.0040596016 0.0930461 0.107930064 -0.044320785 0.030441508 -0.029954368 -0.06163144 -0.096313216
0.0032724838 0.025104884 -0.042735636 0.024016488 0.088377245 0.05895596 0.05831821 0.02188176
-0.10871335 -0.103422984 -0.10487502 0.09293327 -0.124559484 -0.10558221 0.07527232 0.065733254
-0.13368824 0.081715666 -0.032269213 0.030468667 -0.08859125 -0.02146775 0.031431805 0.10783219
0.085757665 -0.076902 -0.092763565 -0.008606016 0.04438392 0.077541135 -0.14092681 -0.011556666
0.005001061 -0.06604639 0.11154429 -0.0375402 -0.13483076 -0.08443951 0.004534394 -0.10524141
0.032302238 0.13757509 0.005789325 -0.034839734 0.133234 0.104402706 0.09397711 0.010727554
0.0064652595 -0.109676085 0.014395813 0.13755406 0.007476177 -0.12620233 0.077621244 0.12692001
0.11855964 0.00667011 0.026567874 0.022886297 -0.057961848 -0.020634929 0.11537247 0.014428233
0.1332876 -0.093913265 -0.020668326 -0.48278183 0.022902492 0.62790537 0.38187602 0.1011835
00000000: 4700 943d 7225 a4be c700 033e b8b4 163f
00000010: 6cf8 2b3f 3cad 0c3e 57d4 f3bd 3e75 313f
00000020: 0485 b6be 7d79 1e3f 2aa5 94be 0f13 ca3d
00000030: b3e1 83bd 89b6 d63d 64dd 90bd 9fd5 0abe
00000040: 8dcb b63d dca3 903e f77b fe3e 32d1 06bd
00000050: 9c4a acbd c605 57bd c70c c5bd f36e bf3e
00000060: 649f 0b3e 9290 3d3f 24c6 da3d d345 653c
00000070: ad66 193f 49c5 bf3d 6afa ab3d f4a0 b7be
00000080: 3181 12bd f3c0 783e 15cc a0bb dbf0 6cbd
00000090: 6e6c a7bd 39e3 ea3d 6934 f13d 40b7 61bd
000000a0: 0c9e f8bc a197 903e 131d 3dbd 3371 2f3f
000000b0: a2cc 00be 2435 8a3d 8b28 02be 4f2e 8abd
000000c0: 35bb 0a3f 4a0c a1bd 4c24 bcbc f764 84bd
000000d0: 952f 81bd e729 b0bd fd29 cabd 4172 b4bd
000000e0: 2cde 0a3e 3b77 88bd 88da f0bd 6b10 c73d
000000f0: d9ba 603d 1d3a c73d 160c 10be e5d8 09be
00000100: 8490 cdbd 1d94 98bd a147 a3b9 8690 7a3d
00000110: 6091 a93d ee1c f9bd 3404 673d fc7e a7bd
00000120: 3126 053d 87de 353d 8866 b93c 20f2 4c3d
00000130: 9c63 e7bb f935 bf3d cb9f f13c 3ebe fd3d
00000140: ba21 fb3c d652 99bd 2600 ba3d 120e fb3b
00000150: 98f4 0b3e 381f 80bc 5548 0f3e 5313 a9bd
00000160: 3690 913d eb10 d8bd 64d7 c63d 5b4c d23c
00000170: 4e6f a43d 816c f9bd 360e 10be 1d8e 8b3d
00000180: dc50 6ebd 9b69 653d b3d5 abbd 0512 33bd
00000190: 0d16 263a d86a ae3d 3e8f a33d 36f9 4ebc
000001a0: 40d8 23bd f6bb 20bb c646 953d 877b f5bd
000001b0: 5300 31bd 029a 0bbe 673a a73c aa08 89bc
000001c0: 1013 a43d ab60 e73d e4a4 f7bd 022e 80bd
000001d0: 693e babc 97d7 b8ba 1b3a 04bd b01a b6bd
000001e0: 80d3 5fbd 14af 6ebb 23ea e83d 70a0 13bd
000001f0: 2245 bf3d 8a1f eabd d23b cf3b 1105 e2bd
00000200: d7e3 07be d79f 653c 7d9e 84bd fc3a d53d
00000210: 9fc4 e43d 6623 10be f679 21bc abeb c5bc
00000220: 2615 a5bd 2734 cabd 8121 75bd 49bf 7f3d
00000230: 65ba 093d f950 ae3d 5730 0abc 7d6d 963d
00000240: 7208 e03c 18a0 fcbc cd74 07bc 6fb5 03be
00000250: 85d8 54bb ee4b 3ebd 62da 41bd e9e3 98bd
00000260: f4cf 47bd 9e68 fabd 63b0 1cbc 7d6a c1bc
00000270: 4490 18bd a4d6 d63d 82cf 9d3d 89dc b43c
00000280: fd3f 8fbd ebc3 933c 0648 c7bd 583a a53d
00000290: 0cf2 e93d 77a4 1fbd 805d df3d 203c eb3d
000002a0: c7ee d7bc 5618 57bd 26e0 e93b 5574 bf3c
000002b0: 3a0d 06be 639a dabc 3471 51bd 35b0 9c3d
000002c0: 6806 85bb f48e be3d 700a dd3d b689 35bd
000002d0: 7860 f93c dd62 f5bc 4071 7cbd dd3f c5bd
000002e0: 2b77 563b c2a8 cd3c 900b 2fbd 3abe c43c
000002f0: 21ff b43d ce7b 713d 13df 6e3d 6041 b33c
00000300: 1ba5 debd 6ecf d3bd b7c8 d6bd cc53 be3d
00000310: 0b19 ffbd 7c3b d8bd 6028 9a3d 289f 863d
00000320: 92e5 08be 8b5a a73d b92c 04bd 6d99 f93c
00000330: 546f b5bd 23dd afbc a3be 003d 20d7 dc3d
00000340: b7a1 af3d cc7e 9dbd d3fa bdbd 3f00 0dbc
00000350: eacb 353d e3cd 9e3d 1e4f 10be 2c58 3dbc
00000360: f1df a33b 5443 87bd 5571 e43d c1c3 19bd
00000370: 1311 0abe 9fee acbd 4195 943b cf88 d7bd
00000380: 5a4f 043d 7ce0 0c3e 61b4 bd3b 1cb4 0ebd
00000390: 7e6e 083e 16d1 d53d 1277 c03d 9fc2 2f3c
000003a0: 87da d33b db9d e0bd 6bdc 6b3c f9da 0c3e
000003b0: b8fa f43b 2f3b 01be e3f7 9e3d 52f7 013e
000003c0: 66cf f23d f090 da3b dfa4 d93c 0b7c bb3c
000003d0: 6769 6dbd 950a a9bc 6748 ec3d 6564 6c3c
000003e0: 8b7c 083e 9955 c0bd 9f50 a9bc 2e2f f7be
000003f0: 029e bb3c 68be 203f 4185 c33e 4b39 cf3d

hidden_layer_list.0.bias f4 [30]
0.0031158598 -0.04574786 -0.11329633 -0.15307897 -0.076638736 0.09722452 0.25862184 0.23044327
0.13542813 0.2872449 -0.005969916 0.15569846 -0.123380356 -0.0662216 -0.13361727 -0.09745569
-0.0793442 -0.0255167 0.21775658 0.097846344 0.22532465 0.094854034 0.2025052 -0.075824544
-0.14004758 0.012885557 0.28193727 -0.00584103 0.07384851 0.12406015
00000000: 7433 4c3b 1c62 3bbd e807 e8bd bcc0 1cbe
00000010: c5f4 9cbd a61d c73d 156a 843e 52f9 6b3e
00000020: acad 0a3e c311 933e 499f c3bb 6b6f 1f3e
00000030: d7ae fcbd 319f 87bd f7d2 08be d996 c7bd
00000040: 367f a2bd 6608 d1bc 95fb 5e3e aa63 c83d
00000050: 81bb 663e d542 c23d 865d 4f3e e649 9bbd
00000060: a268 0fbe f11d 533c 155a 903e 1c66 bfbb
00000070: e33d 973d 3f13 fe3d

output_layer.weight f4 [4, 30]
0.1830152 -0.17253172 -0.07543539 -0.005619387 0.17577688 0.35866225 -0.30463633 -0.66797346
0.2585013 -0.041120004 -0.10630582 -0.08297349 0.1061511 0.11338373 0.13689852 -0.03707145
-0.06716204 -0.072194114 0.20344768 -0.18169314 0.25011215 0.0008466789 -0.22580089 0.15383703
-0.065166555 -0.07531495 -0.3774463 0.17204936 0.32754555 -0.31709996 0.24136779 -0.062343717
0.02582382 -0.08304659 0.046126176 0.10696989 -1.242051 -0.87534773 0.37144196 -0.98457843
-0.12896803 0.30483273 0.17745492 -0.17636323 0.143002 0.14234003 0.13425058 -1.6181728
0.28980565 0.31549388 0.1842799 0.189649 -1.4101313 -0.069377795 0.03802957 0.07833821
-1.2877017 0.5462602 0.33630905 0.27957126 -0.13982834 -0.05330312 0.12177281 0.07612066
-0.021484016 -0.30085757 0.065986484 0.38865033 -0.20888847 0.14229298 -0.030407934 -0.6081659
0.12630346 -0.033843726 -0.16322824 -0.16664767 -0.43906736 -0.17945836 0.043429896 0.30865228
-0.032948583 -0.18392736 0.087954566 -0.09337644 0.14334992 -0.00833362 0.14924957 -0.74368304
-0.8658428 0.34585795 -1.0379038 -0.028823497 0.14163232 -0.12709408 0.019287733 -1.0105492
0.39904988 0.21929787 -0.85037565 0.41152272 -0.121783435 -0.3019566 -0.024083637 -0.14270563
-0.1340899 -0.05919058 -0.16004975 0.38363847 -0.6619293 -0.8627898 -0.94887143 -1.1288586
0.56564426 0.16622965 -0.14420933 -0.13147715 0.64623135 -0.3599142 -0.34312746 -0.69227225
00000000: 5668 3b3e 28ac 30be df7d 9abd d622 b8bb
00000010: dbfe 333e 94a2 b73e 4bf9 9bbe 4f00 2bbf
00000020: 485a 843e 736d 28bd deb6 d9bd 01ee a9bd
00000030: bf65 d93d bb35 e83d 202f 0c3e 3cd8 17bd
00000040: 408c 89bd 82da 93bd 9754 503e c40d 3abe
00000050: b30e 803e a9f3 5d3a 5938 67be 7487 1d3e
00000060: 0b76 85bd b93e 9abd a440 c1be b52d 303e
00000070: 0db4 a73e ed5a a2be 1e29 773e 205c 7fbd
00000080: 7a8c d33c 5514 aabd cdee 3c3d 0813 db3d
00000090: 87fb 9ebf ca16 60bf a42d be3e 550d 7cbf
000000a0: 3210 04be 0913 9c3e beb6 353e 9098 34be
000000b0: 1e6f 123e 96c1 113e fc78 093e 4920 cfbf
000000c0: 6861 943e 6a88 a13e dfb3 3c3e 5933 423e
000000d0: 2f7f b4bf f215 8ebd e5c4 1b3d c96f a03d
000000e0: 69d3 a4bf b5d7 0b3f b330 ac3e f723 8f3e
000000f0: 292f 0fbe 5f54 5abd 0664 f93d 26e5 9b3d
00000100: 3fff afbc 010a 9abe ec23 873d 2dfd c63e
00000110: dce6 55be 40b5 113e 0f1a f9bc c3b0 1bbf
00000120: b255 013e b89f 0abd 4e25 27be b0a5 2abe
00000130: 70cd e0be efc3 37be 8ce3 313d ac07 9e3e
00000140: 18f5 06bd 7457 3cbe 8621 b43d 263c bfbd
00000150: 52ca 123e bc89 08bc e1d4 183e 0362 3ebf
00000160: e0a7 5dbf 4b14 b13e 08da 84bf 411f ecbc
00000170: 1008 113e f324 02be 4f01 9e3c ad59 81bf
00000180: 4450 cc3e 9f8f 603e 38b2 59bf 1bb3 d23e
00000190: 9869 f9bd 0e9a 9abe 0c4b c5bc 6d21 12be
000001a0: dd4e 09be d271 72bd 15e4 23be 436c c43e
000001b0: 3374 29bf cbdf 5cbf 3de9 72bf 707e 90bf
000001c0: 10ce 103f 1b38 2a3e 9cab 13be f2a1 06be
000001d0: 6b6f 253f ad46 b8be 67ae afbe c138 31bf

output_layer.bias f4 [4]
0.027225506 -0.03235833 0.23055682 0.077547304
00000000: 0608 df3c 2b8a 04bd 1617 6c3e 1fd1 9e3d
