K-Digital Training/김소현 강사님/Pytorch/숙제/language_model/best_model_epoch_57.pth (torch, 14536 bytes, 6 tensors)

input_layer.weight f4 [50, 26]
0.10105143 -0.0865614 -0.038019367 0.09205082 -0.18463096 0.11761423 -0.040346052 0.099772885
0.027263474 -0.024013273 0.05439495 0.009674759 0.07162714 -0.076426655 -0.014298584 -0.017655812
0.028425848 -0.00078344916 0.1714382 0.061029404 -0.073034875 -0.118446566 -0.032872133 -0.08459287
-0.062845126 0.009390355 0.5388075 0.38005376 -0.60170585 -0.054333474 -0.3495572 -0.15940888
0.74889165 -0.3136817 -0.043419234 -0.27120245 0.6022312 -0.08142 0.30464575 0.1991726
0.16938807 0.06702509 -0.570362 -0.1836081 -0.1428342 -0.029497804 -0.17122243 -0.40289265
-0.05325225 -0.6908069 0.29146388 0.38598165 0.21864387 0.16318493 0.24375616 0.751281
0.4663252 -0.058338575 -0.18783262 -0.09967582 0.12188315 0.91495496 0.46106756 0.3828375
0.16909675 0.031353265 -0.15476538 0.32017535 0.33431756 0.3015469 0.32186645 0.13830431
0.67505014 0.20281996 -0.48663652 0.37762454 -0.51485574 -0.2670343 -0.5225584 -0.063610025
0.30771938 -0.055473354 0.32612506 0.4035004 -0.30754128 0.21344294 -0.23502836 0.027897727
-0.5384541 0.20734917 -0.12194471 -0.30766922 0.24902456 -0.07489308 0.2825552 0.06586126
0.16581704 0.24876028 -0.15757707 0.35735738 0.48321816 0.45696342 0.011433874 -0.37690935
-0.46153823 -0.2786154 0.5656878 0.422864 0.6881661 0.45208967 -0.53247815 0.37865534
0.16907026 0.3129026 -0.26530367 0.25185993 0.031187586 -0.11095566 -0.12904274 -0.17237605
0.5489992 0.37597778 0.31833988 0.11013728 0.34072295 0.3420862 -0.1459391 0.5660566
-0.38463083 -0.45051366 0.21160443 0.3392021 0.2803088 0.61516786 0.5254145 0.38769093
0.26034242 0.32847294 0.19958237 0.20032507 0.19837253 0.28628227 0.24133757 0.3633015
0.14538118 0.3183863 0.26825052 0.45395637 0.38519472 0.45865735 0.4594193 0.34758288
0.084533334 0.16666895 -0.3015555 -0.31286177 -0.11457173 -0.08388337 0.13943261 -0.06408703
-0.1465539 0.07545566 0.062790416 0.1270226 -0.101484634 0.042520918 -0.0713962 -0.044062335
-0.15628855 -0.089382075 -0.06006208 0.08386619 0.035828345 0.048443906 0.19574453 0.19114017
0.13376045 0.0062450324 -0.13567145 0.15326665 -0.049041472 -0.01585508 -0.4472576 -0.13459103
0.21557795 0.68107826 0.42961845 0.21548475 -0.57389235 0.037482366 0.07766395 0.59528804
-0.2719988 0.12617862 0.08746298 -0.34686297 0.010196518 0.14982453 0.9692356 0.25345573
0.17495932 0.057448804 0.52865595 0.37390316 -0.033713847 0.652269 -0.6064008 -0.6042716
0.45765838 0.32929337 -0.27141523 -0.30152258 -0.67779523 -0.1860028 0.8366858 0.06408501
0.2867109 -0.6595789 0.25855422 0.21445061 0.08504877 0.53753215 0.0044825943 0.03344535
-0.5557925 -0.41321564 -0.02977048 0.050913863 0.014672032 -0.20695554 0.13201217 -0.71850854
0.81876916 0.6184536 -0.39530715 -0.14697742 0.23054935 0.49564624 0.6601464 0.15348019
-0.7737214 0.005858644 0.050474394 0.41622427 -0.33605248 0.16045529 -0.25741902 -0.3408004
-0.15928435 0.17398763 1.0040624 0.23955154 0.13977902 0.25509351 0.34619057 0.3644706
00000000: 0df4 ce3d 1a47 b1bd 32ba 1bbd 2485 bc3d
00000010: e60f 3dbe bbdf f03d e741 25bd ba55 cc3d
00000020: a657 df3c 7cb7 c4bc 3dcd 5e3d e182 1e3c
00000030: 40b1 923d 9485 9cbd 9c44 6abc eca2 90bc
00000040: 53dd e83c 6260 4dba 7f8d 2f3e f8f9 793d
00000050: 4f93 95bd 1d94 f2bd eea4 06bd 073f adbd
00000060: f2b4 80bd 01da 193c 4aef 093f 6896 c23e
00000070: 6509 1abf c78c 5ebd 29f9 b2be 153c 23be
00000080: 5db7 3f3f e39a a0be 5ed8 31bd 0cdb 8abe
00000090: d32b 1a3f 87bf a6bd 87fa 9b3e e7f3 4b3e
000000a0: 1174 2d3e 7344 893d 3e03 12bf c303 3cbe
000000b0: 2143 12be 61a5 f1bc ef54 2fbe f247 cebe
000000c0: 081f 5abd b9d8 30bf c13a 953e 639f c53e
000000d0: 2ee4 5f3e f319 273e 379b 793e f453 403f
000000e0: 2dc2 ee3e 6ef4 6ebd 3257 40be d622 ccbd
000000f0: df9d f93d 7d3a 6a3f 0c11 ec3e 4703 c43e
00000100: b327 2d3e 486c 003d d17a 1ebe 06ee a33e
00000110: ac2b ab3e 5b64 9a3e aecb a43e a59f 0d3e
00000120: 16d0 2c3f 09b0 4f3e 6c28 f9be 0158 c13e
00000130: 96cd 03bf b8b8 88be 63c6 05bf f945 82bd
00000140: 658d 9d3e 0738 63bd ddf9 a63e 9b97 ce3e
00000150: 0d76 9dbe c990 5a3e 46ab 70be c689 e43c
00000160: 21d8 09bf 5753 543e 26be f9bd d286 9dbe
00000170: 4b00 7f3e 8b61 99bd 13ab 903e 45e2 863d
00000180: f1cb 293e 04bb 7e3e e25b 21be 8cf7 b63e
00000190: 5f68 f73e 1cf7 e93e 2555 3b3c 43fa c0be
000001a0: bd4e ecbe ada6 8ebe ead0 103f a181 d83e
000001b0: a72b 303f 4c78 e73e 7d50 08bf 1ddf c13e
000001c0: c120 2d3e c534 a03e e2d5 87be c9f3 803e
000001d0: 1c7d ff3c b93c e3bd c823 04be 5983 30be
000001e0: 368b 0c3f 2980 c03e 72fd a23e a78f e13d
000001f0: 3d73 ae3e ec25 af3e 0f71 15be 16e9 103f
00000200: 55ee c4be baa9 e6be d5ae 583e e6ab ad3e
00000210: a384 8f3e a47b 1d3f 9181 063f 6d7f c63e
00000220: 9a4b 853e 9b2d a83e 525f 4c3e 0422 4d3e
00000230: 2b22 4b3e 9793 923e 3221 773e a702 ba3e
00000240: cede 143e 8703 a33e 2258 893e f86c e83e
00000250: 3e38 c53e 23d5 ea3e 0239 eb3e 62f6 b13e
00000260: d01f ad3d 44ab 2a3e 7c65 9abe 6b2f a0be
00000270: 95a4 eabd 0bcb abbd 6cc7 0e3e 1040 83bd
00000280: 3a12 16be 7f88 9a3d 4398 803d 3612 023e
00000290: 2dd7 cfbd 6a2a 2e3d 2c38 92bd b57a 34bd
000002a0: 1b0a 20be f30d b7bd a803 76bd 09c2 ab3d
000002b0: bec0 123d 1e6d 463d 4171 483e 40ba 433e
000002c0: 80f8 083e 21a3 cc3b 75ed 0abe eff1 1c3e
000002d0: b6df 48bd 83e2 81bc f3fe e4be 3bd2 09be
000002e0: 77c0 5c3e 255b 2e3f f3f6 db3e 09a8 5c3e
000002f0: 9cea 12bf 1c87 193d 470e 9f3d cc64 183f
00000300: 6d43 8bbe f834 013e ca1f b33d 0698 b1be
00000310: 4c0f 273c 9a6b 193e d31f 783f f3c4 813e
00000320: 8928 333e 704f 6b3d ff55 073f 3c70 bf3e
00000330: 8817 0abd 1afb 263f 153d 1bbf 8bb1 1abf
00000340: 3352 ea3e 2499 a83e f0f6 8abe 2b61 9abe
00000350: fd83 2dbf 8577 3ebe 0a31 563f 003f 833d
00000360: c5cb 923e 2ada 28bf 3861 843e f198 5b3e
00000370: 0d2e ae3d b59b 093f bae2 923b fefd 083d
00000380: 6b48 0ebf 0091 d3be 39e1 f3bc 0e8b 503d
00000390: f662 703c 27ec 53be 332e 073e 2df0 37bf
000003a0: db9a 513f fa52 1e3f b365 cabe 4081 16be
000003b0: 2115 6c3e 58c5 fd3e 5bff 283f e929 1d3e
000003c0: 9b12 46bf def9 bf3b 3dbe 4e3d 591b d53e
000003d0: 120f acbe 644e 243e 6dcc 83be 647d aebe
000003e0: 701b 23be d029 323e 1e85 803f 004d 753e
000003f0: 3b22 0f3e 9e9b 823e e43f b13e e49b ba3e

input_layer.bias f4 [50]
-0.036175195 0.051684055 0.2893249 0.098554954 0.09261025 0.4225381 -0.08414486 0.13360783
0.043562844 0.15652972 0.030992758 -0.16699465 0.014006091 0.3186975 0.11251995 0.10257254
0.0006949134 0.42092875 0.08477805 -0.1751982 -0.1398631 0.01159248 -0.023421794 0.20316628
-0.04610242 0.1767465 -0.16539778 -0.18639162 0.043045387 -0.1241764 -0.05719216 0.08351787
-0.17011534 0.25090286 -0.11902199 0.31528124 0.20316957 -0.036779467 -0.17163089 0.02073544
-0.1095619 0.21138428 -0.16498291 0.034861844 -0.10808349 -0.12613353 -0.10228828 -0.01944308
0.07884467 0.15635863
00000000: 712c 14bd a9b2 533d 6522 943e 2ed7 c93d
00000010: 71aa bd3d ea56 d83e 2454 acbd 7ed0 083e
00000020: f46e 323d 5449 203e 86e4 fd3c a500 2bbe
00000030: ce79 653c 522c a33e dc70 e63d 8d11 d23d
00000040: d92a 363a f983 d73e 1da0 ad3d 2867 33be
00000050: 4638 0fbe 63ee 3d3c 10df bfbc d20a 503e
00000060: e4d5 3cbd 09fd 343e 095e 29be 72dd 3ebe
00000070: 5c50 303d 3250 febd 5442 6abd 6b0b ab3d
00000080: b732 2ebe 5776 803e cdc1 f3bd 8b6c a13e
00000090: af0b 503e 11a6 16bd 02c0 2fbe 5fdd a93c
000000a0: fd61 e0bd 1f75 583e 48f1 28be 4bcb 0e3d
000000b0: e05a ddbd 2629 01be 857c d1bd 1847 9fbc
000000c0: 5079 a13d 7a1c 203e

hidden_layer_list.0.weight f4 [30, 50]
0.072266154 -0.24413258 0.05445471 0.34310362 0.46648633 0.09599021 -0.11905735 0.46021459
-0.2294749 0.38737136 -0.17772263 0.098669164 -0.06439533 0.11681993 0.021402374 -0.098655626
0.08925543 0.22198349 0.40044004 -0.032914348 -0.08412668 -0.05249574 -0.09621578 0.24046892
0.13635021 0.5183856 0.106823236 0.013993698 0.36828732 0.09363801 0.08397372 -0.24034695
-0.035767738 0.2146986 -0.004907141 -0.05671166 -0.06590188 0.114691205 0.117775746 -0.0551064
-0.0303488 0.16354512 -0.046170305 0.47138894 -0.12578061 0.06748417 -0.12710778 -0.06747114
0.32185555 -0.043008376 -0.022966526 -0.0646457 -0.06307904 -0.08601742 -0.0987129 -0.08810855
0.13561314 -0.066633664 -0.117604315 0.09719928 0.05486569 0.09727881 -0.1406711 -0.13461645
-0.1003733 -0.07450125 -0.0003114315 0.061172985 0.08279681 -0.12163721 0.056400493 -0.08178517
0.032507125 0.04440167 0.022631899 0.050035596 -0.007061435 0.09336466 0.02949514 0.123898014
0.03065573 -0.07486503 0.090820596 0.0076615894 0.13667524 -0.015639886 0.13992436 -0.08255639
0.07107584 -0.10550102 0.09709051 0.025671175 0.08029042 -0.121788986 -0.14067921 0.06814215
-0.058182582 0.056008916 -0.08390369 -0.043718357 0.0006335683 0.085164726 0.07986306 -0.012632659
-0.040001154 -0.0024526096 0.072888896 -0.119864516 -0.0432132 -0.13632968 0.02041359 -0.016727764
0.080114484 0.11297735 -0.12091997 -0.06258775 -0.022734838 -0.0014102337 -0.032281976 -0.08891809
-0.05464506 -0.0036420273 0.11372783 -0.036041677 0.09339358 -0.11431797 0.00632427 -0.110361226
-0.13270508 0.01401516 -0.06475542 0.10411641 0.11170315 -0.14076003 -0.009855738 -0.024160227
-0.08060674 -0.098732285 -0.059846405 0.062438283 0.033625025 0.08511538 -0.008434377 0.07345102
0.027347777 -0.030838057 -0.008267594 -0.1286218 -0.0032477689 -0.04645913 -0.047327407 -0.074653454
-0.048782304 -0.122269854 -0.009563538 -0.023610348 -0.037246957 0.10490158 0.077055946 0.022077816
-0.06994627 0.018037757 -0.09730534 0.08067769 0.1142312 -0.038975205 0.109065056 0.11486077
-0.026358975 -0.052513443 0.0071373163 0.023370901 -0.13090983 -0.026684945 -0.05113335 0.07650796
-0.0040596016 0.0930461 0.107930064 -0.044320785 0.030441508 -0.029954368 -0.06163144 -0.096313216
0.0032724838 0.025104884 -0.042735636 0.024016488 0.088377245 0.05895596 0.05831821 0.02188176
-0.10871335 -0.103422984 -0.10487502 0.09293327 -0.124559484 -0.10558221 0.07527232 0.065733254
-0.13368824 0.081715666 -0.032269213 0.030468667 -0.08859125 -0.02146775 0.031431805 0.10783219
0.085757665 -0.076902 -0.092763565 -0.008606016 0.04438392 0.077541135 -0.14092681 -0.011556666
0.005001061 -0.06604639 0.11154429 -0.0375402 -0.13483076 -0.08443951 0.004534394 -0.10524141
0.032302238 0.13757509 0.005789325 -0.034839734 0.133234 0.104402706 0.09397711 0.010727554
0.0064652595 -0.109676085 0.014395813 0.13755406 0.007476177 -0.12620233 0.077621244 0.12692001
0.11855964 0.00667011 0.026567874 0.022886297 -0.057961848 -0.020634929 0.11537247 0.014428233
0.1332876 -0.093913265 -0.020668326 -0.41208297 0.016545668 0.5085201 0.3359901 0.08233982
00000000: 4700 943d e4fd 79be e70b 5f3d 47ab af3e
00000010: 4cd7 ee3e 8496 c43d 57d4 f3bd 3fa1 eb3e
00000020: 78fb 6abe 8a55 c63e ecfc 35be 0f13 ca3d
00000030: b3e1 83bd 4a3f ef3d 0854 af3c f60b cabd
00000040: 8dcb b63d a44f 633e 7a06 cd3e 32d1 06bd
00000050: 9c4a acbd c605 57bd c70c c5bd 7c3d 763e
00000060: 649f 0b3e ebb4 043f 24c6 da3d d345 653c
00000070: 2890 bc3e 49c5 bf3d 6afa ab3d 831d 76be
00000080: 3181 12bd f3d9 5b3e 15cc a0bb 7c4a 68bd
00000090: 91f7 86bd 39e3 ea3d 6934 f13d 40b7 61bd
000000a0: 0c9e f8bc 5f78 273e 131d 3dbd e459 f13e
000000b0: a2cc 00be 2435 8a3d 8b28 02be 4f2e 8abd
000000c0: 40ca a43e 8d29 30bd 4c24 bcbc f764 84bd
000000d0: 952f 81bd e729 b0bd fd29 cabd 4172 b4bd
000000e0: 2cde 0a3e 3b77 88bd 88da f0bd 6b10 c73d
000000f0: d9ba 603d 1d3a c73d 160c 10be e5d8 09be
00000100: 8490 cdbd 1d94 98bd a147 a3b9 8690 7a3d
00000110: 6091 a93d ee1c f9bd 3404 673d fc7e a7bd
00000120: 3126 053d 87de 353d 8866 b93c 20f2 4c3d
00000130: 9c63 e7bb f935 bf3d cb9f f13c 3ebe fd3d
00000140: ba21 fb3c d652 99bd 2600 ba3d 120e fb3b
00000150: 98f4 0b3e 381f 80bc 5548 0f3e 5313 a9bd
00000160: 3690 913d eb10 d8bd 64d7 c63d 5b4c d23c
00000170: 4e6f a43d 816c f9bd 360e 10be 1d8e 8b3d
00000180: dc50 6ebd 9b69 653d b3d5 abbd 0512 33bd
00000190: 0d16 263a d86a ae3d 3e8f a33d 36f9 4ebc
000001a0: 40d8 23bd f6bb 20bb c646 953d 877b f5bd
000001b0: 5300 31bd 029a 0bbe 673a a73c aa08 89bc
000001c0: 1013 a43d ab60 e73d e4a4 f7bd 022e 80bd
000001d0: 693e babc 97d7 b8ba 1b3a 04bd b01a b6bd
000001e0: 80d3 5fbd 14af 6ebb 23ea e83d 70a0 13bd
000001f0: 2245 bf3d 8a1f eabd d23b cf3b 1105 e2bd
00000200: d7e3 07be d79f 653c 7d9e 84bd fc3a d53d
00000210: 9fc4 e43d 6623 10be f679 21bc abeb c5bc
00000220: 2615 a5bd 2734 cabd 8121 75bd 49bf 7f3d
00000230: 65ba 093d f950 ae3d 5730 0abc 7d6d 963d
00000240: 7208 e03c 18a0 fcbc cd74 07bc 6fb5 03be
00000250: 85d8 54bb ee4b 3ebd 62da 41bd e9e3 98bd
00000260: f4cf 47bd 9e68 fabd 63b0 1cbc 7d6a c1bc
00000270: 4490 18bd a4d6 d63d 82cf 9d3d 89dc b43c
00000280: fd3f 8fbd ebc3 933c 0648 c7bd 583a a53d
00000290: 0cf2 e93d 77a4 1fbd 805d df3d 203c eb3d
000002a0: c7ee d7bc 5618 57bd 26e0 e93b 5574 bf3c
000002b0: 3a0d 06be 639a dabc 3471 51bd 35b0 9c3d
000002c0: 6806 85bb f48e be3d 700a dd3d b689 35bd
000002d0: 7860 f93c dd62 f5bc 4071 7cbd dd3f c5bd
000002e0: 2b77 563b c2a8 cd3c 900b 2fbd 3abe c43c
000002f0: 21ff b43d ce7b 713d 13df 6e3d 6041 b33c
00000300: 1ba5 debd 6ecf d3bd b7c8 d6bd cc53 be3d
00000310: 0b19 ffbd 7c3b d8bd 6028 9a3d 289f 863d
00000320: 92e5 08be 8b5a a73d b92c 04bd 6d99 f93c
00000330: 546f b5bd 23dd afbc a3be 003d 20d7 dc3d
00000340: b7a1 af3d cc7e 9dbd d3fa bdbd 3f00 0dbc
00000350: eacb 353d e3cd 9e3d 1e4f 10be 2c58 3dbc
00000360: f1df a33b 5443 87bd 5571 e43d c1c3 19bd
00000370: 1311 0abe 9fee acbd 4195 943b cf88 d7bd
00000380: 5a4f 043d 7ce0 0c3e 61b4 bd3b 1cb4 0ebd
00000390: 7e6e 083e 16d1 d53d 1277 c03d 9fc2 2f3c
000003a0: 87da d33b db9d e0bd 6bdc 6b3c f9da 0c3e
000003b0: b8fa f43b 2f3b 01be e3f7 9e3d 52f7 013e
000003c0: 66cf f23d f090 da3b dfa4 d93c 0b7c bb3c
000003d0: 6769 6dbd 950a a9bc 6748 ec3d 6564 6c3c
000003e0: 8b7c 083e 9955 c0bd 9f50 a9bc 8afc d2be
000003f0: c88a 873c 602e 023f e506 ac3e c8a1 a83d

hidden_layer_list.0.bias f4 [30]
-0.014057814 -0.04574786 -0.11329633 -0.15307897 -0.076638736 0.091878735 0.22759569 0.21982646
0.11648483 0.25615868 -0.005969916 0.13139613 -0.123380356 -0.0662216 -0.13004947 -0.09745569
-0.10522752 -0.045532886 0.20104447 0.08520694 0.21518219 0.080628045 0.17978626 -0.075824544
-0.14004758 0.012885557 0.25054824 -0.02244525 0.060721222 0.10702377
00000000: bf52 66bc 1c62 3bbd e807 e8bd bcc0 1cbe
00000010: c5f4 9cbd eb2a bc3d d80e 693e 301a 613e
00000020: 998f ee3d 3b27 833e 499f c3bb b58c 063e
00000030: d7ae fcbd 319f 87bd b02b 05be d996 c7bd
00000040: 8781 d7bd b180 3abd 9ade 4d3e fa80 ae3d
00000050: b858 5c3e 5120 a53d e419 383e e649 9bbd
00000060: a268 0fbe f11d 533c dc47 803e 1adf b7bc
00000070: d1b6 783d 472f db3d

output_layer.weight f4 [4, 30]
0.2014408 -0.17253172 -0.07543539 -0.005619387 0.17577688 0.36338127 -0.42296603 -0.6648554
0.280024 -0.17793521 -0.10630582 -0.035606015 0.1061511 0.11338373 0.13731165 -0.03707145
-0.054891866 -0.28108567 0.22771111 -0.13630247 0.26485157 0.024765236 -0.369262 0.15383703
-0.065166555 -0.07531495 -0.4873432 0.21006326 0.32925823 -0.2452714 0.18045574 -0.062343717
0.02582382 -0.08304659 0.046126176 0.06577413 -0.8505914 -0.7483337 0.31167513 -0.5815745
-0.12896803 0.19625989 0.17745492 -0.17636323 0.14300214 0.14234003 0.010034954 -1.1425915
0.23284484 0.25018004 0.1381484 0.1354375 -1.0364538 -0.069377795 0.03802957 0.07833821
-0.9155165 0.44665226 0.26394397 0.19188128 -0.13180311 -0.05330312 0.12177281 0.07612066
-0.021484016 -0.27653146 0.029164115 0.33734772 -0.19887584 0.1092066 -0.030407934 -0.37128973
0.12630346 -0.033843726 -0.16337825 -0.16664767 -0.14548504 -0.1987812 0.03235974 0.2542532
-0.033868365 -0.1955338 0.06333712 -0.09337644 0.14334992 -0.00833362 0.11416533 -0.4820932
-0.5790614 0.2613508 -0.78936136 -0.028823497 0.14163232 -0.12709408 0.019287733 -0.8218448
0.344748 0.19143102 -0.61754304 0.35125682 -0.121783435 -0.2986299 -0.024083637 -0.14270563
-0.13398688 -0.05919058 -0.02142769 0.29645485 -0.4713006 -0.70512897 -0.7847175 -0.95288074
0.50805515 0.16622965 -0.14420933 -0.13147715 0.59522754 -0.3452388 -0.32435244 -0.51535565
00000000: 7f46 4e3e 28ac 30be df7d 9abd d622 b8bb
00000010: dbfe 333e 1c0d ba3e 018f d8be f733 2abf
00000020: 4e5f 8f3e a634 36be deb6 d9bd 9dd7 11bd
00000030: bf65 d93d bb35 e83d 6d9b 0c3e 3cd8 17bd
00000040: 4bd6 60bd 76ea 8fbe 1a2d 693e e092 0bbe
00000050: a09a 873e 77e0 ca3c e90f bdbe 7487 1d3e
00000060: 0b76 85bd b93e 9abd 0c85 f9be d31a 573e
00000070: 8994 a83e 6d28 7bbe 64c9 383e 205c 7fbd
00000080: 7a8c d33c 5514 aabd cdee 3c3d 96b4 863d
00000090: 5cc0 59bf cc92 3fbf e293 9f3e 11e2 14bf
000000a0: 3210 04be 5af8 483e beb6 353e 9098 34be
000000b0: 276f 123e 96c1 113e a669 243c 7040 92bf
000000c0: e16e 6e3e 9917 803e c676 0d3e 21b0 0a3e
000000d0: 85aa 84bf f215 8ebd e5c4 1b3d c96f a03d
000000e0: 4a5f 6abf 9baf e43e aa23 873e 877c 443e
000000f0: 65f7 06be 5f54 5abd 0664 f93d 26e5 9b3d
00000100: 3fff afbc 8895 8dbe 95e9 ee3c d7b8 ac3e
00000110: 1ca6 4bbe b6a7 df3d 0f1a f9bc b019 bebe
00000120: b255 013e b89f 0abd a14c 27be b0a5 2abe
00000130: 08fa 14be 4d8d 4bbe a68b 043d 7a2d 823e
00000140: 8eb9 0abd 033a 48be e4b6 813d 263c bfbd
00000150: 52ca 123e bc89 08bc 83cf e93d ebd4 f6be
00000160: 5e3d 14bf c6cf 853e 9613 4abf 411f ecbc
00000170: 1008 113e f324 02be 4f01 9e3c 6c64 52bf
00000180: cf82 b03e 7e06 443e 4d17 1ebf efd7 b33e
00000190: 9869 f9bd 05e6 98be 0c4b c5bc 6d21 12be
000001a0: db33 09be d271 72bd 1f89 afbc eec8 973e
000001b0: 504e f1be 5583 34bf 3fe3 48bf feef 73bf
000001c0: e70f 023f 1b38 2a3e 9cab 13be f2a1 06be
000001d0: d560 183f 24c3 b0be 8611 a6be 59ee 03bf

output_layer.bias f4 [4]
0.032544415 -0.03392881 0.2217608 0.0818588
00000000: 4b4d 053d f0f8 0abd 4315 633e 96a5 a73d
