K-Digital Training/김소현 강사님/Pytorch/숙제/language_model/best_model_epoch_24.pth (torch, 14536 bytes, 6 tensors)

input_layer.weight f4 [50, 26]
0.10105143 -0.0865614 -0.038019367 0.09205082 -0.18463096 0.11761423 -0.040346052 0.099772885
0.027263474 -0.024013273 0.05439495 0.009674759 0.07162714 -0.076426655 -0.014298584 -0.017655812
0.028425848 -0.00078344916 0.1714382 0.061029404 -0.073034875 -0.118446566 -0.032872133 -0.08459287
-0.062845126 0.009390355 0.42793193 0.32607922 -0.5369339 0.082800604 -0.17060386 -0.111030765
0.47081956 -0.34803012 -0.08034044 0.010647695 0.57817435 -0.06999955 0.2680489 0.087221436
0.06635232 0.06413671 -0.21594363 -0.116028935 -0.1547823 -0.02658317 -0.016791731 -0.31879154
-0.20112613 -0.40851232 -0.0017409524 0.06824605 0.074977465 -0.07571153 0.3626394 0.36242527
0.21024941 -0.02587481 -0.001257182 -0.039979443 -0.03984287 0.4198467 0.009768466 0.3133082
-0.027997449 -0.00038725632 0.035151195 0.13053182 0.13976686 0.05082445 0.24748403 0.05848638
0.30167648 0.22999333 -0.16950144 0.28503576 -0.14268084 0.09940887 -0.41221675 0.010388493
0.15629157 -0.075618856 0.20717221 0.25989836 -0.14875595 0.13988744 -0.20424128 0.02552078
-0.35661724 0.16352439 -0.053087305 -0.24816473 0.20582037 -0.04922427 0.020674124 0.039426003
0.14116833 0.21207795 -0.15991507 0.23282668 0.43897495 0.18281676 0.11286366 -0.16964929
-0.41773665 -0.3084501 0.5360311 0.1863168 0.45007277 0.40281194 -0.27266482 0.39799964
0.14973502 -0.08478083 -0.38536176 0.21440406 -0.0052149957 -0.036082126 -0.00024050237 -0.24110872
0.1782976 0.24738924 0.30128345 0.07573673 0.09165202 0.27260464 0.013208817 0.29217443
-0.068988144 -0.08485636 -0.012941908 -0.024616621 0.34626913 0.20235665 0.25321764 0.16031924
0.331168 -0.025483057 -0.02790017 -0.2516183 -0.23881257 0.20184948 0.013324265 0.26473746
0.20461296 0.10689154 0.40024245 0.16680257 0.29065445 0.23068057 0.1373839 0.4016918
-0.121250294 0.2620007 -0.16363315 0.13972117 -0.11457173 -0.08388337 0.13943261 -0.06408703
-0.1465539 0.07545566 0.062790416 0.1270226 -0.101484634 0.042520918 -0.0713962 -0.044062335
-0.15628855 -0.089382075 -0.06006208 0.08386619 0.035828345 0.048443906 0.19574453 0.19114017
0.13376045 0.0062450324 -0.13567145 0.15326665 -0.049041472 -0.01585508 -0.40209913 -0.15541184
0.20360044 0.42450336 0.18145055 0.21442184 -0.30019447 0.1281052 0.058516804 0.16372585
-0.4078253 0.08508292 0.04253295 -0.26828763 0.17249846 0.070261426 0.5424401 0.11681902
0.1565074 0.04268801 0.24730194 0.3030107 0.22141603 0.35565165 -0.24336478 -0.2429378
0.35426664 0.28870678 -0.2574632 -0.10963349 -0.47548726 -0.18762816 0.5451311 -0.031764064
0.25588626 -0.28460336 0.30540523 0.2125682 0.06533071 0.41411436 -0.16280453 0.04061343
-0.16529906 -0.32374826 -0.0530346 0.032803614 0.22263874 -0.14789662 -0.113313615 -0.4388394
0.47008577 0.2780584 -0.34430447 -0.15939578 0.19963506 0.22908807 0.38912454 0.14606687
-0.47231033 0.10578658 0.029459195 -0.02553694 -0.46006426 0.10460741 -0.3065261 -0.26066393
0.0027286333 0.08673486 0.52354777 0.09526412 0.11216544 0.23582464 0.042800818 0.27320096
00000000: 0df4 ce3d 1a47 b1bd 32ba 1bbd 2485 bc3d
00000010: e60f 3dbe bbdf f03d e741 25bd ba55 cc3d
00000020: a657 df3c 7cb7 c4bc 3dcd 5e3d e182 1e3c
00000030: 40b1 923d 9485 9cbd 9c44 6abc eca2 90bc
00000040: 53dd e83c 6260 4dba 7f8d 2f3e f8f9 793d
00000050: 4f93 95bd 1d94 f2bd eea4 06bd 073f adbd
00000060: f2b4 80bd 01da 193c e519 db3e dbf3 a63e
00000070: 8074 09bf 5d93 a93d c7b2 2ebe 1964 e3bd
00000080: 430f f13e 0131 b2be 8789 a4bd ab73 2e3c
00000090: 3c03 143f ed5b 8fbd b53d 893e 27a1 b23d
000000a0: bae3 873d 1b5a 833d 5420 5dbe 94a0 edbd
000000b0: 407f 1ebe f3c4 d9bc d08e 89bc a538 a3be
000000c0: 02f4 4dbe 8728 d1be ab30 e4ba 96c4 8b3d
000000d0: c98d 993d a60e 9bbd dfab b93e ce8f b93e
000000e0: 9f4b 573e 69f7 d3bc 07c8 a4ba 7cc1 23bd
000000f0: 4732 23bd 26f6 d63e eb0b 203c ef69 a03e
00000100: e85a e5bc aa08 cbb9 b3fa 0f3d 22aa 053e
00000110: 0b1f 0f3e 4c2d 503d 746c 7d3e 6a8f 6f3d
00000120: 5775 9a3e 5f83 6b3e c991 2dbe 35f0 913e
00000130: ed1a 12be e196 cb3d 130e d3be 7f34 2a3c
00000140: e60a 203e 0fde 9abd f424 543e 6611 853e
00000150: 7b53 18be a73e 0f3e a024 51be f410 d13c
00000160: 8996 b6be f072 273e 1372 59bd e51e 7ebe
00000170: 93c2 523e 639f 49bd c85c a93c 297d 213d
00000180: 6e8e 103e f62a 593e c7c0 23be 1e6a 6e3e
00000190: 53c1 e03e 5134 3b3e 1025 e73d 8bb8 2dbe
000001a0: 94e1 d5be 2ced 9dbe 5639 093f d5c9 3e3e
000001b0: f06f e63e 5e3d ce3e b99a 8bbe 9cc6 cb3e
000001c0: 2354 193e 92a1 adbd 234e c5be bd8c 5b3e
000001d0: 8ee2 aabb daca 13bd 5d2f 7cb9 34e5 76be
000001e0: a593 363e 9b53 7d3e d341 9a3e dc1b 9b3d
000001f0: 0eb4 bb3d d692 8b3e cb69 583c e397 953e
00000200: a849 8dbd 2cc9 adbd 4c0a 54bc cca8 c9bc
00000210: 304a b13e 9536 4f3e bea5 813e ba2a 243e
00000220: da8e a93e d8c1 d0bc e68e e4bc 1dd4 80be
00000230: 488b 74be a1b1 4e3e 054e 5a3c ab8b 873e
00000240: 0f86 513e f4e9 da3d 94ec cc3e 4bce 2a3e
00000250: a9d0 943e 8737 6c3e 5dae 0c3e 8caa cd3e
00000260: 1352 f8bd f524 863e 738f 27be 1113 0f3e
00000270: 95a4 eabd 0bcb abbd 6cc7 0e3e 1040 83bd
00000280: 3a12 16be 7f88 9a3d 4398 803d 3612 023e
00000290: 2dd7 cfbd 6a2a 2e3d 2c38 92bd b57a 34bd
000002a0: 1b0a 20be f30d b7bd a803 76bd 09c2 ab3d
000002b0: bec0 123d 1e6d 463d 4171 483e 40ba 433e
000002c0: 80f8 083e 21a3 cc3b 75ed 0abe eff1 1c3e
000002d0: b6df 48bd 83e2 81bc f0df cdbe 4824 1fbe
000002e0: a27c 503e 8158 d93e 2cce 393e 6691 5b3e
000002f0: 17b3 99be 022e 033e 51af 6f3d c0a7 273e
00000300: 7ace d0be f43f ae3d 0837 2e3d ff5c 89be
00000310: 70a3 303e 39e5 8f3d 5bdd 0a3f cf3e ef3d
00000320: 7a43 203e 9fd9 2e3d b83c 7d3e 3824 9b3e
00000330: e2ba 623e f917 b63e 9e34 79be b0c4 78be
00000340: 7062 b53e 60d1 933e 37d2 83be 8687 e0bd
00000350: 1173 f3be 9921 40be b68d 0b3f 091b 02bd
00000360: 8603 833e 88b7 91be 135e 9c3e 7aab 593e
00000370: 1bcc 853d cc06 d43e 3bb6 26be 455a 263d
00000380: 2844 29be 55c2 a5be cf3a 59bd 155d 063d
00000390: 69fb 633e 3672 17be f810 e8bd 8faf e0be
000003a0: 15af f03e ac5d 8e3e ad48 b0be a638 23be
000003b0: 226d 4c3e 1096 6a3e 553b c73e 8e92 153e
000003c0: a9d2 f1be a2a6 d83d 6954 f13c d832 d1bc
000003d0: 8b8d ebbe 693c d63d fdf0 9cbe be75 85be
000003e0: dfd2 323b 0ca2 b13d 3a07 063f d619 c33d
000003f0: ffb6 e53d 047c 713e e94f 2f3d ffe0 8b3e

input_layer.bias f4 [50]
-0.036175195 0.031127097 0.1594144 0.1021561 0.06376153 0.21268205 -0.08414486 0.10950884
0.017577095 0.12727828 0.0070209648 -0.16699465 0.014006091 0.22561905 0.07147243 0.05118264
0.0006949134 0.25773284 0.055662498 -0.1751982 -0.1398631 0.01159248 -0.023421794 0.18077987
-0.04610242 0.15558617 -0.16539778 -0.18639162 0.017903171 -0.1241764 -0.05719216 0.062113862
-0.17011534 0.17224734 -0.11902199 0.19304097 0.1299016 -0.036779467 -0.17163089 0.02073544
-0.1095619 0.18162796 -0.16498291 0.0129174795 -0.10808349 -0.12613353 -0.10228828 -0.01944308
0.055389702 0.10166985
00000000: 712c 14bd 41fe fe3c 873d 233e 3837 d13d
00000010: 6895 823d 53c9 593e 2454 acbd 2c46 e03d
00000020: d7fd 8f3c 3d55 023e 1f10 e63b a500 2bbe
00000030: ce79 653c ae08 673e 2360 923d e3a4 513d
00000040: d92a 363a 8ff5 833e 5cfe 633d 2867 33be
00000050: 4638 0fbe 63ee 3d3c 10df bfbc 5c1e 393e
00000060: e4d5 3cbd fb51 1f3e 095e 29be 72dd 3ebe
00000070: aca9 923c 3250 febd 5442 6abd 1b6b 7e3d
00000080: b732 2ebe 9b61 303e cdc1 f3bd 88ac 453e
00000090: ed04 053e 11a6 16bd 02c0 2fbe 5fdd a93c
000000a0: fd61 e0bd aefc 393e 48f1 28be d6a3 533c
000000b0: e05a ddbd 2629 01be 857c d1bd 1847 9fbc
000000c0: 50e0 623d 4838 d03d

hidden_layer_list.0.weight f4 [30, 50]
0.072266154 -0.054111954 -0.083723076 -0.025719363 0.137335 -0.013249805 -0.11905735 0.11502213
0.03797698 0.028613318 0.028078709 0.098669164 -0.06439533 0.107066676 0.139918 -0.032504328
0.08925543 0.08205288 0.13653475 -0.032914348 -0.08412668 -0.05249574 -0.09621578 0.008900784
0.13635021 0.14126047 0.106823236 0.013993698 0.0071424763 0.09363801 0.08397372 -0.010340071
-0.035767738 0.059950076 -0.004907141 -0.09534075 -0.06254037 0.114691205 0.117775746 -0.0551064
-0.0303488 -0.06604167 -0.046170305 0.13298938 -0.12578061 0.06748417 -0.12710778 -0.06747114
-0.024715636 0.013767359 -0.022966526 -0.0646457 -0.06307904 -0.08601742 -0.0987129 -0.08810855
0.13561314 -0.066633664 -0.117604315 0.09719928 0.05486569 0.09727881 -0.1406711 -0.13461645
-0.1003733 -0.07450125 -0.0003114315 0.061172985 0.08279681 -0.12163721 0.056400493 -0.08178517
0.032507125 0.04440167 0.022631899 0.050035596 -0.007061435 0.09336466 0.02949514 0.123898014
0.03065573 -0.07486503 0.090820596 0.0076615894 0.13667524 -0.015639886 0.13992436 -0.08255639
0.07107584 -0.10550102 0.09709051 0.025671175 0.08029042 -0.121788986 -0.14067921 0.06814215
-0.058182582 0.056008916 -0.08390369 -0.043718357 0.0006335683 0.085164726 0.07986306 -0.012632659
-0.040001154 -0.0024526096 0.072888896 -0.119864516 -0.0432132 -0.13632968 0.02041359 -0.016727764
0.080114484 0.11297735 -0.12091997 -0.06258775 -0.022734838 -0.0014102337 -0.032281976 -0.08891809
-0.05464506 -0.0036420273 0.11372783 -0.036041677 0.09339358 -0.11431797 0.00632427 -0.110361226
-0.13270508 0.01401516 -0.06475542 0.10411641 0.11170315 -0.14076003 -0.009855738 -0.024160227
-0.08060674 -0.098732285 -0.059846405 0.062438283 0.033625025 0.08511538 -0.008434377 0.07345102
0.027347777 -0.030838057 -0.008267594 -0.1286218 -0.0032477689 -0.04645913 -0.047327407 -0.0704795
-0.044605747 -0.118093535 -0.005387047 -0.01943374 -0.037246957 0.109078065 0.081230484 0.026254278
-0.06577094 0.018037757 -0.09730534 0.08485427 0.11840724 -0.03479921 0.109065056 0.1190374
-0.022182688 -0.052513443 0.0071373163 0.023370901 -0.13090983 -0.022508366 -0.05113335 0.08068434
-0.0040596016 0.0930461 0.11210654 -0.044320785 0.030441508 -0.025779212 -0.06163144 -0.09213672
0.0032724838 0.029281413 -0.038559176 0.024016488 0.088377245 0.05895596 0.05831821 0.026058333
-0.10871335 -0.099246494 -0.10487502 0.09293327 -0.124559484 -0.10558221 0.07944882 0.06990963
-0.13368824 0.081715666 -0.032269213 0.030468667 -0.08859125 -0.02146775 0.031431805 0.10783219
0.085757665 -0.076902 -0.092763565 -0.008606016 0.04438392 0.077541135 -0.14092681 -0.011556666
0.005001061 -0.06604639 0.11154429 -0.0375402 -0.13483076 -0.08443951 0.004534394 -0.10524141
0.032302238 0.13757509 0.005789325 -0.034839734 0.133234 0.104402706 0.09397711 0.010727554
0.0064652595 -0.109676085 0.014395813 0.13755406 0.007476177 -0.12620233 0.077621244 0.12692001
0.11855964 0.00667011 0.026567874 0.022886297 -0.057961848 -0.020634929 0.11537247 0.014428233
0.1332876 -0.093913265 -0.020668326 -0.37142053 -0.032609344 0.36541414 0.2570433 0.019091224
00000000: 4700 943d 7fa4 5dbd 0177 abbd 6ab1 d2bc
00000010: 8ca1 0c3e b615 59bc 57d4 f3bd b990 eb3d
00000020: c08d 1b3d 7a66 ea3c 5205 e63c 0f13 ca3d
00000030: b3e1 83bd c645 db3d aa46 0f3e 4223 05bd
00000040: 8dcb b63d 570b a83d c4cf 0b3e 32d1 06bd
00000050: 9c4a acbd c605 57bd c70c c5bd 98d4 113c
00000060: 649f 0b3e 96a6 103e 24c6 da3d d345 653c
00000070: 6f0b ea3b 49c5 bf3d 6afa ab3d 6769 29bc
00000080: 3181 12bd 368e 753d 15cc a0bb 0342 c3bd
00000090: 2a15 80bd 39e3 ea3d 6934 f13d 40b7 61bd
000000a0: 0c9e f8bc db40 87bd 131d 3dbd 5e2e 083e
000000b0: a2cc 00be 2435 8a3d 8b28 02be 4f2e 8abd
000000c0: 7278 cabc 7d90 613c 4c24 bcbc f764 84bd
000000d0: 952f 81bd e729 b0bd fd29 cabd 4172 b4bd
000000e0: 2cde 0a3e 3b77 88bd 88da f0bd 6b10 c73d
000000f0: d9ba 603d 1d3a c73d 160c 10be e5d8 09be
00000100: 8490 cdbd 1d94 98bd a147 a3b9 8690 7a3d
00000110: 6091 a93d ee1c f9bd 3404 673d fc7e a7bd
00000120: 3126 053d 87de 353d 8866 b93c 20f2 4c3d
00000130: 9c63 e7bb f935 bf3d cb9f f13c 3ebe fd3d
00000140: ba21 fb3c d652 99bd 2600 ba3d 120e fb3b
00000150: 98f4 0b3e 381f 80bc 5548 0f3e 5313 a9bd
00000160: 3690 913d eb10 d8bd 64d7 c63d 5b4c d23c
00000170: 4e6f a43d 816c f9bd 360e 10be 1d8e 8b3d
00000180: dc50 6ebd 9b69 653d b3d5 abbd 0512 33bd
00000190: 0d16 263a d86a ae3d 3e8f a33d 36f9 4ebc
000001a0: 40d8 23bd f6bb 20bb c646 953d 877b f5bd
000001b0: 5300 31bd 029a 0bbe 673a a73c aa08 89bc
000001c0: 1013 a43d ab60 e73d e4a4 f7bd 022e 80bd
000001d0: 693e babc 97d7 b8ba 1b3a 04bd b01a b6bd
000001e0: 80d3 5fbd 14af 6ebb 23ea e83d 70a0 13bd
000001f0: 2245 bf3d 8a1f eabd d23b cf3b 1105 e2bd
00000200: d7e3 07be d79f 653c 7d9e 84bd fc3a d53d
00000210: 9fc4 e43d 6623 10be f679 21bc abeb c5bc
00000220: 2615 a5bd 2734 cabd 8121 75bd 49bf 7f3d
00000230: 65ba 093d f950 ae3d 5730 0abc 7d6d 963d
00000240: 7208 e03c 18a0 fcbc cd74 07bc 6fb5 03be
00000250: 85d8 54bb ee4b 3ebd 62da 41bd 8e57 90bd
00000260: 84b4 36bd 06db f1bd d385 b0bb 8233 9fbc
00000270: 4490 18bd 5264 df3d 2b5c a63d 3613 d73c
00000280: eab2 86bd ebc3 933c 0648 c7bd 13c8 ad3d
00000290: 7f7f f23d 9e89 0ebd 805d df3d e1c9 f33d
000002a0: 78b8 b5bc 5618 57bd 26e0 e93b 5574 bf3c
000002b0: 3a0d 06be 7763 b8bc 3471 51bd d53d a53d
000002c0: 6806 85bb f48e be3d 1d98 e53d b689 35bd
000002d0: 7860 f93c ed2e d3bc 4071 7cbd 2db2 bcbd
000002e0: 2b77 563b 93df ef3c 3af0 1dbd 3abe c43c
000002f0: 21ff b43d ce7b 713d 13df 6e3d 4978 d53c
00000300: 1ba5 debd bf41 cbbd b7c8 d6bd cc53 be3d
00000310: 0b19 ffbd 7c3b d8bd 10b6 a23d c82c 8f3d
00000320: 92e5 08be 8b5a a73d b92c 04bd 6d99 f93c
00000330: 546f b5bd 23dd afbc a3be 003d 20d7 dc3d
00000340: b7a1 af3d cc7e 9dbd d3fa bdbd 3f00 0dbc
00000350: eacb 353d e3cd 9e3d 1e4f 10be 2c58 3dbc
00000360: f1df a33b 5443 87bd 5571 e43d c1c3 19bd
00000370: 1311 0abe 9fee acbd 4195 943b cf88 d7bd
00000380: 5a4f 043d 7ce0 0c3e 61b4 bd3b 1cb4 0ebd
00000390: 7e6e 083e 16d1 d53d 1277 c03d 9fc2 2f3c
000003a0: 87da d33b db9d e0bd 6bdc 6b3c f9da 0c3e
000003b0: b8fa f43b 2f3b 01be e3f7 9e3d 52f7 013e
000003c0: 66cf f23d f090 da3b dfa4 d93c 0b7c bb3c
000003d0: 6769 6dbd 950a a9bc 6748 ec3d 6564 6c3c
000003e0: 8b7c 083e 9955 c0bd 9f50 a9bc d52a bebe
000003f0: 6091 05bd 9017 bb3e 2e9b 833e 3365 9c3c

hidden_layer_list.0.bias f4 [30]
-0.097422086 -0.04574786 -0.11329633 -0.14890234 -0.076638736 0.04856784 0.16286333 0.15019916
0.07642545 0.17678575 -0.005969916 0.13756344 -0.123380356 -0.0662216 -0.13004707 -0.09745569
-0.10522752 -0.13660751 0.14448036 0.06252221 0.14963919 0.025286093 0.12899858 -0.075824544
-0.14004758 0.012885557 0.19479156 -0.010162859 0.06025469 0.08242197
00000000: 3b85 c7bd 1c62 3bbd e807 e8bd db79 18be
00000010: c5f4 9cbd 12ef 463d a5c5 263e cfcd 193e
00000020: f284 9c3d 5307 353e 499f c3bb 6edd 0c3e
00000030: d7ae fcbd 319f 87bd 0f2b 05be d996 c7bd
00000040: 8781 d7bd d7e2 0bbe a9f2 133e a50b 803d
00000050: 043b 193e c824 cf3c 3418 043e e649 9bbd
00000060: a268 0fbe f11d 533c 7077 473e 1f82 26bc
00000070: 9fcd 763d dacc a83d

output_layer.weight f4 [4, 30]
0.13699226 -0.17253172 -0.07543539 -0.0014730047 0.17577688 0.3450978 -0.40333295 -0.5704008
0.27686158 -0.1790011 -0.10630582 -0.026701858 0.1061511 0.11338373 0.13731405 -0.03707145
-0.054891866 -0.028660076 0.22680333 -0.106901065 0.2547443 0.024224978 -0.40386814 0.15383703
-0.065166555 -0.07531495 -0.47352108 0.2183438 0.3005695 -0.18546887 0.139517 -0.062343717
0.02582382 -0.08720003 0.046126176 0.02415145 -0.39450848 -0.49982694 0.25481516 -0.1300009
-0.12896803 0.115927376 0.17745492 -0.17636323 0.14300454 0.14234003 0.010034954 -0.08473074
0.18405676 0.20008644 0.103933394 0.0931119 -0.5702874 -0.069377795 0.03802957 0.07833821
-0.4869848 0.36003274 0.20614137 0.12168288 -0.09458435 -0.05330312 0.12177281 0.080155924
-0.021484016 -0.32267675 -0.014886793 0.25777888 -0.2235507 0.07508041 -0.030407934 -0.23117666
0.12630346 -0.033843726 -0.16338065 -0.16664767 -0.14548504 -0.09244851 -0.07006572 0.068457104
-0.17366093 -0.33744553 0.032160636 -0.09337644 0.14334992 -0.00833362 0.074237265 -0.29274014
-0.3501394 0.060560923 -0.019456955 -0.028823497 0.14163232 -0.12321077 0.019287733 -0.4788442
0.23673761 0.12968878 -0.336102 0.23044984 -0.121783435 -0.2358105 -0.024083637 -0.14270563
-0.13398448 -0.05919058 -0.02142769 -0.0191203 -0.16945434 -0.40629515 -0.41993272 -0.5967715
0.39442167 0.16622965 -0.14420933 -0.13147715 0.49134418 -0.22413407 -0.21653488 -0.23514304
00000000: b347 0c3e 28ac 30be df7d 9abd d611 c1ba
00000010: dbfe 333e a9b0 b03e a881 cebe c905 12bf
00000020: cdc0 8d3e 104c 37be deb6 d9bd dbbd dabc
00000030: bf65 d93d bb35 e83d 0e9c 0c3e 3cd8 17bd
00000040: 4bd6 60bd 89c8 eabc 223f 683e f2ee dabd
00000050: d86d 823e 7673 c63c cec7 cebe 7487 1d3e
00000060: 0b76 85bd b93e 9abd 5b71 f2be 8495 5f3e
00000070: 3fe4 993e 8deb 3dbe 8bdd 0e3e 205c 7fbd
00000080: 7a8c d33c ee95 b2bd cdee 3c3d 43d9 c53c
00000090: 04fd c9be 51e9 ffbe 2277 823e f51e 05be
000000a0: 3210 04be 556b ed3d beb6 353e 9098 34be
000000b0: c86f 123e 96c1 113e a669 243c 4f87 adbd
000000c0: 6079 3c3e 76e3 4c3e 08db d43d 74b1 be3d
000000d0: 5bfe 11bf f215 8ebd e5c4 1b3d c96f a03d
000000e0: 1256 f9be 3656 b83e b916 533e e034 f93d
000000f0: 71b5 c1bd 5f54 5abd 0664 f93d ca28 a43d
00000100: 3fff afbc e335 a5be bce7 73bc 98fb 833e
00000110: 7aea 64be c2c3 993d 0f1a f9bc 93b9 6cbe
00000120: b255 013e b89f 0abd 424d 27be b0a5 2abe
00000130: 08fa 14be a555 bdbd 9e7e 8fbd 3d33 8c3d
00000140: 2cd4 31be a9c5 acbe dfba 033d 263c bfbd
00000150: 52ca 123e bc89 08bc b509 983d 09e2 95be
00000160: 7945 b3be bb0e 783d 3164 9fbc 411f ecbc
00000170: 1008 113e ee55 fcbd 4f01 9e3c 112b f5be
00000180: 586b 723e 23cd 043e 9015 acbe 0bfb 6b3e
00000190: 9869 f9bd 4f78 71be 0c4b c5bc 6d21 12be
000001a0: 3a33 09be d271 72bd 1f89 afbc 2da2 9cbc
000001b0: 7085 2dbe eb05 d0be 6c01 d7be 04c6 18bf
000001c0: a3f1 c93e 1b38 2a3e 9cab 13be f2a1 06be
000001d0: 7791 fb3e 6783 65be 52bb 5dbe 56c9 70be

output_layer.bias f4 [4]
0.033727843 -0.01103347 0.17347413 0.10380186
00000000: 3526 0a3d bac5 34bc 34a3 313e 1296 d43d
