K-Digital Training/김소현 강사님/Pytorch/숙제/language_model/best_model_epoch_34.pth (torch, 14536 bytes, 6 tensors)

input_layer.weight f4 [50, 26]
000000 0d f4 ce 3d 1a 47 b1 bd 32 ba 1b bd 24 85 bc 3d
       0.10105143 -0.0865614 -0.038019367 0.09205082
000010 e6 0f 3d be bb df f0 3d e7 41 25 bd ba 55 cc 3d
       -0.18463096 0.11761423 -0.040346052 0.099772885
000020 a6 57 df 3c 7c b7 c4 bc 3d cd 5e 3d e1 82 1e 3c
       0.027263474 -0.024013273 0.05439495 0.009674759
000030 40 b1 92 3d 94 85 9c bd 9c 44 6a bc ec a2 90 bc
       0.07162714 -0.076426655 -0.014298584 -0.017655812
000040 53 dd e8 3c 62 60 4d ba 7f 8d 2f 3e f8 f9 79 3d
       0.028425848 -0.00078344916 0.1714382 0.061029404
000050 4f 93 95 bd 1d 94 f2 bd ee a4 06 bd 07 3f ad bd
       -0.073034875 -0.118446566 -0.032872133 -0.08459287
000060 f2 b4 80 bd 01 da 19 3c 15 17 f6 3e 28 f0 b3 3e
       -0.062845126 0.009390355 0.48064485 0.35144162
000070 fd 28 16 bf 91 93 3f 3d 51 cf 6c be c9 a0 28 be
       -0.58656293 0.04677159 -0.2312596 -0.16467585
000080 af 4e 11 3f 1f 08 c2 be e7 1c 7c bd a8 ac 59 bd
       0.56760687 -0.3789682 -0.061551 -0.053143173
000090 f5 24 20 3f 79 06 96 bd 35 38 97 3e fd 5e 05 3e
       0.6255639 -0.07325453 0.2953507 0.13024516
0000a0 90 18 92 3d cd 3a a9 3d 6f eb 96 be da 4e 10 be
       0.07133591 0.082631685 -0.29476497 -0.1409258
0000b0 7b 88 1b be 3c 16 33 bd 9a 45 1e bd 11 7a bb be
       -0.15188782 -0.043722376 -0.038640596 -0.36616567
0000c0 33 fe 4f be 67 4e fa be b1 4b 96 3d cb 76 2e 3e
       -0.20311813 -0.4888794 0.07338656 0.17037503
0000d0 ff cf 20 3e c0 11 b1 3c 10 b4 bc 3e 93 e9 ff 3e
       0.15704344 0.02161491 0.36856127 0.4998289
0000e0 30 35 9c 3e e3 7b f3 bc 04 2c 03 bd 80 b6 a6 bd
       0.3050933 -0.02972216 -0.0320244 -0.08140278
0000f0 10 cc 2d 3d 3f b0 1c 3f d5 1e 41 3e 08 6f c0 3e
       0.042430937 0.6120643 0.18859418 0.3758471
000100 c4 50 8d 3d 59 67 45 3d 79 70 1a 3c d0 88 65 3e
       0.069001704 0.048194263 0.00942623 0.22415471
000110 3e 55 72 3e 82 eb 17 3e e7 cd 9d 3e 51 72 cf 3d
       0.2366533 0.14835933 0.30821154 0.10129226
000120 79 75 e4 3e e6 a9 86 3e df 6a 9a be dc ed b3 3e
       0.44620875 0.26301497 -0.3015966 0.3514241
000130 00 d4 80 be 43 b5 39 3d 72 f7 eb be 38 60 34 bc
       -0.25161743 0.04533888 -0.46087223 -0.011009268
000140 a4 88 57 3e f5 87 84 bd f2 a4 80 3e 22 08 a6 3e
       0.21048218 -0.06471244 0.25125843 0.3242808
000150 6f e1 5e be 81 87 43 3e a9 09 60 be 89 2d 18 3d
       -0.21765684 0.1909466 -0.21878685 0.0371528
000160 03 3d d7 be 37 fa 2e 3e a5 54 aa bd 82 59 8e be
       -0.42038736 0.17087637 -0.08316926 -0.27802664
000170 6f f3 66 3e 68 5a 8f bd 8b 77 8c 3d 72 a2 5d 3d
       0.225538 -0.069996655 0.068587385 0.054109998
000180 cb 08 11 3e f7 81 71 3e 1d 90 2e be 1a 6f 8d 3e
       0.1416351 0.23584734 -0.17047162 0.27623826
000190 ef e8 f7 3e cb 60 80 3e 75 0d 9d 3d 1c 47 88 be
       0.48419902 0.25073847 0.07668582 -0.26616752
0001a0 f0 34 e2 be 60 0f 9b be 5a f7 14 3f 2e bd 82 3e
       -0.44181013 -0.30285168 0.5818993 0.25534958
0001b0 f2 bf 07 3f 09 88 eb 3e 17 ed b5 be 84 2e df 3e
       0.5302726 0.46002224 -0.35532448 0.43590176
0001c0 a5 1c 1f 3e cc 69 0f 3d 26 4e c5 be 36 34 71 3e
       0.15538271 0.035013005 -0.38536185 0.23555073
0001d0 57 51 f9 ba 30 b8 6d bd 9e c4 98 bb e5 75 68 be
       -0.0019021434 -0.058036983 -0.0046621105 -0.22701223
0001e0 9c 74 89 3e 69 46 96 3e 9c c8 a1 3e 54 3b dc 3d
       0.26846778 0.29350594 0.31598365 0.107535034
0001f0 1b 8b 1c 3e 36 43 a4 3e 8d d6 8f 3c 3c 13 c1 3e
       0.1528744 0.32082528 0.01755836 0.37709987
000200 dd fa 13 be 4d bd 46 be ea 43 ce 3d 75 5a c6 3d
       -0.14451165 -0.1940815 0.10071547 0.09685222
000210 a7 77 c3 3e 59 dc aa 3e 25 18 b3 3e b8 42 4c 3e
       0.38177225 0.33371237 0.34979358 0.19947326
000220 00 aa bc 3e 5c 1d 37 3c 5d 34 99 3d 8f 13 c0 bd
       0.3684845 0.011176433 0.07480691 -0.093787305
000230 a2 3c e2 bd 94 86 94 3e 4e 32 f8 3d ee 42 b3 3e
       -0.11046721 0.29008925 0.1211897 0.35012
000240 f2 1c 6f 3e 6a a7 59 3e fe 16 f1 3e d3 fa 87 3e
       0.23350886 0.2125527 0.47087854 0.2655855
000250 fd 2f bb 3e 6d 27 9c 3e 46 fa 8d 3e cb 5a e5 3e
       0.3656005 0.3049883 0.27730006 0.44795832
000260 1e 59 13 be fa de a4 3e 5d 58 3d be 65 6f ce 3d
       -0.14389464 0.32201368 -0.18490739 0.100798406
000270 95 a4 ea bd 0b cb ab bd 6c c7 0e 3e 10 40 83 bd
       -0.11457173 -0.08388337 0.13943261 -0.06408703
000280 3a 12 16 be 7f 88 9a 3d 43 98 80 3d 36 12 02 3e
       -0.1465539 0.07545566 0.062790416 0.1270226
000290 2d d7 cf bd 6a 2a 2e 3d 2c 38 92 bd b5 7a 34 bd
       -0.101484634 0.042520918 -0.0713962 -0.044062335
0002a0 1b 0a 20 be f3 0d b7 bd a8 03 76 bd 09 c2 ab 3d
       -0.15628855 -0.089382075 -0.06006208 0.08386619
0002b0 be c0 12 3d 1e 6d 46 3d 41 71 48 3e 40 ba 43 3e
       0.035828345 0.048443906 0.19574453 0.19114017
0002c0 80 f8 08 3e 21 a3 cc 3b 75 ed 0a be ef f1 1c 3e
       0.13376045 0.0062450324 -0.13567145 0.15326665
0002d0 b6 df 48 bd 83 e2 81 bc d5 16 db be 22 74 18 be
       -0.049041472 -0.01585508 -0.42790857 -0.14888051
0002e0 70 20 78 3e 19 3c 01 3f 75 0a 89 3e 69 42 88 3e
       0.24231124 0.50482327 0.2676579 0.26613167
0002f0 f3 23 c9 be 59 e9 1d 3e a7 ff 82 3d 75 d5 9d 3e
       -0.3928524 0.15421046 0.06396418 0.30826917
000300 73 bd ca be db 27 d4 3d d4 f4 44 3d 57 f0 96 be
       -0.39597663 0.10359164 0.04808505 -0.2948024
000310 1d 9a 1e 3e e4 c1 b1 3d 68 f6 23 3f b7 c0 2b 3e
       0.15488477 0.0867956 0.6404786 0.16772734
000320 46 64 2d 3e e2 12 8f 3d 50 29 a3 3e 94 9a b2 3e
       0.16932783 0.069860235 0.31867456 0.3488356
000330 29 de 4e 3e 33 e7 e1 3e f5 05 ac be e9 96 b6 be
       0.20201935 0.44121704 -0.33598295 -0.3566201
000340 b3 a9 ce 3e 11 1e 9d 3e 24 ae 95 be 9d 7a 28 be
       0.40363845 0.30687 -0.2923442 -0.16453023
000350 bb 42 0b bf 68 6d 71 be d4 fe 24 3f 4d 7b 60 bd
       -0.543987 -0.23576891 0.64451337 -0.05480509
000360 0d 3e 8b 3e a1 85 cb be 42 08 a8 3e 9d 70 5c 3e
       0.27195778 -0.39750388 0.328188 0.21527334
000370 e1 c0 b3 3d 34 20 ec 3e 38 59 0e be 9b b7 65 3d
       0.08777023 0.4611832 -0.13901222 0.056083303
000380 81 12 7a be 5b 90 b6 be 1e 3b 40 bd 6a 24 a4 3c
       -0.24421121 -0.3565701 -0.04693138 0.020036895
000390 ee 9f 3d 3e d2 fd 3d be 1f d6 c0 bd 3e 3d 03 bf
       0.1851804 -0.18553856 -0.0941584 -0.51265323
0003a0 1d 21 0f 3f 18 5b c6 3e 4b b3 bf be f7 fa 24 be
       0.559099 0.38741374 -0.37441477 -0.1611136
0003b0 30 0e 81 3e 0b fa 9c 3e 6e c7 f6 3e 65 5e 50 3e
       0.25206137 0.30659518 0.48199028 0.20348509
0003c0 b2 81 12 bf 94 39 05 3e c6 5a 0b 3d ad dc db 3d
       -0.5722915 0.13010246 0.034022115 0.1073545
0003d0 66 ab ee be 1f a4 06 3e 60 60 9a be 4d 85 92 be
       -0.46615142 0.13148545 -0.30151653 -0.28617325
0003e0 77 cc fb bb 48 ba d4 3d 1d ab 24 3f 81 19 16 3e
       -0.007684286 0.10387093 0.643236 0.14658166
0003f0 cb 21 05 3e b1 4a 88 3e d6 54 f1 3d bd c0 a9 3e
       0.13001172 0.26619485 0.11783759 0.3315486

input_layer.bias f4 [50]
000000 71 2c 14 bd 2d e0 1d 3d dd 1f 6c 3e 23 f7 cb 3d
       -0.036175195 0.03854387 0.2305903 0.09959247
000010 ba 9b a2 3d c8 78 9e 3e 24 54 ac bd 18 20 fc 3d
       0.07939859 0.30951524 -0.08414486 0.12310809
000020 18 e9 d6 3c 19 5b 12 3e 49 13 89 3c a5 00 2b be
       0.026234195 0.14292563 0.016732829 -0.16699465
000030 ce 79 65 3c 99 13 89 3e 42 a5 b5 3d 1e d2 9b 3d
       0.014006091 0.26772764 0.08869411 0.07608436
000040 d9 2a 36 3a fc 36 ac 3e 13 82 7e 3d 28 67 33 be
       0.0006949134 0.336357 0.062135767 -0.1751982
000050 46 38 0f be 63 ee 3d 3c 10 df bf bc 56 e6 43 3e
       -0.1398631 0.01159248 -0.023421794 0.19130835
000060 e4 d5 3c bd 25 7c 26 3e 09 5e 29 be 72 dd 3e be
       -0.04610242 0.16258295 -0.16539778 -0.18639162
000070 13 86 06 3d 32 50 fe bd 54 42 6a bd 17 00 93 3d
       0.032842707 -0.1241764 -0.05719216 0.071777515
000080 b7 32 2e be 5f ee 47 3e cd c1 f3 bd 75 a3 80 3e
       -0.17011534 0.19524525 -0.11902199 0.25124708
000090 30 8b 28 3e 11 a6 16 bd 02 c0 2f be 5f dd a9 3c
       0.16459346 -0.036779467 -0.17163089 0.02073544
0000a0 fd 61 e0 bd 4e 00 46 3e 48 f1 28 be 63 08 cb 3c
       -0.1095619 0.19336054 -0.16498291 0.024784273
0000b0 e0 5a dd bd 26 29 01 be 85 7c d1 bd 18 47 9f bc
       -0.10808349 -0.12613353 -0.10228828 -0.01944308
0000c0 a0 35 8d 3d b7 dd 02 3e
       0.06894994 0.1277989

hidden_layer_list.0.weight f4 [30, 50]
000000 47 00 94 3d df f2 42 be e6 84 31 bd 55 f6 16 3e
       0.072266154 -0.1903796 -0.043339632 0.14742406
000010 54 2c 87 3e 4b 08 f6 3c 57 d4 f3 bd 19 e0 69 3e
       0.26401007 0.030033251 -0.11905735 0.22839393
000020 ae ac c2 bd f2 c9 1a 3e 03 ae 9e bd 0f 13 ca 3d
       -0.09505592 0.15116099 -0.07748034 0.098669164
000030 b3 e1 83 bd a6 95 cb 3d 99 43 c2 3d 8f b2 bc bd
       -0.06439533 0.099406525 0.094855495 -0.09213745
000040 8d cb b6 3d dc e5 06 3e 26 4b 8f 3e 32 d1 06 bd
       0.08925543 0.13173622 0.2798702 -0.032914348
000050 9c 4a ac bd c6 05 57 bd c7 0c c5 bd 15 98 b5 3d
       -0.08412668 -0.05249574 -0.09621578 0.08866898
000060 64 9f 0b 3e a2 5f 9f 3e 24 c6 da 3d d3 45 65 3c
       0.13635021 0.3112765 0.106823236 0.013993698
000070 60 c3 03 3e 49 c5 bf 3d 6a fa ab 3d 38 20 04 be
       0.12867498 0.09363801 0.08397372 -0.12902915
000080 31 81 12 bd 91 7d 1b 3e 15 cc a0 bb 84 c6 ba bd
       -0.035767738 0.15184619 -0.004907141 -0.09119895
000090 96 b9 a4 bd 39 e3 ea 3d 69 34 f1 3d 40 b7 61 bd
       -0.0804321 0.114691205 0.117775746 -0.0551064
0000a0 0c 9e f8 bc 45 af d8 3c 13 1d 3d bd f9 d8 83 3e
       -0.0303488 0.026450763 -0.046170305 0.25751474
0000b0 a2 cc 00 be 24 35 8a 3d 8b 28 02 be 4f 2e 8a bd
       -0.12578061 0.06748417 -0.12710778 -0.06747114
0000c0 5a 59 d8 3d 81 9c f7 bc 4c 24 bc bc f7 64 84 bd
       0.105639175 -0.030225994 -0.022966526 -0.0646457
0000d0 95 2f 81 bd e7 29 b0 bd fd 29 ca bd 41 72 b4 bd
       -0.06307904 -0.08601742 -0.0987129 -0.08810855
0000e0 2c de 0a 3e 3b 77 88 bd 88 da f0 bd 6b 10 c7 3d
       0.13561314 -0.066633664 -0.117604315 0.09719928
0000f0 d9 ba 60 3d 1d 3a c7 3d 16 0c 10 be e5 d8 09 be
       0.05486569 0.09727881 -0.1406711 -0.13461645
000100 84 90 cd bd 1d 94 98 bd a1 47 a3 b9 86 90 7a 3d
       -0.1003733 -0.07450125 -0.0003114315 0.061172985
000110 60 91 a9 3d ee 1c f9 bd 34 04 67 3d fc 7e a7 bd
       0.08279681 -0.12163721 0.056400493 -0.08178517
000120 31 26 05 3d 87 de 35 3d 88 66 b9 3c 20 f2 4c 3d
       0.032507125 0.04440167 0.022631899 0.050035596
000130 9c 63 e7 bb f9 35 bf 3d cb 9f f1 3c 3e be fd 3d
       -0.007061435 0.09336466 0.02949514 0.123898014
000140 ba 21 fb 3c d6 52 99 bd 26 00 ba 3d 12 0e fb 3b
       0.03065573 -0.07486503 0.090820596 0.0076615894
000150 98 f4 0b 3e 38 1f 80 bc 55 48 0f 3e 53 13 a9 bd
       0.13667524 -0.015639886 0.13992436 -0.08255639
000160 36 90 91 3d eb 10 d8 bd 64 d7 c6 3d 5b 4c d2 3c
       0.07107584 -0.10550102 0.09709051 0.025671175
000170 4e 6f a4 3d 81 6c f9 bd 36 0e 10 be 1d 8e 8b 3d
       0.08029042 -0.121788986 -0.14067921 0.06814215
000180 dc 50 6e bd 9b 69 65 3d b3 d5 ab bd 05 12 33 bd
       -0.058182582 0.056008916 -0.08390369 -0.043718357
000190 0d 16 26 3a d8 6a ae 3d 3e 8f a3 3d 36 f9 4e bc
       0.0006335683 0.085164726 0.07986306 -0.012632659
0001a0 40 d8 23 bd f6 bb 20 bb c6 46 95 3d 87 7b f5 bd
       -0.040001154 -0.0024526096 0.072888896 -0.119864516
0001b0 53 00 31 bd 02 9a 0b be 67 3a a7 3c aa 08 89 bc
       -0.0432132 -0.13632968 0.02041359 -0.016727764
0001c0 10 13 a4 3d ab 60 e7 3d e4 a4 f7 bd 02 2e 80 bd
       0.080114484 0.11297735 -0.12091997 -0.06258775
0001d0 69 3e ba bc 97 d7 b8 ba 1b 3a 04 bd b0 1a b6 bd
       -0.022734838 -0.0014102337 -0.032281976 -0.08891809
0001e0 80 d3 5f bd 14 af 6e bb 23 ea e8 3d 70 a0 13 bd
       -0.05464506 -0.0036420273 0.11372783 -0.036041677
0001f0 22 45 bf 3d 8a 1f ea bd d2 3b cf 3b 11 05 e2 bd
       0.09339358 -0.11431797 0.00632427 -0.110361226
000200 d7 e3 07 be d7 9f 65 3c 7d 9e 84 bd fc 3a d5 3d
       -0.13270508 0.01401516 -0.06475542 0.10411641
000210 9f c4 e4 3d 66 23 10 be f6 79 21 bc ab eb c5 bc
       0.11170315 -0.14076003 -0.009855738 -0.024160227
000220 26 15 a5 bd 27 34 ca bd 81 21 75 bd 49 bf 7f 3d
       -0.08060674 -0.098732285 -0.059846405 0.062438283
000230 65 ba 09 3d f9 50 ae 3d 57 30 0a bc 7d 6d 96 3d
       0.033625025 0.08511538 -0.008434377 0.07345102
000240 72 08 e0 3c 18 a0 fc bc cd 74 07 bc 6f b5 03 be
       0.027347777 -0.030838057 -0.008267594 -0.1286218
000250 85 d8 54 bb ee 4b 3e bd 62 da 41 bd e9 e3 98 bd
       -0.0032477689 -0.04645913 -0.047327407 -0.074653454
000260 f4 cf 47 bd 9e 68 fa bd 63 b0 1c bc 7d 6a c1 bc
       -0.048782304 -0.122269854 -0.009563538 -0.023610348
000270 44 90 18 bd a4 d6 d6 3d 82 cf 9d 3d 89 dc b4 3c
       -0.037246957 0.10490158 0.077055946 0.022077816
000280 fd 3f 8f bd eb c3 93 3c 06 48 c7 bd 58 3a a5 3d
       -0.06994627 0.018037757 -0.09730534 0.08067769
000290 0c f2 e9 3d 77 a4 1f bd 80 5d df 3d 20 3c eb 3d
       0.1142312 -0.038975205 0.109065056 0.11486077
0002a0 c7 ee d7 bc 56 18 57 bd 26 e0 e9 3b 55 74 bf 3c
       -0.026358975 -0.052513443 0.0071373163 0.023370901
0002b0 3a 0d 06 be 63 9a da bc 34 71 51 bd 35 b0 9c 3d
       -0.13090983 -0.026684945 -0.05113335 0.07650796
0002c0 68 06 85 bb f4 8e be 3d 70 0a dd 3d b6 89 35 bd
       -0.0040596016 0.0930461 0.107930064 -0.044320785
0002d0 78 60 f9 3c dd 62 f5 bc 40 71 7c bd dd 3f c5 bd
       0.030441508 -0.029954368 -0.06163144 -0.096313216
0002e0 2b 77 56 3b c2 a8 cd 3c 90 0b 2f bd 3a be c4 3c
       0.0032724838 0.025104884 -0.042735636 0.024016488
0002f0 21 ff b4 3d ce 7b 71 3d 13 df 6e 3d 60 41 b3 3c
       0.088377245 0.05895596 0.05831821 0.02188176
000300 1b a5 de bd 6e cf d3 bd b7 c8 d6 bd cc 53 be 3d
       -0.10871335 -0.103422984 -0.10487502 0.09293327
000310 0b 19 ff bd 7c 3b d8 bd 60 28 9a 3d 28 9f 86 3d
       -0.124559484 -0.10558221 0.07527232 0.065733254
000320 92 e5 08 be 8b 5a a7 3d b9 2c 04 bd 6d 99 f9 3c
       -0.13368824 0.081715666 -0.032269213 0.030468667
000330 54 6f b5 bd 23 dd af bc a3 be 00 3d 20 d7 dc 3d
       -0.08859125 -0.02146775 0.031431805 0.10783219
000340 b7 a1 af 3d cc 7e 9d bd d3 fa bd bd 3f 00 0d bc
       0.085757665 -0.076902 -0.092763565 -0.008606016
000350 ea cb 35 3d e3 cd 9e 3d 1e 4f 10 be 2c 58 3d bc
       0.04438392 0.077541135 -0.14092681 -0.011556666
000360 f1 df a3 3b 54 43 87 bd 55 71 e4 3d c1 c3 19 bd
       0.005001061 -0.06604639 0.11154429 -0.0375402
000370 13 11 0a be 9f ee ac bd 41 95 94 3b cf 88 d7 bd
       -0.13483076 -0.08443951 0.004534394 -0.10524141
000380 5a 4f 04 3d 7c e0 0c 3e 61 b4 bd 3b 1c b4 0e bd
       0.032302238 0.13757509 0.005789325 -0.034839734
000390 7e 6e 08 3e 16 d1 d5 3d 12 77 c0 3d 9f c2 2f 3c
       0.133234 0.104402706 0.09397711 0.010727554
0003a0 87 da d3 3b db 9d e0 bd 6b dc 6b 3c f9 da 0c 3e
       0.0064652595 -0.109676085 0.014395813 0.13755406
0003b0 b8 fa f4 3b 2f 3b 01 be e3 f7 9e 3d 52 f7 01 3e
       0.007476177 -0.12620233 0.077621244 0.12692001
0003c0 66 cf f2 3d f0 90 da 3b df a4 d9 3c 0b 7c bb 3c
       0.11855964 0.00667011 0.026567874 0.022886297
0003d0 67 69 6d bd 95 0a a9 bc 67 48 ec 3d 65 64 6c 3c
       -0.057961848 -0.020634929 0.11537247 0.014428233
0003e0 8b 7c 08 3e 99 55 c0 bd 9f 50 a9 bc a6 f0 d3 be
       0.1332876 -0.093913265 -0.020668326 -0.41394538
0003f0 1c e3 82 bc bb f2 d7 3e 07 a4 95 3e a1 d3 2c 3d
       -0.015977435 0.42177376 0.29226705 0.042194013

hidden_layer_list.0.bias f4 [30]
000000 3b c3 87 bd 1c 62 3b bd e8 07 e8 bd bc c0 1c be
       -0.06629034 -0.04574786 -0.11329633 -0.15307897
000010 c5 f4 9c bd ae 4e 81 3d 79 ac 41 3e 46 a0 46 3e
       -0.076638736 0.06313835 0.1891345 0.19397077
000020 c8 4f ac 3d 0c 8f 52 3e 49 9f c3 bb 64 c1 08 3e
       0.084136546 0.2056238 -0.005969916 0.13355023
000030 d7 ae fc bd 31 9f 87 bd b0 2b 05 be d9 96 c7 bd
       -0.123380356 -0.0662216 -0.13004947 -0.09745569
000040 87 81 d7 bd 75 4c c6 bd 07 db 2a 3e a1 ef a2 3d
       -0.10522752 -0.09682552 0.16685115 0.07955862
000050 e7 53 43 3e df ca 6c 3d 26 c5 1a 3e e6 49 9b bd
       0.19074975 0.05781066 0.15114269 -0.075824544
000060 a2 68 0f be f1 1d 53 3c f6 f1 5c 3e fe 38 97 bc
       -0.14004758 0.012885557 0.21576676 -0.018459793
000070 47 9f 6c 3d 8b 8d cb 3d
       0.057769086 0.099391066

output_layer.weight f4 [4, 30]
000000 64 a1 4b 3e 28 ac 30 be df 7d 9a bd d6 22 b8 bb
       0.19885784 -0.17253172 -0.07543539 -0.005619387
000010 db fe 33 3e d8 b0 b9 3e a5 0d f8 be 05 29 27 bf
       0.17577688 0.36267734 -0.4844791 -0.65296966
000020 36 75 94 3e 28 a2 84 be de b6 d9 bd e4 02 6a bc
       0.28995675 -0.25904965 -0.10630582 -0.014282916
000030 bf 65 d9 3d bb 35 e8 3d 6d 9b 0c 3e 3c d8 17 bd
       0.1061511 0.11338373 0.13731165 -0.03707145
000040 4b d6 60 bd 33 f6 e2 be 55 5f 74 3e 98 38 de bd
       -0.054891866 -0.4432846 0.23864491 -0.10850638
000050 fa f9 89 3e dc 2c 11 3d fa 06 f0 be 74 87 1d 3e
       0.2694853 0.03544317 -0.46880323 0.15383703
000060 0b 76 85 bd b9 3e 9a bd de 32 0c bf 8d af 6c 3e
       -0.065166555 -0.07531495 -0.5476512 0.23113842
000070 ab 39 a6 3e a9 b3 4a be dc f8 18 3e 20 5c 7f bd
       0.32465872 -0.19795097 0.14938682 -0.062343717
000080 7a 8c d3 3c 55 14 aa bd cd ee 3c 3d c9 97 21 3d
       0.02582382 -0.08304659 0.046126176 0.039451394
000090 37 16 09 bf 49 08 21 bf a5 72 8b 3e ed 5e 7f be
       -0.5354952 -0.6290327 0.27235904 -0.24938555
0000a0 32 10 04 be 06 d0 0a 3e be b6 35 3e 90 98 34 be
       -0.12896803 0.13555917 0.17745492 -0.17636323
0000b0 27 6f 12 3e 96 c1 11 3e a6 69 24 3c 02 b1 f9 be
       0.14300214 0.14234003 0.010034954 -0.4876786
0000c0 1c 05 4c 3e 26 38 57 3e 90 09 e7 3d 2d d1 d5 3d
       0.19923824 0.21017513 0.11281121 0.10440288
0000d0 a3 55 38 bf f2 15 8e bd e5 c4 1b 3d c9 6f a0 3d
       -0.7200567 -0.069377795 0.03802957 0.07833821
0000e0 11 c3 1e bf a4 d0 c4 3e 39 ce 63 3e 5a fd 0a 3e
       -0.620164 0.3844043 0.22246636 0.13573208
0000f0 af 7e 5c be 5f 54 5a bd 06 64 f9 3d 26 e5 9b 3d
       -0.21532701 -0.05330312 0.12177281 0.07612066
000100 3f ff af bc 5c a6 a8 be e9 ea 03 3d 1a 6a a3 3e
       -0.021484016 -0.32939422 0.03220645 0.31916887
000110 9e 82 6d be d0 55 f0 3d 0f 1a f9 bc 1e 20 85 be
       -0.23194358 0.117351174 -0.030407934 -0.26001066
000120 b2 55 01 3e b8 9f 0a bd a1 4c 27 be b0 a5 2a be
       0.12630346 -0.033843726 -0.16337825 -0.16664767
000130 08 fa 14 be 36 22 2c be ce 0c 4d bd 13 8a 1e 3e
       -0.14548504 -0.16809925 -0.05006104 0.15482359
000140 5c a8 e8 bd ba f5 8e be 2f d6 98 3d 26 3c bf bd
       -0.11360237 -0.2792185 0.07462727 -0.09337644
000150 52 ca 12 3e bc 89 08 bc e8 6b f2 3d 6e a8 ae be
       0.14334992 -0.00833362 0.11836988 -0.34112877
000160 53 9e d2 be b7 2f 18 3e 59 e0 d6 be 41 1f ec bc
       -0.41136417 0.14861952 -0.4196804 -0.028823497
000170 10 08 11 3e f3 24 02 be 4f 01 9e 3c 3f 87 16 bf
       0.14163232 -0.12709408 0.019287733 -0.5880012
000180 70 52 8a 3e c4 26 17 3e af f8 d4 be af c3 89 3e
       0.2701602 0.14760882 -0.4159598 0.26907107
000190 98 69 f9 bd d6 a5 8e be 0c 4b c5 bc 6d 21 12 be
       -0.121783435 -0.27860898 -0.024083637 -0.14270563
0001a0 db 33 09 be d2 71 72 bd 1f 89 af bc b6 cf 23 3e
       -0.13398688 -0.05919058 -0.02142769 0.15997204
0001b0 27 85 86 be ac fd 08 bf 85 a4 14 bf fa e6 3e bf
       -0.26273462 -0.5351207 -0.58063537 -0.7457119
0001c0 62 0b dc 3e 1b 38 2a 3e 9c ab 13 be f2 a1 06 be
       0.42977434 0.16622965 -0.14420933 -0.13147715
0001d0 2a fa 05 3f c5 2d 9a be 7d 79 95 be 29 e2 b0 be
       0.52334845 -0.30113044 -0.2919425 -0.34547547

output_layer.bias f4 [4]
000000 54 a6 ff 3c ae 61 c6 bc ab 72 53 3e 22 22 b3 3d
       0.031207241 -0.0242165 0.20649211 0.08746745
