K-Digital Training/김소현 강사님/Pytorch/숙제/language_model/best_model_epoch_44.pth (torch, 14536 bytes, 6 tensors)

input_layer.weight f4 [50, 26]
0.10105143 -0.0865614 -0.038019367 0.09205082 -0.18463096 0.11761423 -0.040346052 0.099772885
0.027263474 -0.024013273 0.05439495 0.009674759 0.07162714 -0.076426655 -0.014298584 -0.017655812
0.028425848 -0.00078344916 0.1714382 0.061029404 -0.073034875 -0.118446566 -0.032872133 -0.08459287
-0.062845126 0.009390355 0.5101524 0.3586743 -0.60120636 0.00032894232 -0.28683046 -0.18534157
0.6544698 -0.37776935 -0.052197296 -0.15314186 0.619187 -0.07280908 0.3037766 0.16497996
0.10494996 0.08105823 -0.38617596 -0.1624127 -0.14610729 -0.04527959 -0.08689026 -0.38345817
-0.16636783 -0.56393814 0.16021241 0.27532983 0.18952975 0.0920517 0.32482475 0.6221764
0.383841 -0.042989876 -0.11182043 -0.10185041 0.08587289 0.7632125 0.3202115 0.3886103
0.122101754 0.044698834 -0.06111432 0.2756449 0.29506385 0.22542131 0.32476693 0.11866969
0.55857545 0.24970989 -0.40510574 0.375367 -0.37957865 -0.08775683 -0.49372998 -0.03235121
0.2503037 -0.06342957 0.2818029 0.36835518 -0.26287866 0.21637587 -0.23004122 0.034814883
-0.4707962 0.1776117 -0.10580135 -0.2978253 0.2364275 -0.080282904 0.1251228 0.05745725
0.14539605 0.24426702 -0.17722888 0.30557328 0.5020445 0.31982595 0.049423408 -0.3288723
-0.45154402 -0.2843193 0.58341646 0.33468193 0.6056111 0.47960898 -0.44099635 0.43679795
0.16248775 0.16964038 -0.33120275 0.241574 0.012238201 -0.083570346 -0.050482307 -0.20324558
0.36586383 0.3345938 0.31801635 0.117115 0.23192838 0.33230287 -0.026734961 0.44881997
-0.24353553 -0.31764638 0.16000943 0.21065992 0.34936965 0.47477007 0.44120607 0.25566974
0.31324816 0.11027063 0.14215879 0.05943386 0.037815396 0.30942398 0.18938722 0.36621806
0.19145003 0.2769562 0.4499669 0.36058784 0.39186376 0.36608127 0.385072 0.42650655
-0.10929093 0.29856217 -0.26155725 -0.07484448 -0.11457173 -0.08388337 0.13943261 -0.06408703
-0.1465539 0.07545566 0.062790416 0.1270226 -0.101484634 0.042520918 -0.0713962 -0.044062335
-0.15628855 -0.089382075 -0.06006208 0.08386619 0.035828345 0.048443906 0.19574453 0.19114017
0.13376045 0.0062450324 -0.13567145 0.15326665 -0.049041472 -0.01585508 -0.43829677 -0.13328767
0.23821324 0.5901623 0.3473991 0.2704929 -0.4819159 0.13352004 0.07065256 0.44753975
-0.33875963 0.11097383 0.06434322 -0.32148385 0.09849434 0.11349729 0.7605088 0.21149008
0.17173749 0.073766276 0.40726516 0.3611196 0.1280669 0.52395946 -0.4486497 -0.47909355
0.43244374 0.3104796 -0.28921232 -0.22818114 -0.60734665 -0.24035856 0.73810995 -0.034497745
0.28089073 -0.52212375 0.29930848 0.22162738 0.09223755 0.5014622 -0.082902744 0.052292433
-0.34920034 -0.3842638 -0.036092963 0.025808819 0.120301776 -0.19330958 -0.026402045 -0.58772355
0.6650887 0.5022289 -0.38575363 -0.14612974 0.2523276 0.3966554 0.5693461 0.20971233
-0.6709339 0.10669921 0.0419204 0.25618267 -0.40863928 0.14238247 -0.28316167 -0.31373197
-0.065650865 0.13374145 0.7796918 0.19319417 0.13494217 0.27100465 0.21413791 0.3486985
00000000: 0df4 ce3d 1a47 b1bd 32ba 1bbd 2485 bc3d
00000010: e60f 3dbe bbdf f03d e741 25bd ba55 cc3d
00000020: a657 df3c 7cb7 c4bc 3dcd 5e3d e182 1e3c
00000030: 40b1 923d 9485 9cbd 9c44 6abc eca2 90bc
00000040: 53dd e83c 6260 4dba 7f8d 2f3e f8f9 793d
00000050: 4f93 95bd 1d94 f2bd eea4 06bd 073f adbd
00000060: f2b4 80bd 01da 193c 5999 023f 28a4 b73e
00000070: a9e8 19bf e475 ac39 71db 92be 2eca 3dbe
00000080: 558b 273f fc6a c1be d5cc 55bd 38d1 1cbe
00000090: 0a83 1e3f ed1c 95bd 9b88 9b3e 82f0 283e
000000a0: 01f0 d63d db01 a63d dbb8 c5be 844f 26be
000000b0: 269d 15be 1777 39bd 85f3 b1bd a154 c4be
000000c0: 545c 2abe 405e 10bf b90e 243e 08f8 8c3e
000000d0: 1614 423e 9a85 bc3d 6e4f a63e f446 1f3f
000000e0: cf86 c43e 2716 30bd 1c02 e5bd f396 d0bd
000000f0: 20de af3d e561 433f c3f2 a33e eef7 c63e
00000100: 7c10 fa3d 2016 373d 0253 7abd 5421 8d3e
00000110: 9c12 973e d8d4 663e da47 a63e 1809 f33d
00000120: cdfe 0e3f f3b3 7f3e 056a cfbe 1a30 c03e
00000130: 2258 c2be dab9 b3bd 2dca fcbe b482 04bd
00000140: ce27 803e 5de7 81bd 7848 903e 0d99 bc3e
00000150: 0898 86be a391 5d3e ed8f 6bbe 0d9a 0e3d
00000160: 330c f1be d7df 353e 61ae d8bd 8f7c 98be
00000170: 0d1a 723e 5d6b a4bd 3120 003e 4b58 6b3d
00000180: b4e2 143e 2221 7a3e 7d7b 35be 1a74 9c3e
00000190: fd85 003f 3ac0 a33e 3370 4a3d f361 a8be
000001a0: c730 e7be 4d92 91be c85a 153f 6e5b ab3e
000001b0: 5409 1b3f 4f8f f53e 46ca e1be fba3 df3e
000001c0: 3063 263e 35b6 2d3e 6893 a9be 2d5f 773e
000001d0: bc82 483c ee26 abbd 89c6 4ebd 9c1f 50be
000001e0: 8152 bb3e e14f ab3e 0ad3 a23e fdd9 ef3d
000001f0: a27e 6d3e 9a23 aa3e 4703 dbbc bbcb e53e
00000200: 6161 79be 8ca2 a2be 83d9 233e 3cb7 573e
00000210: 94e0 b23e 1015 f33e c3e5 e13e 25e7 823e
00000220: 1062 a03e 91d5 e13d 1392 113e eb70 733d
00000230: 51e4 1a3d d26c 9e3e b9ee 413e ef80 bb3e
00000240: 7a0b 443e 34cd 8d3e 1062 e63e f89e b83e
00000250: 5ea2 c83e 016f bb3e 2828 c53e 115f da3e
00000260: ecd3 dfbd 24dd 983e d5ea 85be 1048 99bd
00000270: 95a4 eabd 0bcb abbd 6cc7 0e3e 1040 83bd
00000280: 3a12 16be 7f88 9a3d 4398 803d 3612 023e
00000290: 2dd7 cfbd 6a2a 2e3d 2c38 92bd b57a 34bd
000002a0: 1b0a 20be f30d b7bd a803 76bd 09c2 ab3d
000002b0: bec0 123d 1e6d 463d 4171 483e 40ba 433e
000002c0: 80f8 083e 21a3 cc3b 75ed 0abe eff1 1c3e
000002d0: b6df 48bd 83e2 81bc 6f68 e0be 907c 08be
000002e0: 2cee 733e e014 173f 4bde b13e 0c7e 8a3e
000002f0: aebd f6be 7ab9 083e 4ab2 903d ee23 e53e
00000300: e771 adbe 3f46 e33d 61c6 833d 8899 a4be
00000310: 67b7 c93d 4471 e83d b4b0 423f db90 583e
00000320: f4db 2f3e c612 973d 0f85 d03e abe4 b83e
00000330: f823 033e 3522 063f 6ab5 e5be c04b f5be
00000340: 4469 dd3e 2ff7 9e3e a313 94be 51a8 69be
00000350: 127b 1bbf 8e20 76be c6f4 3c3f 824d 0dbd
00000360: e9d0 8f3e e7a9 05bf f63e 993e 4af2 623e
00000370: 0ae7 bc3d d45f 003f eac8 a9bd 9730 563d
00000380: 63ca b2be 3abe c4be 37d6 13bd 046d d33c
00000390: c760 f63d f2f2 45be 1a49 d8bc 0d75 16bf
000003a0: 4143 2a3f 1392 003f 8081 c5be 09a3 15be
000003b0: 1531 813e 6b16 cb3e aac0 113f d4be 563e
000003c0: 53c2 2bbf 1e85 da3d bab4 2b3d 602a 833e
000003d0: 2b39 d1be b6cc 113e 91fa 90be 7aa1 a0be
000003e0: f673 86bd 85f3 083e e299 473f b1d4 453e
000003f0: 482e 0a3e 1fc1 8a3e f846 5b3e 9c88 b23e

input_layer.bias f4 [50]
-0.036175195 0.043454356 0.2631878 0.095941834 0.0884186 0.36860976 -0.08414486 0.13064413
0.034159586 0.15212211 0.023993794 -0.16699465 0.014006091 0.29559365 0.101308204 0.090709776
0.0006949134 0.3833753 0.07208444 -0.1751982 -0.1398631 0.01159248 -0.023421794 0.1981422
-0.04610242 0.16932724 -0.16539778 -0.18639162 0.040669635 -0.1241764 -0.05719216 0.07751072
-0.17011534 0.22162469 -0.11902199 0.28786007 0.18545604 -0.036779467 -0.17163089 0.02073544
-0.1095619 0.2031945 -0.16498291 0.032321084 -0.10808349 -0.12613353 -0.10228828 -0.01944308
0.076555185 0.14307977
00000000: 712c 14bd 32fd 313d 8dc0 863e 277d c43d
00000010: d014 b53d 6bba bc3e 2454 acbd 93c7 053e
00000020: ecea 0b3d e6c5 1b3e a28e c43c a500 2bbe
00000030: ce79 653c 0d58 973e ad7a cf3d 0cc6 b93d
00000040: d92a 363a c449 c43e 02a1 933d 2867 33be
00000050: 4638 0fbe 63ee 3d3c 10df bfbc cae5 4a3e
00000060: e4d5 3cbd 1f64 2d3e 095e 29be 72dd 3ebe
00000070: 3495 263d 3250 febd 5442 6abd f1bd 9e3d
00000080: b732 2ebe 95f1 623e cdc1 f3bd 6562 933e
00000090: 30e8 3d3e 11a6 16bd 02c0 2fbe 5fdd a93c
000000a0: fd61 e0bd 3812 503e 48f1 28be 1d63 043d
000000b0: e05a ddbd 2629 01be 857c d1bd 1847 9fbc
000000c0: f7c8 9c3d 8183 123e

hidden_layer_list.0.weight f4 [30, 50]
0.072266154 -0.21195456 0.010194911 0.24385853 0.3600648 0.06986643 -0.11905735 0.33575204
-0.15740879 0.2615314 -0.119962275 0.098669164 -0.06439533 0.1167613 0.06907135 -0.08690705
0.08925543 0.18301463 0.34627703 -0.032914348 -0.08412668 -0.05249574 -0.09621578 0.16453135
0.13635021 0.41211042 0.106823236 0.013993698 0.24106608 0.09363801 0.08397372 -0.17819521
-0.035767738 0.19355802 -0.004907141 -0.06454233 -0.0645524 0.114691205 0.117775746 -0.0551064
-0.0303488 0.09677109 -0.046170305 0.35817793 -0.12578061 0.06748417 -0.12710778 -0.06747114
0.20764942 -0.028837837 -0.022966526 -0.0646457 -0.06307904 -0.08601742 -0.0987129 -0.08810855
0.13561314 -0.066633664 -0.117604315 0.09719928 0.05486569 0.09727881 -0.1406711 -0.13461645
-0.1003733 -0.07450125 -0.0003114315 0.061172985 0.08279681 -0.12163721 0.056400493 -0.08178517
0.032507125 0.04440167 0.022631899 0.050035596 -0.007061435 0.09336466 0.02949514 0.123898014
0.03065573 -0.07486503 0.090820596 0.0076615894 0.13667524 -0.015639886 0.13992436 -0.08255639
0.07107584 -0.10550102 0.09709051 0.025671175 0.08029042 -0.121788986 -0.14067921 0.06814215
-0.058182582 0.056008916 -0.08390369 -0.043718357 0.0006335683 0.085164726 0.07986306 -0.012632659
-0.040001154 -0.0024526096 0.072888896 -0.119864516 -0.0432132 -0.13632968 0.02041359 -0.016727764
0.080114484 0.11297735 -0.12091997 -0.06258775 -0.022734838 -0.0014102337 -0.032281976 -0.08891809
-0.05464506 -0.0036420273 0.11372783 -0.036041677 0.09339358 -0.11431797 0.00632427 -0.110361226
-0.13270508 0.01401516 -0.06475542 0.10411641 0.11170315 -0.14076003 -0.009855738 -0.024160227
-0.08060674 -0.098732285 -0.059846405 0.062438283 0.033625025 0.08511538 -0.008434377 0.07345102
0.027347777 -0.030838057 -0.008267594 -0.1286218 -0.0032477689 -0.04645913 -0.047327407 -0.074653454
-0.048782304 -0.122269854 -0.009563538 -0.023610348 -0.037246957 0.10490158 0.077055946 0.022077816
-0.06994627 0.018037757 -0.09730534 0.08067769 0.1142312 -0.038975205 0.109065056 0.11486077
-0.026358975 -0.052513443 0.0071373163 0.023370901 -0.13090983 -0.026684945 -0.05113335 0.07650796
-0.0040596016 0.0930461 0.107930064 -0.044320785 0.030441508 -0.029954368 -0.06163144 -0.096313216
0.0032724838 0.025104884 -0.042735636 0.024016488 0.088377245 0.05895596 0.05831821 0.02188176
-0.10871335 -0.103422984 -0.10487502 0.09293327 -0.124559484 -0.10558221 0.07527232 0.065733254
-0.13368824 0.081715666 -0.032269213 0.030468667 -0.08859125 -0.02146775 0.031431805 0.10783219
0.085757665 -0.076902 -0.092763565 -0.008606016 0.04438392 0.077541135 -0.14092681 -0.011556666
0.005001061 -0.06604639 0.11154429 -0.0375402 -0.13483076 -0.08443951 0.004534394 -0.10524141
0.032302238 0.13757509 0.005789325 -0.034839734 0.133234 0.104402706 0.09397711 0.010727554
0.0064652595 -0.109676085 0.014395813 0.13755406 0.007476177 -0.12620233 0.077621244 0.12692001
0.11855964 0.00667011 0.026567874 0.022886297 -0.057961848 -0.020634929 0.11537247 0.014428233
0.1332876 -0.093913265 -0.020668326 -0.40117562 0.005617602 0.46171117 0.31465632 0.067185685
00000000: 4700 943d 9e0a 59be 8e08 273c 0db6 793e
00000010: 6a5a b83e 2116 8f3d 57d4 f3bd b1e7 ab3e
00000020: c52f 21be 72e7 853e c8ae f5bd 0f13 ca3d
00000030: b3e1 83bd 8c20 ef3d 4875 8d3d 53fc b1bd
00000040: 8dcb b63d 3068 3b3e 394b b13e 32d1 06bd
00000050: 9c4a acbd c605 57bd c70c c5bd e87a 283e
00000060: 649f 0b3e 2300 d33e 24c6 da3d d345 653c
00000070: 07da 763e 49c5 bf3d 6afa ab3d ce78 36be
00000080: 3181 12bd 1334 463e 15cc a0bb c52e 84bd
00000090: 0c34 84bd 39e3 ea3d 6934 f13d 40b7 61bd
000000a0: 0c9e f8bc ec2f c63d 131d 3dbd 1963 b73e
000000b0: a2cc 00be 2435 8a3d 8b28 02be 4f2e 8abd
000000c0: 0da2 543e 543d ecbc 4c24 bcbc f764 84bd
000000d0: 952f 81bd e729 b0bd fd29 cabd 4172 b4bd
000000e0: 2cde 0a3e 3b77 88bd 88da f0bd 6b10 c73d
000000f0: d9ba 603d 1d3a c73d 160c 10be e5d8 09be
00000100: 8490 cdbd 1d94 98bd a147 a3b9 8690 7a3d
00000110: 6091 a93d ee1c f9bd 3404 673d fc7e a7bd
00000120: 3126 053d 87de 353d 8866 b93c 20f2 4c3d
00000130: 9c63 e7bb f935 bf3d cb9f f13c 3ebe fd3d
00000140: ba21 fb3c d652 99bd 2600 ba3d 120e fb3b
00000150: 98f4 0b3e 381f 80bc 5548 0f3e 5313 a9bd
00000160: 3690 913d eb10 d8bd 64d7 c63d 5b4c d23c
00000170: 4e6f a43d 816c f9bd 360e 10be 1d8e 8b3d
00000180: dc50 6ebd 9b69 653d b3d5 abbd 0512 33bd
00000190: 0d16 263a d86a ae3d 3e8f a33d 36f9 4ebc
000001a0: 40d8 23bd f6bb 20bb c646 953d 877b f5bd
000001b0: 5300 31bd 029a 0bbe 673a a73c aa08 89bc
000001c0: 1013 a43d ab60 e73d e4a4 f7bd 022e 80bd
000001d0: 693e babc 97d7 b8ba 1b3a 04bd b01a b6bd
000001e0: 80d3 5fbd 14af 6ebb 23ea e83d 70a0 13bd
000001f0: 2245 bf3d 8a1f eabd d23b cf3b 1105 e2bd
00000200: d7e3 07be d79f 653c 7d9e 84bd fc3a d53d
00000210: 9fc4 e43d 6623 10be f679 21bc abeb c5bc
00000220: 2615 a5bd 2734 cabd 8121 75bd 49bf 7f3d
00000230: 65ba 093d f950 ae3d 5730 0abc 7d6d 963d
00000240: 7208 e03c 18a0 fcbc cd74 07bc 6fb5 03be
00000250: 85d8 54bb ee4b 3ebd 62da 41bd e9e3 98bd
00000260: f4cf 47bd 9e68 fabd 63b0 1cbc 7d6a c1bc
00000270: 4490 18bd a4d6 d63d 82cf 9d3d 89dc b43c
00000280: fd3f 8fbd ebc3 933c 0648 c7bd 583a a53d
00000290: 0cf2 e93d 77a4 1fbd 805d df3d 203c eb3d
000002a0: c7ee d7bc 5618 57bd 26e0 e93b 5574 bf3c
000002b0: 3a0d 06be 639a dabc 3471 51bd 35b0 9c3d
000002c0: 6806 85bb f48e be3d 700a dd3d b689 35bd
000002d0: 7860 f93c dd62 f5bc 4071 7cbd dd3f c5bd
000002e0: 2b77 563b c2a8 cd3c 900b 2fbd 3abe c43c
000002f0: 21ff b43d ce7b 713d 13df 6e3d 6041 b33c
00000300: 1ba5 debd 6ecf d3bd b7c8 d6bd cc53 be3d
00000310: 0b19 ffbd 7c3b d8bd 6028 9a3d 289f 863d
00000320: 92e5 08be 8b5a a73d b92c 04bd 6d99 f93c
00000330: 546f b5bd 23dd afbc a3be 003d 20d7 dc3d
00000340: b7a1 af3d cc7e 9dbd d3fa bdbd 3f00 0dbc
00000350: eacb 353d e3cd 9e3d 1e4f 10be 2c58 3dbc
00000360: f1df a33b 5443 87bd 5571 e43d c1c3 19bd
00000370: 1311 0abe 9fee acbd 4195 943b cf88 d7bd
00000380: 5a4f 043d 7ce0 0c3e 61b4 bd3b 1cb4 0ebd
00000390: 7e6e 083e 16d1 d53d 1277 c03d 9fc2 2f3c
000003a0: 87da d33b db9d e0bd 6bdc 6b3c f9da 0c3e
000003b0: b8fa f43b 2f3b 01be e3f7 9e3d 52f7 013e
000003c0: 66cf f23d f090 da3b dfa4 d93c 0b7c bb3c
000003d0: 6769 6dbd 950a a9bc 6748 ec3d 6564 6c3c
000003e0: 8b7c 083e 9955 c0bd 9f50 a9bc e466 cdbe
000003f0: dc13 b83b 6865 ec3e a21a a13e a698 893d

hidden_layer_list.0.bias f4 [30]
-0.03144392 -0.04574786 -0.11329633 -0.15307897 -0.076638736 0.0809986 0.20748436 0.21212162
0.09949147 0.23201601 -0.005969916 0.13017136 -0.123380356 -0.0662216 -0.13004947 -0.09745569
-0.10522752 -0.06433785 0.18781063 0.08350764 0.20475894 0.06991533 0.16604292 -0.075824544
-0.14004758 0.012885557 0.23125629 -0.023455476 0.05611191 0.10375018
00000000: 57cb 00bd 1c62 3bbd e807 e8bd bcc0 1cbe
00000010: c5f4 9cbd 98e2 a53d c876 543e 6936 593e
00000020: 2fc2 cb3d 9b95 6d3e 499f c3bb a44b 053e
00000030: d7ae fcbd 319f 87bd b02b 05be d996 c7bd
00000040: 8781 d7bd 90c3 83bd 6e51 403e 0e06 ab3d
00000050: 54ac 513e c52f 8f3d 2807 2a3e e649 9bbd
00000060: a268 0fbe f11d 533c 73ce 6c3e b325 c0bc
00000070: 9ad5 653d f97a d43d

output_layer.weight f4 [4, 30]
0.20616639 -0.17253172 -0.07543539 -0.005619387 0.17577688 0.36584532 -0.49040845 -0.67040265
0.28917572 -0.2593452 -0.10630582 -0.017446147 0.1061511 0.11338373 0.13731165 -0.03707145
-0.054891866 -0.4274151 0.23699777 -0.1182001 0.27037525 0.03378938 -0.454448 0.15383703
-0.065166555 -0.07531495 -0.5514615 0.22735111 0.33158413 -0.21602893 0.15939687 -0.062343717
0.02582382 -0.08304659 0.046126176 0.049500458 -0.6623132 -0.6901429 0.28763896 -0.38005975
-0.12896803 0.15706551 0.17745492 -0.17636323 0.14300214 0.14234003 0.010034954 -0.8376401
0.21124694 0.22393256 0.12081537 0.114842445 -0.8509129 -0.069377795 0.03802957 0.07833821
-0.7383385 0.4077155 0.23733923 0.15555866 -0.16614589 -0.05330312 0.12177281 0.07612066
-0.021484016 -0.29906577 0.03162148 0.33006266 -0.22072917 0.11384929 -0.030407934 -0.30076432
0.12630346 -0.033843726 -0.16337825 -0.16664767 -0.14548504 -0.18305628 -0.0019982492 0.21150234
-0.06303735 -0.22782178 0.070235826 -0.09337644 0.14334992 -0.00833362 0.11705384 -0.39567637
-0.47991127 0.20985913 -0.63636273 -0.028823497 0.14163232 -0.12709408 0.019287733 -0.7032131
0.3080796 0.17059031 -0.49700233 0.31118014 -0.121783435 -0.2930537 -0.024083637 -0.14270563
-0.13398688 -0.05919058 -0.02142769 0.23497683 -0.3656236 -0.6206778 -0.68786764 -0.8528213
0.46944702 0.16622965 -0.14420933 -0.13147715 0.5599237 -0.32995355 -0.3123663 -0.42729634
00000000: 481d 533e 28ac 30be df7d 9abd d622 b8bb
00000010: dbfe 333e 1450 bb3e d116 fbbe 829f 2bbf
00000020: d70e 943e e5c8 84be deb6 d9bd 39eb 8ebc
00000030: bf65 d93d bb35 e83d 6d9b 0c3e 3cd8 17bd
00000040: 4bd6 60bd 27d6 dabe 8baf 723e e512 f2bd
00000050: a06e 8a3e bc66 0a3d 69ad e8be 7487 1d3e
00000060: 0b76 85bd b93e 9abd 952c 0dbf bbce 683e
00000070: 65c5 a93e b036 5dbe ef38 233e 205c 7fbd
00000080: 7a8c d33c 5514 aabd cdee 3c3d fec0 4a3d
00000090: 5c8d 29bf 35ad 30bf 6a45 933e 3197 c2be
000000a0: 3210 04be c8d5 203e beb6 353e 9098 34be
000000b0: 276f 123e 96c1 113e a669 243c 956f 56bf
000000c0: 1e51 583e 944e 653e 0c6e f73d 8432 eb3d
000000d0: 6ed5 59bf f215 8ebd e5c4 1b3d c96f a03d
000000e0: c003 3dbf 16c0 d03e 0e09 733e c54a 1f3e
000000f0: 2622 2abe 5f54 5abd 0664 f93d 26e5 9b3d
00000100: 3fff afbc 261f 99be 8685 013d f9fd a83e
00000110: d406 62be d129 e93d 0f1a f9bc c8fd 99be
00000120: b255 013e b89f 0abd a14c 27be b0a5 2abe
00000130: 08fa 14be 1b73 3bbe 0ff5 02bb 1294 583e
00000140: ba19 81bd 1d4a 69be cdd7 8f3d 263c bfbd
00000150: 52ca 123e bc89 08bc ecb9 ef3d 1896 cabe
00000160: eeb6 f5be 50e5 563e abe8 22bf 411f ecbc
00000170: 1008 113e f324 02be 4f01 9e3c c605 34bf
00000180: 9cbc 9d3e 3aaf 2e3e 1777 febe 0153 9f3e
00000190: 9869 f9bd 220b 96be 0c4b c5bc 6d21 12be
000001a0: db33 09be d271 72bd 1f89 afbc c49d 703e
000001b0: 0433 bbbe bee4 1ebf 1818 30bf 7f52 5abf
000001c0: 5c5b f03e 1b38 2a3e 9cab 13be f2a1 06be
000001d0: 2957 0f3f acef a8be 7aee 9fbe 96c6 dabe

output_layer.bias f4 [4]
0.031585146 -0.030660868 0.21707352 0.08374025
00000000: 6d5f 013d 802c fbbc 8548 5e3e 0280 ab3d
