K-Digital Training/김소현 강사님/Pytorch/숙제/language_model/best_model_epoch_103.pth (torch, 14536 bytes, 6 tensors)

input_layer.weight f4 [50, 26]
0	0x3dcef40d	0.10105143
1	0xbdb1471a	-0.0865614
2	0xbd1bba32	-0.038019367
3	0x3dbc8524	0.09205082
4	0xbe3d0fe6	-0.18463096
5	0x3df0dfbb	0.11761423
6	0xbd2541e7	-0.040346052
7	0x3dcc55ba	0.099772885
8	0x3cdf57a6	0.027263474
9	0xbcc4b77c	-0.024013273
10	0x3d5ecd3d	0.05439495
11	0x3c1e82e1	0.009674759
12	0x3d92b140	0.07162714
13	0xbd9c8594	-0.076426655
14	0xbc6a449c	-0.014298584
15	0xbc90a2ec	-0.017655812
16	0x3ce8dd53	0.028425848
17	0xba4d6062	-0.00078344916
18	0x3e2f8d7f	0.1714382
19	0x3d79f9f8	0.061029404
20	0xbd95934f	-0.073034875
21	0xbdf2941d	-0.118446566
22	0xbd06a4ee	-0.032872133
23	0xbdad3f07	-0.08459287
24	0xbd80b4f2	-0.062845126
25	0x3c19da01	0.009390355
26	0x3f1ee983	0.6207506
27	0x3f02c0ac	0.51075244
28	0xbf25ce4d	-0.64767915
29	0xbe11632f	-0.14197992
30	0xbef13084	-0.47107327
31	0xbd9ef386	-0.07761292
32	0x3f73534c	0.95048976
33	0xbdcaecec	-0.099084705
34	0xbd2c6873	-0.042091798
35	0xbef34f14	-0.4752127
36	0x3f24c130	0.6435728
37	0xbe292110	-0.16516519
38	0x3e9d1c32	0.30685574
39	0x3e7ac3e3	0.24488787
40	0x3e97f63a	0.29680043
41	0x3cbf9341	0.023385646
42	0xbf87908e	-1.059099
43	0xbe4ec2b6	-0.20191464
44	0xbe20c59a	-0.15700379
45	0x3cd3ec46	0.0258695
46	0xbebf2d53	-0.37339267
47	0xbef81d8c	-0.48460042
48	0x3e8fb6d3	0.2806917
49	0xbf829489	-1.0201579
50	0x3f1ea55d	0.61971074
51	0x3f121d6b	0.5707614
52	0x3e91339a	0.2835968
53	0x3e9b7718	0.303643
54	0x3c0c81eb	0.008575897
55	0x3f81030d	1.0079056
56	0x3f233142	0.63747036
57	0xbe046f93	-0.12933187
58	0xbe93c341	-0.28859904
59	0xbdb9091d	-0.09034941
60	0x3e543b54	0.20725757
61	0x3f9ed8b4	1.2409883
62	0x3f4a161b	0.7893998
63	0x3eb876ce	0.3602814
64	0x3e93fb05	0.2890245
65	0x3c6552f2	0.0139968265
66	0xbec3b231	-0.38221887
67	0x3ed829a8	0.4221928
68	0x3ee17368	0.4403336
69	0x3ee7ff8b	0.4531215
70	0x3e954521	0.29154304
71	0x3e3cec26	0.18449458
72	0x3f7512db	0.95731896
73	0x3d853687	0.06504541
74	0xbf320cf3	-0.6955101
75	0x3ecfddfc	0.40599048
76	0xbf508c7e	-0.81464374
77	0xbf2277d2	-0.6346408
78	0xbf1fd4b3	-0.6243393
79	0xbe3eaff8	-0.18621814
80	0x3f041a9e	0.51603115
81	0xbcffc1ec	-0.031220399
82	0x3eea1a58	0.45723224
83	0x3f03ba43	0.5145609
84	0xbef14b20	-0.47127628
85	0x3e5a74da	0.21333638
86	0xbe76899c	-0.24075931
87	0xbcee6df7	-0.02910517
88	0xbf524de5	-0.8215011
89	0x3eaec5af	0.34135196
90	0xbe382171	-0.17981507
91	0xbea8aff1	-0.32946733
92	0x3e9faefc	0.3118819
93	0xbd7e7351	-0.062121693
94	0x3f414f76	0.7551187
95	0x3da1240b	0.07868203
96	0x3e6cdf90	0.23132157
97	0x3e866d92	0.2625547
98	0xbdc8a1f8	-0.09796518
99	0x3f05c0e9	0.5224748
100	0x3ed2c598	0.41166377
101	0x3f5f1125	0.87135535
102	0xbdf11d55	-0.11773173
103	0xbf01e363	-0.5073759
104	0xbeffe1a2	-0.49976832
105	0xbea975c5	-0.33097664
106	0x3f0eb3de	0.55743206
107	0x3f1085e3	0.56454295
108	0x3f556867	0.8336243
109	0x3ebc7bf1	0.3681331
110	0xbf34c31a	-0.706102
111	0x3e4b808d	0.19873257
112	0x3e45bc43	0.19310097
113	0x3f13a39e	0.57671535
114	0xbe222b37	-0.15836798
115	0x3ea0dd62	0.31418902
116	0x3d8e67a6	0.06953363
117	0xbe19425b	-0.14966719
118	0xbe9446bd	-0.2896022
119	0xbdd66a11	-0.10469449
120	0x3f7d9af3	0.9906456
121	0x3edbdbd1	0.42941144
122	0x3ea62d61	0.32456496
123	0x3d9be9e0	0.076129675
124	0x3f14f46e	0.5818547
125	0x3ec7515f	0.3892927
126	0xbef0b358	-0.47011828
127	0x3f5afde1	0.8554364
128	0xbf3728e8	-0.71546793
129	0xbf304e01	-0.68869025
130	0x3e9a7c14	0.3017279
131	0x3f1d50c0	0.6145134
132	0x3e34a836	0.17642292
133	0x3f531092	0.8244716
134	0x3f280afa	0.6564175
135	0x3f3a4b7c	0.7277143
136	0x3e5e0824	0.21682793
137	0x3f569247	0.8381695
138	0x3e93effa	0.28894025
139	0x3edd8083	0.4326211
140	0x3f08ba9f	0.5340976
141	0x3e3cca83	0.18436627
142	0x3ea9ff9f	0.33202836
143	0x3eabe6e7	0.33574602
144	0x3df146d3	0.11781087
145	0x3ebc70a4	0.36804688
146	0xbe8189cd	-0.25300446
147	0x3f1e7d87	0.6191029
148	0x3eb115bc	0.34586895
149	0x3f304dcb	0.688687
150	0x3f0e034f	0.554738
151	0x3e52d282	0.20588115
152	0x3f0fa969	0.56117874
153	0xbde1be26	-0.11022596
154	0xbea8245b	-0.32840237
155	0xbf5c4654	-0.8604481
156	0xbdeaa495	-0.11457173
157	0xbdabcb0b	-0.08388337
158	0x3e0ec76c	0.13943261
159	0xbd834010	-0.06408703
160	0xbe16123a	-0.1465539
161	0x3d9a887f	0.07545566
162	0x3d809843	0.062790416
163	0x3e021236	0.1270226
164	0xbdcfd72d	-0.101484634
165	0x3d2e2a6a	0.042520918
166	0xbd92382c	-0.0713962
167	0xbd347ab5	-0.044062335
168	0xbe200a1b	-0.15628855
169	0xbdb70df3	-0.089382075
170	0xbd7603a8	-0.06006208
171	0x3dabc209	0.08386619
172	0x3d12c0be	0.035828345
173	0x3d466d1e	0.048443906
174	0x3e487141	0.19574453
175	0x3e43ba40	0.19114017
176	0x3e08f880	0.13376045
177	0x3bcca321	0.0062450324
178	0xbe0aed75	-0.13567145
179	0x3e1cf1ef	0.15326665
180	0xbd48dfb6	-0.049041472
181	0xbc81e283	-0.01585508
182	0xbef4a9ca	-0.4778579
183	0xbe506dbf	-0.20354365
184	0x3e44ea28	0.19229949
185	0x3f5375e4	0.8260176
186	0x3f100215	0.56253177
187	0x3da56319	0.08075542
188	0xbf3f0971	-0.7462378
189	0xbe5cadda	-0.21550694
190	0x3ddaa8b1	0.106767066
191	0x3f601a1c	0.8753984
192	0xbe19ba15	-0.15012391
193	0x3e48cc0e	0.1960909
194	0x3e0ddbbc	0.13853353
195	0xbec0965b	-0.37614712
196	0xbe2d195f	-0.1690421
197	0x3e6b7425	0.22993524
198	0x3fb66c08	1.4251719
199	0x3e9c267a	0.30498105
200	0x3e3dad02	0.18523028
201	0x3ae3ce23	0.0017380159
202	0x3f4ad2a7	0.7922768
203	0x3ed6624e	0.41871876
204	0xbeda98f0	-0.42694807
205	0x3f6eadf8	0.93234205
206	0xbf770870	-0.9649725
207	0xbf4fcdf9	-0.81173664
208	0x3f042254	0.5161488
209	0x3ee3e150	0.44507837
210	0xbe898172	-0.2685657
211	0xbed59ba4	-0.41720307
212	0xbf4bc6c0	-0.79600143
213	0xbd3d6008	-0.04623416
214	0x3f832fcc	1.0248961
215	0x3eaec2e9	0.3413308
216	0x3e8d5fd8	0.27612185
217	0xbf69c561	-0.913168
218	0x3e57fbf2	0.21092203
219	0x3e0f77ca	0.1401054
220	0x3d70b1cc	0.05876331
221	0x3f13ae6d	0.5768803
222	0x3e34690a	0.17618194
223	0xbcec799c	-0.028866582
224	0xbf84f142	-1.0386126
225	0xbee2692b	-0.44220862
226	0xbd1969c8	-0.037454396
227	0x3dfcc91e	0.123430476
228	0xbe6b8012	-0.22998074
229	0xbe876ca2	-0.26450068
230	0x3f08c8b7	0.53431267
231	0xbf823395	-1.0171992
232	0x3f96e5ba	1.1788857
233	0x3f4ca281	0.7993546
234	0xbedb98aa	-0.4288991
235	0xbe5f3d5d	-0.21800752
236	0x3e55f1e7	0.2089306
237	0x3f276352	0.65385926
238	0x3f4e4fae	0.8059033
239	0x3c98338c	0.018579267
240	0xbf774949	-0.965962
241	0xbe824004	-0.25439465
242	0x3da9807d	0.0827646
243	0x3f385886	0.72010076
244	0xbe4e3cac	-0.20140332
245	0x3e718626	0.2358633
246	0xbe4ef4d3	-0.2021058
247	0xbebf0dc7	-0.373152
248	0xbeb2712e	-0.34851974
249	0x3e855604	0.26042187
250	0x3fbdef62	1.4838679
251	0x3e9828db	0.2971867
252	0x3e1b2742	0.15151694
253	0x3e4ca992	0.19986561
254	0x3f21523e	0.63016117
255	0x3ed3aea9	0.41344193

input_layer.bias f4 [50]
0	0xbd142c71	-0.036175195
1	0x3d8e2407	0.069404654
2	0x3eaf637c	0.34255588
3	0x3ddfd0be	0.10928486
4	0x3dc27456	0.094948456
5	0x3f06fe43	0.5273172
6	0xbdac5424	-0.08414486
7	0x3e092b73	0.13395481
8	0x3d758254	0.059938744
9	0x3e228a74	0.15873128
10	0x3d30fb06	0.043208145
11	0xbe2b00a5	-0.16699465
12	0x3c6579ce	0.014006091
13	0x3eb3a84d	0.3508934
14	0x3e02e557	0.12782799
15	0x3dfaa31a	0.122381404
16	0x3a362ad9	0.0006949134
17	0x3ef8a25d	0.48561373
18	0x3dd61dfc	0.10454938
19	0xbe336728	-0.1751982
20	0xbe0f3846	-0.1398631
21	0x3c3dee63	0.01159248
22	0xbcbfdf10	-0.023421794
23	0x3e5a584e	0.21322748
24	0xbd3cd5e4	-0.04610242
25	0x3e3da113	0.18518476
26	0xbe295e09	-0.16539778
27	0xbe3edd72	-0.18639162
28	0x3d2b3595	0.041799147
29	0xbdfe5032	-0.1241764
30	0xbd6a4254	-0.05719216
31	0x3dca3f38	0.09875339
32	0xbe2e32b7	-0.17011534
33	0x3e98b85c	0.29828155
34	0xbdf3c1cd	-0.11902199
35	0x3eb53611	0.35392812
36	0x3e6e1e9f	0.23253869
37	0xbd16a611	-0.036779467
38	0xbe2fc002	-0.17163089
39	0x3ca9dd5f	0.02073544
40	0xbde061fd	-0.1095619
41	0x3e68217b	0.22669022
42	0xbe28f148	-0.16498291
43	0x3d0c3544	0.034230486
44	0xbddd5ae0	-0.10808349
45	0xbe012926	-0.12613353
46	0xbdd17c85	-0.10228828
47	0xbc9f4718	-0.01944308
48	0x3d9e8506	0.07740216
49	0x3e38781c	0.18014568

hidden_layer_list.0.weight f4 [30, 50]
0	0x3d940047	0.072266154
1	0xbeab3359	-0.33437613
2	0x3e0da96e	0.13834164
3	0x3f223039	0.6335483
4	0x3f3449ea	0.70425284
5	0x3e120212	0.14258602
6	0xbdf3d457	-0.11905735
7	0x3f3aee5e	0.7301997
8	0xbec0eaf5	-0.37679258
9	0x3f27b298	0.6550689
10	0xbe9e536d	-0.30923024
11	0x3dca130f	0.098669164
12	0xbd83e1b3	-0.06439533
13	0x3dcff081	0.10153294
14	0xbdb054b1	-0.086099036
15	0xbe1240f3	-0.14282589
16	0x3db6cb8d	0.08925543
17	0x3e94d452	0.29068238
18	0x3f02b810	0.5106211
19	0xbd06d132	-0.032914348
20	0xbdac4a9c	-0.08412668
21	0xbd5705c6	-0.05249574
22	0xbdc50cc7	-0.09621578
23	0x3ec9a071	0.3938022
24	0x3e0b9f64	0.13635021
25	0x3f46a8ed	0.7760151
26	0x3ddac624	0.106823236
27	0x3c6545d3	0.013993698
28	0x3f22ae5c	0.635473
29	0x3dbfc549	0.09363801
30	0x3dabfa6a	0.08397372
31	0xbec1901f	-0.37805268
32	0xbd128131	-0.035767738
33	0x3e7b7229	0.24555267
34	0xbba0cc15	-0.004907141
35	0xbd742e92	-0.059614725
36	0xbdaf73fa	-0.08567043
37	0x3deae339	0.114691205
38	0x3df13469	0.117775746
39	0xbd61b740	-0.0551064
40	0xbcf89e0c	-0.0303488
41	0x3e998586	0.29984683
42	0xbd3d1d13	-0.046170305
43	0x3f37f366	0.7185577
44	0xbe00cca2	-0.12578061
45	0x3d8a3524	0.06748417
46	0xbe02288b	-0.12710778
47	0xbd8a2e4f	-0.06747114
48	0x3f13b884	0.57703424
49	0xbdaeff5c	-0.085448
50	0xbcbc244c	-0.022966526
51	0xbd8464f7	-0.0646457
52	0xbd812f95	-0.06307904
53	0xbdb029e7	-0.08601742
54	0xbdca29fd	-0.0987129
55	0xbdb47241	-0.08810855
56	0x3e0ade2c	0.13561314
57	0xbd88773b	-0.066633664
58	0xbdf0da88	-0.117604315
59	0x3dc7106b	0.09719928
60	0x3d60bad9	0.05486569
61	0x3dc73a1d	0.09727881
62	0xbe100c16	-0.1406711
63	0xbe09d8e5	-0.13461645
64	0xbdcd9084	-0.1003733
65	0xbd98941d	-0.07450125
66	0xb9a347a1	-0.0003114315
67	0x3d7a9086	0.061172985
68	0x3da99160	0.08279681
69	0xbdf91cee	-0.12163721
70	0x3d670434	0.056400493
71	0xbda77efc	-0.08178517
72	0x3d052631	0.032507125
73	0x3d35de87	0.04440167
74	0x3cb96688	0.022631899
75	0x3d4cf220	0.050035596
76	0xbbe7639c	-0.007061435
77	0x3dbf35f9	0.09336466
78	0x3cf19fcb	0.02949514
79	0x3dfdbe3e	0.123898014
80	0x3cfb21ba	0.03065573
81	0xbd9952d6	-0.07486503
82	0x3dba0026	0.090820596
83	0x3bfb0e12	0.0076615894
84	0x3e0bf498	0.13667524
85	0xbc801f38	-0.015639886
86	0x3e0f4855	0.13992436
87	0xbda91353	-0.08255639
88	0x3d919036	0.07107584
89	0xbdd810eb	-0.10550102
90	0x3dc6d764	0.09709051
91	0x3cd24c5b	0.025671175
92	0x3da46f4e	0.08029042
93	0xbdf96c81	-0.121788986
94	0xbe100e36	-0.14067921
95	0x3d8b8e1d	0.06814215
96	0xbd6e50dc	-0.058182582
97	0x3d65699b	0.056008916
98	0xbdabd5b3	-0.08390369
99	0xbd331205	-0.043718357
100	0x3a26160d	0.0006335683
101	0x3dae6ad8	0.085164726
102	0x3da38f3e	0.07986306
103	0xbc4ef936	-0.012632659
104	0xbd23d840	-0.040001154
105	0xbb20bbf6	-0.0024526096
106	0x3d9546c6	0.072888896
107	0xbdf57b87	-0.119864516
108	0xbd310053	-0.0432132
109	0xbe0b9a02	-0.13632968
110	0x3ca73a67	0.02041359
111	0xbc8908aa	-0.016727764
112	0x3da41310	0.080114484
113	0x3de760ab	0.11297735
114	0xbdf7a4e4	-0.12091997
115	0xbd802e02	-0.06258775
116	0xbcba3e69	-0.022734838
117	0xbab8d797	-0.0014102337
118	0xbd043a1b	-0.032281976
119	0xbdb61ab0	-0.08891809
120	0xbd5fd380	-0.05464506
121	0xbb6eaf14	-0.0036420273
122	0x3de8ea23	0.11372783
123	0xbd13a070	-0.036041677
124	0x3dbf4522	0.09339358
125	0xbdea1f8a	-0.11431797
126	0x3bcf3bd2	0.00632427
127	0xbde20511	-0.110361226
128	0xbe07e3d7	-0.13270508
129	0x3c659fd7	0.01401516
130	0xbd849e7d	-0.06475542
131	0x3dd53afc	0.10411641
132	0x3de4c49f	0.11170315
133	0xbe102366	-0.14076003
134	0xbc2179f6	-0.009855738
135	0xbcc5ebab	-0.024160227
136	0xbda51526	-0.08060674
137	0xbdca3427	-0.098732285
138	0xbd752181	-0.059846405
139	0x3d7fbf49	0.062438283
140	0x3d09ba65	0.033625025
141	0x3dae50f9	0.08511538
142	0xbc0a3057	-0.008434377
143	0x3d966d7d	0.07345102
144	0x3ce00872	0.027347777
145	0xbcfca018	-0.030838057
146	0xbc0774cd	-0.008267594
147	0xbe03b56f	-0.1286218
148	0xbb54d885	-0.0032477689
149	0xbd3e4bee	-0.04645913
150	0xbd41da62	-0.047327407
151	0xbd98e3e9	-0.074653454
152	0xbd47cff4	-0.048782304
153	0xbdfa689e	-0.122269854
154	0xbc1cb063	-0.009563538
155	0xbcc16a7d	-0.023610348
156	0xbd189044	-0.037246957
157	0x3dd6d6a4	0.10490158
158	0x3d9dcf82	0.077055946
159	0x3cb4dc89	0.022077816
160	0xbd8f3ffd	-0.06994627
161	0x3c93c3eb	0.018037757
162	0xbdc74806	-0.09730534
163	0x3da53a58	0.08067769
164	0x3de9f20c	0.1142312
165	0xbd1fa477	-0.038975205
166	0x3ddf5d80	0.109065056
167	0x3deb3c20	0.11486077
168	0xbcd7eec7	-0.026358975
169	0xbd571856	-0.052513443
170	0x3be9e026	0.0071373163
171	0x3cbf7455	0.023370901
172	0xbe060d3a	-0.13090983
173	0xbcda9a63	-0.026684945
174	0xbd517134	-0.05113335
175	0x3d9cb035	0.07650796
176	0xbb850668	-0.0040596016
177	0x3dbe8ef4	0.0930461
178	0x3ddd0a70	0.107930064
179	0xbd3589b6	-0.044320785
180	0x3cf96078	0.030441508
181	0xbcf562dd	-0.029954368
182	0xbd7c7140	-0.06163144
183	0xbdc53fdd	-0.096313216
184	0x3b56772b	0.0032724838
185	0x3ccda8c2	0.025104884
186	0xbd2f0b90	-0.042735636
187	0x3cc4be3a	0.024016488
188	0x3db4ff21	0.088377245
189	0x3d717bce	0.05895596
190	0x3d6edf13	0.05831821
191	0x3cb34160	0.02188176
192	0xbddea51b	-0.10871335
193	0xbdd3cf6e	-0.103422984
194	0xbdd6c8b7	-0.10487502
195	0x3dbe53cc	0.09293327
196	0xbdff190b	-0.124559484
197	0xbdd83b7c	-0.10558221
198	0x3d9a2860	0.07527232
199	0x3d869f28	0.065733254
200	0xbe08e592	-0.13368824
201	0x3da75a8b	0.081715666
202	0xbd042cb9	-0.032269213
203	0x3cf9996d	0.030468667
204	0xbdb56f54	-0.08859125
205	0xbcafdd23	-0.02146775
206	0x3d00bea3	0.031431805
207	0x3ddcd720	0.10783219
208	0x3dafa1b7	0.085757665
209	0xbd9d7ecc	-0.076902
210	0xbdbdfad3	-0.092763565
211	0xbc0d003f	-0.008606016
212	0x3d35cbea	0.04438392
213	0x3d9ecde3	0.077541135
214	0xbe104f1e	-0.14092681
215	0xbc3d582c	-0.011556666
216	0x3ba3dff1	0.005001061
217	0xbd874354	-0.06604639
218	0x3de47155	0.11154429
219	0xbd19c3c1	-0.0375402
220	0xbe0a1113	-0.13483076
221	0xbdacee9f	-0.08443951
222	0x3b949541	0.004534394
223	0xbdd788cf	-0.10524141
224	0x3d044f5a	0.032302238
225	0x3e0ce07c	0.13757509
226	0x3bbdb461	0.005789325
227	0xbd0eb41c	-0.034839734
228	0x3e086e7e	0.133234
229	0x3dd5d116	0.104402706
230	0x3dc07712	0.09397711
231	0x3c2fc29f	0.010727554
232	0x3bd3da87	0.0064652595
233	0xbde09ddb	-0.109676085
234	0x3c6bdc6b	0.014395813
235	0x3e0cdaf9	0.13755406
236	0x3bf4fab8	0.007476177
237	0xbe013b2f	-0.12620233
238	0x3d9ef7e3	0.077621244
239	0x3e01f752	0.12692001
240	0x3df2cf66	0.11855964
241	0x3bda90f0	0.00667011
242	0x3cd9a4df	0.026567874
243	0x3cbb7c0b	0.022886297
244	0xbd6d6967	-0.057961848
245	0xbca90a95	-0.020634929
246	0x3dec4867	0.11537247
247	0x3c6c6465	0.014428233
248	0x3e087c8b	0.1332876
249	0xbdc05599	-0.093913265
250	0xbca9509f	-0.020668326
251	0xbeff1c54	-0.498263
252	0x3cc4bbab	0.024015268
253	0x3f274a69	0.65347916
254	0x3ec8996d	0.39179555
255	0x3dd519a8	0.10405284

hidden_layer_list.0.bias f4 [30]
0	0x3b897447	0.0041947695
1	0xbd3b621c	-0.04574786
2	0xbde807e8	-0.11329633
3	0xbe1cc0bc	-0.15307897
4	0xbd9cf4c5	-0.076638736
5	0x3dc74217	0.097294025
6	0x3e863798	0.2621429
7	0x3e6ec53c	0.23317426
8	0x3e0c0e7b	0.13677399
9	0x3e94a0d0	0.2902894
10	0xbbc39f49	-0.005969916
11	0x3e2334dd	0.15938134
12	0xbdfcaed7	-0.123380356
13	0xbd879f31	-0.0662216
14	0xbe08d2f7	-0.13361727
15	0xbdc796d9	-0.09745569
16	0xbd8e963f	-0.06962251
17	0xbcc2cd6f	-0.023779599
18	0x3e606d67	0.21916734
19	0x3dccacae	0.099938735
20	0x3e677e67	0.22606812
21	0x3dc4ecd1	0.09615482
22	0x3e524506	0.20534143
23	0xbd9b49e6	-0.075824544
24	0xbe0f68a2	-0.14004758
25	0x3c531df1	0.012885557
26	0x3e91ec40	0.28500557
27	0xbb47bcd7	-0.0030477548
28	0x3d9a6cb8	0.07540268
29	0x3e01d34b	0.12678258

output_layer.weight f4 [4, 30]
0	0x3e3b1ed2	0.18273476
1	0xbe30ac28	-0.17253172
2	0xbd9a7ddf	-0.07543539
3	0xbbb822d6	-0.005619387
4	0x3e33fedb	0.17577688
5	0x3eb8a36f	0.3606219
6	0xbe9ac22b	-0.30226263
7	0xbf2d2c8f	-0.67646116
8	0x3e8410aa	0.25793964
9	0xbd14e141	-0.03634763
10	0xbdd9b6de	-0.10630582
11	0xbdaf346e	-0.08554922
12	0x3dd965bf	0.1061511
13	0x3de835bb	0.11338373
14	0x3e0c2f20	0.13689852
15	0xbd17d83c	-0.03707145
16	0xbd8a90f1	-0.06765927
17	0xbd71f160	-0.059068084
18	0x3e4eae06	0.20183572
19	0xbe400551	-0.18752028
20	0x3e7ff9be	0.24997613
21	0xba635cc5	-0.00086731865
22	0xbe607989	-0.21921362
23	0x3e1d8774	0.15383703
24	0xbd85760b	-0.065166555
25	0xbd9a3eb9	-0.07531495
26	0xbec0a607	-0.3762667
27	0x3e2f3c0e	0.17112753
28	0x3eaa5a8c	0.33272207
29	0xbea79aef	-0.32735392
30	0x3e7f8db4	0.24956399
31	0xbd7f5c20	-0.062343717
32	0x3cd38c7a	0.02582382
33	0xbdaa1455	-0.08304659
34	0x3d3ceecd	0.046126176
35	0x3de59942	0.11210872
36	0xbfa52965	-1.2903258
37	0xbf64df53	-0.89403266
38	0x3ec22841	0.37921336
39	0xbf84501d	-1.0336949
40	0xbe041032	-0.12896803
41	0x3ea40ba7	0.3204014
42	0x3e35b6be	0.17745492
43	0xbe349890	-0.17636323
44	0x3e126f1e	0.143002
45	0x3e11c196	0.14234003
46	0x3e449d11	0.19200541
47	0xbfd6198f	-1.672655
48	0x3e983b97	0.29732963
49	0x3ea5e5b9	0.32401827
50	0x3e42adc7	0.19011603
51	0x3e496e8e	0.1967108
52	0xbfba66c7	-1.4562615
53	0xbd8e15f2	-0.069377795
54	0x3d1bc4e5	0.03802957
55	0x3da06fc9	0.07833821
56	0xbfaab8a0	-1.3337593
57	0x3f0f5c78	0.5600047
58	0x3eb13f92	0.34618813
59	0x3e951acb	0.29122004
60	0xbe12e11d	-0.14343686
61	0xbd5a545f	-0.05330312
62	0x3df96406	0.12177281
63	0x3d9be526	0.07612066
64	0xbcafff3f	-0.021484016
65	0xbe9de2db	-0.3083714
66	0x3d99bfbd	0.07507274
67	0x3ecd5695	0.4010512
68	0xbe5a3a4c	-0.21311301
69	0x3e1a2d04	0.15056235
70	0xbcf91a0f	-0.030407934
71	0xbf2805f0	-0.6563406
72	0x3e0155b2	0.12630346
73	0xbd0a9fb8	-0.033843726
74	0xbe27254e	-0.16322824
75	0xbe2aa5b0	-0.16664767
76	0xbf16c11a	-0.588884
77	0xbe31f158	-0.17377222
78	0x3d324b55	0.043528873
79	0x3ea30a33	0.3184372
80	0xbd0e684d	-0.034767438
81	0xbe3bdcd3	-0.18345957
82	0x3dc1cf52	0.09463371
83	0xbdbf3c26	-0.09337644
84	0x3e12ca52	0.14334992
85	0xbc0889bc	-0.00833362
86	0x3e21d77d	0.15804859
87	0xbf4af588	-0.792809
88	0xbf6b2de5	-0.91866904
89	0x3eb982c8	0.3623259
90	0xbf8a01ed	-1.0781838
91	0xbcec1f41	-0.028823497
92	0x3e110810	0.14163232
93	0xbe0224f3	-0.12709408
94	0x3c9e014f	0.019287733
95	0xbf853015	-1.0405298
96	0x3ed0c02d	0.40771618
97	0x3e6535c1	0.22383787
98	0xbf63bf13	-0.8896343
99	0x3ed7a506	0.4211809
100	0xbdf96998	-0.121783435
101	0xbe9ab8fd	-0.3021926
102	0xbcc54b0c	-0.024083637
103	0xbe12216d	-0.14270563
104	0xbe094edd	-0.1340899
105	0xbd7271d2	-0.05919058
106	0xbe8ad4b1	-0.27115396
107	0x3ecb26d1	0.39678052
108	0xbf31b0c4	-0.6941035
109	0xbf63c995	-0.88979465
110	0xbf79c32b	-0.9756343
111	0xbf943f74	-1.1581864
112	0x3f13284b	0.5748336
113	0x3e2a381b	0.16622965
114	0xbe13ab9c	-0.14420933
115	0xbe06a1f2	-0.13147715
116	0x3f27822f	0.6543302
117	0xbeb8db28	-0.36104703
118	0xbeb09431	-0.3448806
119	0xbf3943ae	-0.72368896

output_layer.bias f4 [4]
0	0x3cd4e468	0.025987819
1	0xbd03b480	-0.03215456
2	0x3e6defe9	0.2323605
3	0x3d9dc2ea	0.077031925
