K-Digital Training/김소현 강사님/Pytorch/숙제/language_model/best_model_epoch_58.pth (torch, 14536 bytes, 6 tensors)

input_layer.weight f4 [50, 26]
00000000: 0df4 ce3d 1a47 b1bd 32ba 1bbd 2485 bc3d
00000010: e60f 3dbe bbdf f03d e741 25bd ba55 cc3d
00000020: a657 df3c 7cb7 c4bc 3dcd 5e3d e182 1e3c
00000030: 40b1 923d 9485 9cbd 9c44 6abc eca2 90bc
00000040: 53dd e83c 6260 4dba 7f8d 2f3e f8f9 793d
00000050: 4f93 95bd 1d94 f2bd eea4 06bd 073f adbd
00000060: f2b4 80bd 01da 193c 9c75 0a3f 1ddd c33e
00000070: c414 1abf 1799 6dbd 8429 b5be 7582 1fbe
00000080: 9b58 413f bae9 9cbe 0ff6 2fbd 95e8 8ebe
00000090: 1b08 1a3f dfa6 a9bd 53e3 9b3e 4e06 4e3e
000000a0: 3c95 323e 0cd4 863d 090c 16bf 4b67 3dbe
000000b0: 6657 12be 0336 e3bc d04e 36be ab56 cfbe
000000c0: e93c 2dbd eb8d 33bf 888d 9a3e 5df9 c83e
000000d0: 3ffc 613e a9e3 2b3e 6423 733e b48d 423f
000000e0: ffa8 f13e 1097 73bd 04ec 44be b6d3 cabd
000000f0: 7881 fe3d fccf 6c3f 5d09 f13e c9ad c33e
00000100: 8173 303e 19eb f93c 374d 25be 9277 a53e
00000110: b17d ac3e 35fc 9c3e 8d87 a43e ad31 0f3e
00000120: 16e4 2e3f b3b7 4b3e 64c9 fbbe 7357 c13e
00000130: 7c24 06bf 6a0d 8fbe 2524 06bf 6eec 86bd
00000140: 661b a03e 3a91 5ebd 37e1 a83e d497 cf3e
00000150: afcd 9ebe 2044 593e 8153 70be 78b7 e13c
00000160: c937 0bbf 9101 583e 5254 fabd 2a7a 9dbe
00000170: 5a41 803e f1d5 96bd 1320 983e 45f6 883d
00000180: 5130 2c3e cc28 7f3e 176d 1ebe 935b b93e
00000190: 9bef f53e 9b26 f03e 5236 093c 95f2 c1be
000001a0: 8abb ecbe 8ff8 8ebe 637b 103f a464 db3e
000001b0: 4587 313f 3e93 e53e ebdb 09bf cf8a be3e
000001c0: 0b8b 2d3e e102 a53e 62bf 85be 8b8d 813e
000001d0: b739 053d 52b5 e6bd 2034 0abe d94e 2ebe
000001e0: 0668 103f 55c8 c13e be0c a33e b631 df3d
000001f0: 9798 b23e ceb3 af3e 6bb7 20be 9f56 133f
00000200: 4e70 cabe fcdf eabe df67 5c3e 9272 b23e
00000210: b561 8d3e c3bd 1f3f 91d1 073f 08b4 cc3e
00000220: d9ff 833e e56f b13e 6852 503e 4326 563e
00000230: 2087 563e 1d4e 913e 507a 7a3e 2fe7 b93e
00000240: dc40 133e 9a36 a43e 6583 803e a48b eb3e
00000250: fbbe c43e f0ce ee3e 820b ed3e 14f9 ae3e
00000260: 8b81 d13d 2f29 1f3e 6a80 9abe 89e5 a8be
00000270: 95a4 eabd 0bcb abbd 6cc7 0e3e 1040 83bd
00000280: 3a12 16be 7f88 9a3d 4398 803d 3612 023e
00000290: 2dd7 cfbd 6a2a 2e3d 2c38 92bd b57a 34bd
000002a0: 1b0a 20be f30d b7bd a803 76bd 09c2 ab3d
000002b0: bec0 123d 1e6d 463d 4171 483e 40ba 433e
000002c0: 80f8 083e 21a3 cc3b 75ed 0abe eff1 1c3e
000002d0: b6df 48bd 83e2 81bc aa57 e5be 7807 0bbe
000002e0: c014 5b3e a1d1 2f3f 448f de3e 0be1 563e
000002f0: 7e72 14bf c26a e73c f901 a03d dde2 1a3f
00000300: 661e 89be 90c4 023e 6c95 b63d 8158 b2be
00000310: ed71 703b 2c0b 1c3e 3c45 7c3f d607 833e
00000320: 7980 333e d49e 633d 09a2 093f f80e c03e
00000330: a800 43bd 7d7d 293f 6147 1ebf 8898 1cbf
00000340: 7d2f eb3e 39d3 a93e bf5b 8abe 8ac9 9cbe
00000350: 65a9 2ebf ad94 38be 7bd8 573f f728 973d
00000360: 7dee 923e d630 2bbf 332e 833e 8048 5a3e
00000370: 8b8c ac3d 5c21 0a3f 4c8c 333c ea3c 023d
00000380: 018e 12bf 6773 d4be bf2b f3bc b395 5a3d
00000390: 2ee4 d23b b875 55be 6978 153e f491 3abf
000003a0: 75a3 543f 5910 203f a7c2 cabe 12b7 17be
000003b0: 2f71 6a3e 4d7d 003f 826d 2a3f 3e3e 173e
000003c0: 42c7 47bf 1789 78bb ac1c 513d d284 da3e
000003d0: c3af a9be 2312 263e 6ed6 82be 8d4a afbe
000003e0: b72e 2abe ed0d 353e a6b6 823f 841e 783e
000003f0: bd93 0f3e 0fa6 813e 823a b63e 5752 bb3e
0.10105143 -0.0865614 -0.038019367 0.09205082 -0.18463096 0.11761423 -0.040346052 0.099772885
0.027263474 -0.024013273 0.05439495 0.009674759 0.07162714 -0.076426655 -0.014298584 -0.017655812
0.028425848 -0.00078344916 0.1714382 0.061029404 -0.073034875 -0.118446566 -0.032872133 -0.08459287
-0.062845126 0.009390355 0.5408571 0.38254634 -0.60187936 -0.058007326 -0.35383236 -0.15577109
0.75525826 -0.3064707 -0.04295927 -0.2791182 0.6016862 -0.08283781 0.30446872 0.20119593
0.17439741 0.065834135 -0.58612114 -0.18496434 -0.14291152 -0.027735716 -0.17803502 -0.4049581
-0.042294417 -0.70138425 0.30186105 0.3925275 0.2206888 0.16786064 0.23743969 0.7599747
0.47199246 -0.059470236 -0.19230658 -0.09903662 0.12427038 0.9250486 0.47077456 0.38218525
0.17231561 0.030507611 -0.16142736 0.32317787 0.33689645 0.3066117 0.32134667 0.13983794
0.6831678 0.19894294 -0.49177086 0.3776203 -0.5239942 -0.27939922 -0.523989 -0.06588064
0.31270903 -0.054337718 0.32984325 0.40545523 -0.310163 0.21217394 -0.23469354 0.027553305
-0.54381996 0.21094348 -0.12223114 -0.30757266 0.2504986 -0.07365025 0.2971197 0.06687597
0.16815306 0.24917907 -0.15471302 0.36202678 0.48034367 0.46904454 0.008374767 -0.37880388
-0.4623683 -0.2792401 0.56438273 0.4285022 0.6934703 0.448389 -0.53851193 0.37215278
0.16947572 0.3222876 -0.26122576 0.253033 0.032525744 -0.11265053 -0.13496447 -0.17022265
0.5640873 0.37848154 0.3184566 0.108981535 0.34882042 0.34316868 -0.15694968 0.5755405
-0.39538807 -0.45874012 0.21523999 0.34853035 0.27613607 0.6239893 0.5305415 0.39981103
0.25781134 0.3465568 0.20343935 0.20913033 0.20949984 0.28379908 0.24460721 0.36309192
0.1438021 0.32072908 0.25100246 0.46004975 0.38426957 0.46642256 0.46297842 0.34174407
0.102297865 0.15543054 -0.30176097 -0.3298762 -0.11457173 -0.08388337 0.13943261 -0.06408703
-0.1465539 0.07545566 0.062790416 0.1270226 -0.101484634 0.042520918 -0.0713962 -0.044062335
-0.15628855 -0.089382075 -0.06006208 0.08386619 0.035828345 0.048443906 0.19574453 0.19114017
0.13376045 0.0062450324 -0.13567145 0.15326665 -0.049041472 -0.01585508 -0.44793445 -0.13577068
0.21394634 0.68679243 0.43468678 0.20984285 -0.579872 0.028249148 0.07812876 0.60502416
-0.26781005 0.12770295 0.08915219 -0.34833148 0.0036688999 0.15238637 0.98543143 0.25591916
0.17529477 0.055571392 0.5376287 0.3751142 -0.047608048 0.66207105 -0.61827666 -0.61170244
0.45934668 0.33168963 -0.27023122 -0.30622512 -0.68227226 -0.18025465 0.843147 0.0738086
0.28697577 -0.6687139 0.25621185 0.21316719 0.08425244 0.5395715 0.010958742 0.031796373
-0.5724793 -0.41494295 -0.029683946 0.05336542 0.0064358925 -0.20845687 0.14596714 -0.72878957
0.83061916 0.62524945 -0.39601633 -0.1481593 0.22894739 0.50191194 0.66573346 0.14769837
-0.7803842 -0.0037923509 0.051052734 0.4267946 -0.33141908 0.16217856 -0.25554222 -0.34236565
-0.16619383 0.17681094 1.021199 0.24230391 0.14021201 0.25322005 0.35591513 0.36586258

input_layer.bias f4 [50]
00000000: 712c 14bd fc5a 563d 9c06 953e e96a cb3d
00000010: e8c9 bd3d 8b5a da3e 2454 acbd 76cb 083e
00000020: e864 353d f75b 203e d223 013d a500 2bbe
00000030: ce79 653c 07ee a33e d817 e83d 03c8 d33d
00000040: d92a 363a 89d2 d83e a069 af3d 2867 33be
00000050: 4638 0fbe 63ee 3d3c 10df bfbc b454 503e
00000060: e4d5 3cbd a846 353e 095e 29be 72dd 3ebe
00000070: b1ca 2f3d 3250 febd 5442 6abd 3840 ac3d
00000080: b732 2ebe a88b 813e cdc1 f3bd 6557 a23e
00000090: 695d 513e 11a6 16bd 02c0 2fbe 5fdd a93c
000000a0: fd61 e0bd 20fc 583e 48f1 28be d3f4 0e3d
000000b0: e05a ddbd 2629 01be 857c d1bd 1847 9fbc
000000c0: a363 a13d 291e 213e
-0.036175195 0.052332863 0.29106605 0.09932501 0.09267026 0.42647204 -0.08414486 0.13358864
0.044285685 0.15660082 0.0315283 -0.16699465 0.014006091 0.32017538 0.11332673 0.103408836
0.0006949134 0.42348126 0.08565068 -0.1751982 -0.1398631 0.01159248 -0.023421794 0.20344812
-0.04610242 0.17702734 -0.16539778 -0.18639162 0.04291791 -0.1241764 -0.05719216 0.08410686
-0.17011534 0.25301862 -0.11902199 0.31707302 0.2044579 -0.036779467 -0.17163089 0.02073544
-0.1095619 0.21189928 -0.16498291 0.03490145 -0.10808349 -0.12613353 -0.10228828 -0.01944308
0.07880332 0.15734161

hidden_layer_list.0.weight f4 [30, 50]
00000000: 4700 943d d74d 7cbe d1fc 6a3d 2759 b33e
00000010: ea92 f23e b31d c83d 57d4 f3bd 32f4 ef3e
00000020: a2b5 6fbe 94ae ca3e b2ee 39be 0f13 ca3d
00000030: b3e1 83bd 0a03 ef3d 7d14 953c b2ed cbbd
00000040: 8dcb b63d 71dd 653e 6de0 ce3e 32d1 06bd
00000050: 9c4a acbd c605 57bd c70c c5bd 5e65 7b3e
00000060: 649f 0b3e b9a4 063f 24c6 da3d d345 653c
00000070: a2ed c03e 49c5 bf3d 6afa ab3d 2b56 7abe
00000080: 3181 12bd 0b26 5d3e 15cc a0bb f6e1 66bd
00000090: c76b 87bd 39e3 ea3d 6934 f13d 40b7 61bd
000000a0: 0c9e f8bc b202 2c3e 131d 3dbd c44b f53e
000000b0: a2cc 00be 2435 8a3d 8b28 02be 4f2e 8abd
000000c0: aec8 a83e 8f4a 34bd 4c24 bcbc f764 84bd
000000d0: 952f 81bd e729 b0bd fd29 cabd 4172 b4bd
000000e0: 2cde 0a3e 3b77 88bd 88da f0bd 6b10 c73d
000000f0: d9ba 603d 1d3a c73d 160c 10be e5d8 09be
00000100: 8490 cdbd 1d94 98bd a147 a3b9 8690 7a3d
00000110: 6091 a93d ee1c f9bd 3404 673d fc7e a7bd
00000120: 3126 053d 87de 353d 8866 b93c 20f2 4c3d
00000130: 9c63 e7bb f935 bf3d cb9f f13c 3ebe fd3d
00000140: ba21 fb3c d652 99bd 2600 ba3d 120e fb3b
00000150: 98f4 0b3e 381f 80bc 5548 0f3e 5313 a9bd
00000160: 3690 913d eb10 d8bd 64d7 c63d 5b4c d23c
00000170: 4e6f a43d 816c f9bd 360e 10be 1d8e 8b3d
00000180: dc50 6ebd 9b69 653d b3d5 abbd 0512 33bd
00000190: 0d16 263a d86a ae3d 3e8f a33d 36f9 4ebc
000001a0: 40d8 23bd f6bb 20bb c646 953d 877b f5bd
000001b0: 5300 31bd 029a 0bbe 673a a73c aa08 89bc
000001c0: 1013 a43d ab60 e73d e4a4 f7bd 022e 80bd
000001d0: 693e babc 97d7 b8ba 1b3a 04bd b01a b6bd
000001e0: 80d3 5fbd 14af 6ebb 23ea e83d 70a0 13bd
000001f0: 2245 bf3d 8a1f eabd d23b cf3b 1105 e2bd
00000200: d7e3 07be d79f 653c 7d9e 84bd fc3a d53d
00000210: 9fc4 e43d 6623 10be f679 21bc abeb c5bc
00000220: 2615 a5bd 2734 cabd 8121 75bd 49bf 7f3d
00000230: 65ba 093d f950 ae3d 5730 0abc 7d6d 963d
00000240: 7208 e03c 18a0 fcbc cd74 07bc 6fb5 03be
00000250: 85d8 54bb ee4b 3ebd 62da 41bd e9e3 98bd
00000260: f4cf 47bd 9e68 fabd 63b0 1cbc 7d6a c1bc
00000270: 4490 18bd a4d6 d63d 82cf 9d3d 89dc b43c
00000280: fd3f 8fbd ebc3 933c 0648 c7bd 583a a53d
00000290: 0cf2 e93d 77a4 1fbd 805d df3d 203c eb3d
000002a0: c7ee d7bc 5618 57bd 26e0 e93b 5574 bf3c
000002b0: 3a0d 06be 639a dabc 3471 51bd 35b0 9c3d
000002c0: 6806 85bb f48e be3d 700a dd3d b689 35bd
000002d0: 7860 f93c dd62 f5bc 4071 7cbd dd3f c5bd
000002e0: 2b77 563b c2a8 cd3c 900b 2fbd 3abe c43c
000002f0: 21ff b43d ce7b 713d 13df 6e3d 6041 b33c
00000300: 1ba5 debd 6ecf d3bd b7c8 d6bd cc53 be3d
00000310: 0b19 ffbd 7c3b d8bd 6028 9a3d 289f 863d
00000320: 92e5 08be 8b5a a73d b92c 04bd 6d99 f93c
00000330: 546f b5bd 23dd afbc a3be 003d 20d7 dc3d
00000340: b7a1 af3d cc7e 9dbd d3fa bdbd 3f00 0dbc
00000350: eacb 353d e3cd 9e3d 1e4f 10be 2c58 3dbc
00000360: f1df a33b 5443 87bd 5571 e43d c1c3 19bd
00000370: 1311 0abe 9fee acbd 4195 943b cf88 d7bd
00000380: 5a4f 043d 7ce0 0c3e 61b4 bd3b 1cb4 0ebd
00000390: 7e6e 083e 16d1 d53d 1277 c03d 9fc2 2f3c
000003a0: 87da d33b db9d e0bd 6bdc 6b3c f9da 0c3e
000003b0: b8fa f43b 2f3b 01be e3f7 9e3d 52f7 013e
000003c0: 66cf f23d f090 da3b dfa4 d93c 0b7c bb3c
000003d0: 6769 6dbd 950a a9bc 6748 ec3d 6564 6c3c
000003e0: 8b7c 083e 9955 c0bd 9f50 a9bc 139d d3be
000003f0: 0e9c 8b3c 730e 033f 1dbc ac3e dc78 aa3d
0.072266154 -0.24639069 0.05737001 0.35028955 0.47377712 0.0977129 -0.11905735 0.46865994
-0.23409131 0.39586318 -0.18157461 0.098669164 -0.06439533 0.116705015 0.018198246 -0.09957446
0.08925543 0.22447754 0.40405598 -0.032914348 -0.08412668 -0.05249574 -0.09621578 0.24550387
0.13635021 0.52595097 0.106823236 0.013993698 0.376813 0.09363801 0.08397372 -0.24446933
-0.035767738 0.21596543 -0.004907141 -0.056367837 -0.06612354 0.114691205 0.117775746 -0.0551064
-0.0303488 0.16797903 -0.046170305 0.47909367 -0.12578061 0.06748417 -0.12710778 -0.06747114
0.32965606 -0.044016417 -0.022966526 -0.0646457 -0.06307904 -0.08601742 -0.0987129 -0.08810855
0.13561314 -0.066633664 -0.117604315 0.09719928 0.05486569 0.09727881 -0.1406711 -0.13461645
-0.1003733 -0.07450125 -0.0003114315 0.061172985 0.08279681 -0.12163721 0.056400493 -0.08178517
0.032507125 0.04440167 0.022631899 0.050035596 -0.007061435 0.09336466 0.02949514 0.123898014
0.03065573 -0.07486503 0.090820596 0.0076615894 0.13667524 -0.015639886 0.13992436 -0.08255639
0.07107584 -0.10550102 0.09709051 0.025671175 0.08029042 -0.121788986 -0.14067921 0.06814215
-0.058182582 0.056008916 -0.08390369 -0.043718357 0.0006335683 0.085164726 0.07986306 -0.012632659
-0.040001154 -0.0024526096 0.072888896 -0.119864516 -0.0432132 -0.13632968 0.02041359 -0.016727764
0.080114484 0.11297735 -0.12091997 -0.06258775 -0.022734838 -0.0014102337 -0.032281976 -0.08891809
-0.05464506 -0.0036420273 0.11372783 -0.036041677 0.09339358 -0.11431797 0.00632427 -0.110361226
-0.13270508 0.01401516 -0.06475542 0.10411641 0.11170315 -0.14076003 -0.009855738 -0.024160227
-0.08060674 -0.098732285 -0.059846405 0.062438283 0.033625025 0.08511538 -0.008434377 0.07345102
0.027347777 -0.030838057 -0.008267594 -0.1286218 -0.0032477689 -0.04645913 -0.047327407 -0.074653454
-0.048782304 -0.122269854 -0.009563538 -0.023610348 -0.037246957 0.10490158 0.077055946 0.022077816
-0.06994627 0.018037757 -0.09730534 0.08067769 0.1142312 -0.038975205 0.109065056 0.11486077
-0.026358975 -0.052513443 0.0071373163 0.023370901 -0.13090983 -0.026684945 -0.05113335 0.07650796
-0.0040596016 0.0930461 0.107930064 -0.044320785 0.030441508 -0.029954368 -0.06163144 -0.096313216
0.0032724838 0.025104884 -0.042735636 0.024016488 0.088377245 0.05895596 0.05831821 0.02188176
-0.10871335 -0.103422984 -0.10487502 0.09293327 -0.124559484 -0.10558221 0.07527232 0.065733254
-0.13368824 0.081715666 -0.032269213 0.030468667 -0.08859125 -0.02146775 0.031431805 0.10783219
0.085757665 -0.076902 -0.092763565 -0.008606016 0.04438392 0.077541135 -0.14092681 -0.011556666
0.005001061 -0.06604639 0.11154429 -0.0375402 -0.13483076 -0.08443951 0.004534394 -0.10524141
0.032302238 0.13757509 0.005789325 -0.034839734 0.133234 0.104402706 0.09397711 0.010727554
0.0064652595 -0.109676085 0.014395813 0.13755406 0.007476177 -0.12620233 0.077621244 0.12692001
0.11855964 0.00667011 0.026567874 0.022886297 -0.057961848 -0.020634929 0.11537247 0.014428233
0.1332876 -0.093913265 -0.020668326 -0.41330776 0.017042186 0.5119392 0.3373727 0.08323833

hidden_layer_list.0.bias f4 [30]
00000000: 68c6 56bc 1c62 3bbd e807 e8bd bcc0 1cbe
00000010: c5f4 9cbd a241 bd3d dc81 6a3e 9765 613e
00000020: 6648 f03d fb13 843e 499f c3bb 06ff 063e
00000030: d7ae fcbd 319f 87bd b02b 05be d996 c7bd
00000040: 8781 d7bd 9ce8 34bd 319d 4e3e 1ae9 ae3d
00000050: f8e5 5c3e cb6b a63d 9a1e 393e e649 9bbd
00000060: a268 0fbe f11d 533c 1904 813e 7754 b4bc
00000070: d1f2 7a3d 3a2c dc3d
-0.013108827 -0.04574786 -0.11329633 -0.15307897 -0.076638736 0.09241034 0.229011 0.2201141
0.11732559 0.25796494 -0.005969916 0.13183221 -0.123380356 -0.0662216 -0.13004947 -0.09745569
-0.10522752 -0.044167146 0.20177151 0.08540554 0.21572101 0.081260286 0.1807808 -0.075824544
-0.14004758 0.012885557 0.2519844 -0.022012932 0.061266724 0.10750623

output_layer.weight f4 [4, 30]
00000000: 4190 4d3e 28ac 30be df7d 9abd d622 b8bb
00000010: dbfe 333e bdde b93e 2922 d5be 81f8 29bf
00000020: 5ce7 8e3e 0d77 2ebe deb6 d9bd 087a 19bd
00000030: bf65 d93d bb35 e83d 6d9b 0c3e 3cd8 17bd
00000040: 4bd6 60bd 132d 8abe bf3a 683e 6030 0dbe
00000050: a949 873e 9c7d c33c 1c27 b9be 7487 1d3e
00000060: 0b76 85bd b93e 9abd 273d f6be 7061 553e
00000070: e952 a83e ddab 7dbe e4c5 3a3e 205c 7fbd
00000080: 7a8c d33c 5514 aabd cdee 3c3d 7996 893d
00000090: 419b 5dbf 74b1 40bf 749e a03e 6fef 18bf
000000a0: 3210 04be b687 4c3e beb6 353e 9098 34be
000000b0: 276f 123e 96c1 113e a669 243c 85df 94bf
000000c0: 8d5f 703e 133f 813e b90d 0f3e 038c 0c3e
000000d0: 5588 86bf f215 8ebd e5c4 1b3d c96f a03d
000000e0: 3509 6ebf 3764 e63e 4958 883e ed9e 473e
000000f0: b9e6 05be 5f54 5abd 0664 f93d 26e5 9b3d
00000100: 3fff afbc 6455 8dbe c3da f03c de20 ad3e
00000110: 00ca 4abe 2bd9 df3d 0f1a f9bc 0834 c1be
00000120: b255 013e b89f 0abd a14c 27be b0a5 2abe
00000130: 08fa 14be 251b 4cbe de56 0a3d cf5f 833e
00000140: 6e66 06bd 15dc 46be e080 813d 263c bfbd
00000150: 52ca 123e bc89 08bc b53b ea3d 2886 fabe
00000160: 604e 16bf ab64 873e 7e82 4cbf 411f ecbc
00000170: 1008 113e f324 02be 4f01 9e3c 0d4d 54bf
00000180: 62a8 b13e 5742 453e 1242 20bf 0a1b b53e
00000190: 9869 f9bd bf01 99be 0c4b c5bc 6d21 12be
000001a0: db33 09be d271 72bd 1f89 afbc 9fab 993e
000001b0: f9e0 f4be 29f7 35bf 6c7b 4abf b59b 75bf
000001c0: 94ab 023f 1b38 2a3e 9cab 13be f2a1 06be
000001d0: e4ec 183f 0a27 b1be 4976 a6be cc7e 05bf
0.2007456 -0.17253172 -0.07543539 -0.005619387 0.17577688 0.36302748 -0.41627625 -0.6639481
0.27910888 -0.17037602 -0.10630582 -0.037469894 0.1061511 0.11338373 0.13731165 -0.03707145
-0.054891866 -0.26987514 0.2267866 -0.13787985 0.26423386 0.023863606 -0.3616265 0.15383703
-0.065166555 -0.07531495 -0.4809353 0.2083795 0.32875755 -0.24772592 0.18239552 -0.062343717
0.02582382 -0.08304659 0.046126176 0.067181535 -0.86565024 -0.7527077 0.3137089 -0.59740347
-0.12896803 0.19973645 0.17745492 -0.17636323 0.14300214 0.14234003 0.010034954 -1.1630713
0.2347395 0.25243434 0.13970079 0.13725285 -1.0510355 -0.069377795 0.03802957 0.07833821
-0.929828 0.44998333 0.26629856 0.19494219 -0.13076295 -0.05330312 0.12177281 0.07612066
-0.021484016 -0.2760421 0.029401189 0.33814138 -0.1980362 0.109300934 -0.030407934 -0.3773501
0.12630346 -0.033843726 -0.16337825 -0.16664767 -0.14548504 -0.1993223 0.03377425 0.25659034
-0.03281253 -0.19419892 0.06323409 -0.09337644 0.14334992 -0.00833362 0.114371695 -0.48930478
-0.5871334 0.2644399 -0.79886615 -0.028823497 0.14163232 -0.12709408 0.019287733 -0.8293007
0.34698778 0.19263588 -0.62600815 0.35372192 -0.121783435 -0.29884145 -0.024083637 -0.14270563
-0.13398688 -0.05919058 -0.02142769 0.3001375 -0.4782789 -0.7108026 -0.79094577 -0.95940715
0.5104306 0.16622965 -0.14420933 -0.13147715 0.59736466 -0.34600097 -0.3251212 -0.521466

output_layer.bias f4 [4]
00000000: 7552 053d f450 0bbd 0a52 633e 8c5d a73d
0.03254934 -0.03401275 0.22199264 0.081721395
