K-Digital Training/김소현 강사님/Pytorch/숙제/language_model/best_model_epoch_71.pth (torch, 14536 bytes, 6 tensors)

input_layer.weight f4 [50, 26]
000000 0d f4 ce 3d 1a 47 b1 bd 32 ba 1b bd 24 85 bc 3d
       0.10105143 -0.0865614 -0.038019367 0.09205082
000010 e6 0f 3d be bb df f0 3d e7 41 25 bd ba 55 cc 3d
       -0.18463096 0.11761423 -0.040346052 0.099772885
000020 a6 57 df 3c 7c b7 c4 bc 3d cd 5e 3d e1 82 1e 3c
       0.027263474 -0.024013273 0.05439495 0.009674759
000030 40 b1 92 3d 94 85 9c bd 9c 44 6a bc ec a2 90 bc
       0.07162714 -0.076426655 -0.014298584 -0.017655812
000040 53 dd e8 3c 62 60 4d ba 7f 8d 2f 3e f8 f9 79 3d
       0.028425848 -0.00078344916 0.1714382 0.061029404
000050 4f 93 95 bd 1d 94 f2 bd ee a4 06 bd 07 3f ad bd
       -0.073034875 -0.118446566 -0.032872133 -0.08459287
000060 f2 b4 80 bd 01 da 19 3c b5 02 11 3f 59 06 d8 3e
       -0.062845126 0.009390355 0.56644756 0.42192343
000070 e9 31 1c bf e5 cd c7 bd dc d8 cd be 81 62 df bd
       -0.61013657 -0.09756068 -0.40204513 -0.1090746
000080 14 f7 53 3f 47 8e 58 be 24 18 22 bd 64 75 ba be
       0.82798886 -0.21148024 -0.039573804 -0.36417687
000090 c7 2d 1b 3f 24 e3 db bd cd a1 9a 3e fa fd 61 3e
       0.60616726 -0.10736683 0.3020157 0.2206954
0000a0 76 c0 6b 3e 33 3a 4d 3d 01 82 47 bf 93 42 4b be
       0.23022637 0.05010433 -0.77932745 -0.19849615
0000b0 94 97 17 be c8 62 b0 bb d9 a9 85 be 6a 51 de be
       -0.14803916 -0.0053828694 -0.26106146 -0.4342149
0000c0 87 f4 c7 3d 31 79 54 bf 76 5b db 3e ed d5 ea 3e
       0.09763437 -0.82997423 0.42843217 0.45866337
0000d0 33 bf 7b 3e 36 b1 61 3e 18 75 23 3e 5e ac 5b 3f
       0.24584655 0.22040257 0.15962636 0.85809886
0000e0 2d 5d 09 3f 76 39 9f bd 98 89 71 be 78 4a bf bd
       0.536578 -0.07774632 -0.23587644 -0.09340376
0000f0 1e e3 1c 3e 05 27 85 3f f1 ae 15 3f 87 e3 bf 3e
       0.15321013 1.0402533 0.58470064 0.37478277
000100 3c 22 59 3e da 0d c0 3c 24 77 75 be 56 ce b7 3e
       0.21204466 0.023444105 -0.2397123 0.3589961
000110 7c 6c be 3e 8e 46 ba 3e ac e0 a0 3e 49 77 21 3e
       0.37192142 0.36381954 0.3142141 0.1576816
000120 91 c4 47 3f f5 a4 1a 3e 64 88 0e bf 40 f0 c3 3e
       0.7803431 0.15101989 -0.55676866 0.38269234
000130 2f 0f 21 bf 0b 5f d5 be 79 c5 0d bf b5 43 d7 bd
       -0.62913793 -0.41674075 -0.55379444 -0.10510961
000140 62 31 c0 3e 4d b3 2e bd e2 3e c0 3e f0 75 db 3e
       0.37537676 -0.042651463 0.37547976 0.42863417
000150 04 0b b9 be 05 df 44 3e 3b db 72 be d8 56 aa 3c
       -0.36141217 0.192257 -0.23716442 0.020793363
000160 5c 69 20 bf 4d 67 81 3e 4c 44 0d be 5d a3 a0 be
       -0.62660766 0.25274125 -0.13795584 -0.31374636
000170 76 e5 85 3e 4a 58 87 bd 41 60 f6 3e b9 1a 9b 3d
       0.26151627 -0.06608637 0.4812031 0.07573456
000180 22 6b 44 3e f4 48 80 3e ac a8 fc bd ef 15 d7 3e
       0.19181493 0.2505566 -0.12336859 0.42008922
000190 05 de df 3e f1 3b 1e 3f 25 01 27 bd ec a8 d3 be
       0.43724075 0.61810213 -0.040772576 -0.41339815
0001a0 e5 d8 f1 be a3 42 96 be ae 28 0e 3f 96 ba fa 3e
       -0.4723579 -0.29347715 0.5553082 0.4897048
0001b0 53 9a 40 3f 06 37 ce 3e 1c 95 1a bf b3 2f 94 3e
       0.7523548 0.40276355 -0.6038377 0.28942642
0001c0 70 9a 34 3e 66 ac d9 3e 10 a2 60 be 85 c6 8b 3e
       0.17637038 0.42514342 -0.21936822 0.27299896
0001d0 71 da 48 3d ce 32 03 be 41 15 4d be a2 c6 13 be
       0.049036447 -0.12812349 -0.20027639 -0.14431241
0001e0 e9 a9 3e 3f aa 72 cf 3e c8 5c a5 3e 24 18 c2 3d
       0.7447801 0.4051717 0.3229735 0.09477261
0001f0 b3 d6 e3 3e fc a2 b8 3e 3f 16 96 be 9c e0 30 3f
       0.4449974 0.36061847 -0.29313847 0.69092727
000200 3f 8d 05 bf c4 4e 0b bf ae f8 82 3e 38 02 e9 3e
       -0.5216865 -0.5441706 0.25580353 0.45509505
000210 57 3a 70 3e ea a4 36 3f f3 fd 14 3f 16 e0 0a 3f
       0.23459755 0.7134539 0.58199996 0.5424818
000220 21 36 73 3e 63 8d 0d 3f 6b ce 79 3e df 46 9b 3e
       0.23751117 0.55293864 0.24395148 0.30327508
000230 78 54 ac 3e 9d 9e 7f 3e de 6b 8f 3e 13 13 b8 3e
       0.33658195 0.2496285 0.28011984 0.35952052
000240 b3 d9 0a 3e 6b fe af 3e f0 79 2d 3d fd 43 06 3f
       0.13559608 0.34373793 0.042352617 0.5244749
000250 91 0d be 3e 92 a3 0e 3f 7a 1d fd 3e 1f 4e 8f 3e
       0.37119725 0.5571834 0.4943655 0.2798929
000260 38 bc 9c 3e 14 41 f0 3c 74 3f 96 be 83 ef 06 bf
       0.3061235 0.029327907 -0.29345286 -0.52709216
000270 95 a4 ea bd 0b cb ab bd 6c c7 0e 3e 10 40 83 bd
       -0.11457173 -0.08388337 0.13943261 -0.06408703
000280 3a 12 16 be 7f 88 9a 3d 43 98 80 3d 36 12 02 3e
       -0.1465539 0.07545566 0.062790416 0.1270226
000290 2d d7 cf bd 6a 2a 2e 3d 2c 38 92 bd b5 7a 34 bd
       -0.101484634 0.042520918 -0.0713962 -0.044062335
0002a0 1b 0a 20 be f3 0d b7 bd a8 03 76 bd 09 c2 ab 3d
       -0.15628855 -0.089382075 -0.06006208 0.08386619
0002b0 be c0 12 3d 1e 6d 46 3d 41 71 48 3e 40 ba 43 3e
       0.035828345 0.048443906 0.19574453 0.19114017
0002c0 80 f8 08 3e 21 a3 cc 3b 75 ed 0a be ef f1 1c 3e
       0.13376045 0.0062450324 -0.13567145 0.15326665
0002d0 b6 df 48 bd 83 e2 81 bc 73 58 e9 be cd 6d 20 be
       -0.049041472 -0.01585508 -0.45575294 -0.15666886
0002e0 77 c7 4d 3e fe b7 3f 3f c2 e1 fa 3e c3 d3 13 3e
       0.20095621 0.74890125 0.49000365 0.1443625
0002f0 3b 21 25 bf 73 df aa bd b7 f7 b0 3d bc 75 36 3f
       -0.6450383 -0.08343401 0.08640998 0.712734
000300 80 8a 64 be 4c 58 1b 3e 9d 2a e1 3d 81 a5 b8 be
       -0.22318459 0.15170401 0.10994456 -0.3606377
000310 15 84 8b bd a2 6b 3b 3e ea 56 96 3f b1 8a 90 3e
       -0.06812302 0.18302777 1.1745274 0.28230813
000320 f5 a1 3a 3e 50 f2 07 3d a3 ad 24 3f ef 66 c9 3e
       0.18225844 0.03319007 0.6432745 0.39336345
000330 8d 63 5a be c2 13 47 3f af e1 41 bf 23 e4 2f bf
       -0.21327038 0.77764523 -0.7573499 -0.68707484
000340 22 e2 f4 3e b3 5c bc 3e cb d0 86 be c0 16 b7 be
       0.47828776 0.36789474 -0.2633117 -0.35759544
000350 01 64 3b bf 4c a8 e5 bd 03 06 6a 3f 3c 91 46 3e
       -0.7319947 -0.11213741 0.91415423 0.1939134
000360 42 a1 92 3e a1 e8 44 bf 58 42 71 3e 5b 3c 42 3e
       0.28638655 -0.76917464 0.23560464 0.18968336
000370 18 c4 94 3d c3 ab 0e 3f ee a5 a7 3d 69 85 16 3c
       0.072639644 0.5573084 0.081859455 0.009187081
000380 24 40 45 bf d3 db dd be 12 e5 0a bd ff 57 a8 3d
       -0.77050996 -0.43331775 -0.033909865 0.08219909
000390 18 86 be bd d2 97 6c be 3a 5c a1 3e 79 e7 59 bf
       -0.0930292 -0.2310479 0.31515676 -0.85118824
0003a0 55 a9 78 3f c2 33 31 3f d9 30 cf be 6e e3 2d be
       0.9713338 0.692196 -0.40466955 -0.16981289
0003b0 b9 76 5d 3e bd d9 11 3f cb e9 39 3f 04 4b a5 3d
       0.2162732 0.5697287 0.72622365 0.08070949
0003c0 48 74 5a bf e7 4c f6 bd 7d 6b 77 3d 7f 34 0b 3f
       -0.8533368 -0.12026387 0.060405243 0.5437698
0003d0 c8 78 90 be 5a c7 40 3e 9e 8f 6e be ff 38 b6 be
       -0.2821715 0.18826047 -0.23296973 -0.3559036
0003e0 86 21 78 be f7 fa 56 3e ef 2d 9c 3f 4d f9 8a 3e
       -0.24231538 0.20994173 1.2201518 0.27143326
0003f0 e7 79 17 3e ab 25 6c 3e bd 84 f0 3e 1c 8f c5 3e
       0.14792596 0.23061244 0.4697627 0.38585746

input_layer.bias f4 [50]
000000 71 2c 14 bd 8e 5f 73 3d 0e 88 9f 3e 0f 05 d2 3d
       -0.036175195 0.0594173 0.3115849 0.10254871
000010 a2 ba c0 3d b7 e7 f0 3e 24 54 ac bd 12 8d 09 3e
       0.094105974 0.47051784 -0.08414486 0.1343272
000020 66 b1 4f 3d ec cd 21 3e ee a1 13 3d a5 00 2b be
       0.05070629 0.15801209 0.0360431 -0.16699465
000030 ce 79 65 3c 80 14 ab 3e 70 33 f6 3d 38 83 e4 3d
       0.014006091 0.33414078 0.1202153 0.111578405
000040 d9 2a 36 3a 30 97 e6 3e 8a 0e c2 3d 28 67 33 be
       0.0006949134 0.45037222 0.09475429 -0.1751982
000050 46 38 0f be 63 ee 3d 3c 10 df bf bc 8b 9a 54 3e
       -0.1398631 0.01159248 -0.023421794 0.20762078
000060 e4 d5 3c bd 89 1d 38 3e 09 5e 29 be 72 dd 3e be
       -0.04610242 0.17980017 -0.16539778 -0.18639162
000070 41 c9 2e 3d 32 50 fe bd 54 42 6a bd 6c 07 b8 3d
       0.0426724 -0.1241764 -0.05719216 0.089857906
000080 b7 32 2e be 9b 60 8c 3e cd c1 f3 bd 89 f9 aa 3e
       -0.17011534 0.27417454 -0.11902199 0.33393505
000090 e4 13 5e 3e 11 a6 16 bd 02 c0 2f be 5f dd a9 3c
       0.21687275 -0.036779467 -0.17163089 0.02073544
0000a0 fd 61 e0 bd 60 c8 5f 3e 48 f1 28 be 35 37 10 3d
       -0.1095619 0.21853781 -0.16498291 0.0352089
0000b0 e0 5a dd bd 26 29 01 be 85 7c d1 bd 18 47 9f bc
       -0.10808349 -0.12613353 -0.10228828 -0.01944308
0000c0 a5 62 a0 3d 9d 1c 2b 3e
       0.07831315 0.16710134

hidden_layer_list.0.weight f4 [30, 50]
000000 47 00 94 3d 64 42 8d be df bc b7 3d d7 79 e2 3e
       0.072266154 -0.27589715 0.08971571 0.4423358
000010 5d 32 0f 3f 7f 6b ee 3d 57 d4 f3 bd b9 0c 11 3f
       0.55936223 0.11641597 -0.11905735 0.5666004
000020 33 45 93 be 74 de fc 3e 15 3f 69 be 0f 13 ca 3d
       -0.28763732 0.49388468 -0.2277797 0.098669164
000030 b3 e1 83 bd 89 10 e8 3d 59 17 a4 bc b9 73 e7 bd
       -0.06439533 0.11331279 -0.020030664 -0.11301369
000040 8d cb b6 3d ce c4 80 3e 29 ee e3 3e 32 d1 06 bd
       0.08925543 0.2515015 0.4451764 -0.032914348
000050 9c 4a ac bd c6 05 57 bd c7 0c c5 bd 43 04 9b 3e
       -0.08412668 -0.05249574 -0.09621578 0.3027669
000060 64 9f 0b 3e d0 e0 1d 3f 24 c6 da 3d d3 45 65 3c
       0.13635021 0.6167116 0.106823236 0.013993698
000070 e6 f3 f2 3e 49 c5 bf 3d 6a fa ab 3d ba 3c 96 be
       0.47451705 0.09363801 0.08397372 -0.29343206
000080 31 81 12 bd 89 9d 6a 3e 15 cc a0 bb 8f ef 60 bd
       -0.035767738 0.22911657 -0.004907141 -0.05491596
000090 1d 66 91 bd 39 e3 ea 3d 69 34 f1 3d 40 b7 61 bd
       -0.07099555 0.114691205 0.117775746 -0.0551064
0000a0 0c 9e f8 bc 31 0d 60 3e 13 1d 3d bd e8 aa 11 3f
       -0.0303488 0.21880032 -0.046170305 0.5690141
0000b0 a2 cc 00 be 24 35 8a 3d 8b 28 02 be 4f 2e 8a bd
       -0.12578061 0.06748417 -0.12710778 -0.06747114
0000c0 95 9e d7 3e 10 8a 6b bd 4c 24 bc bc f7 64 84 bd
       0.42113176 -0.057504714 -0.022966526 -0.0646457
0000d0 95 2f 81 bd e7 29 b0 bd fd 29 ca bd 41 72 b4 bd
       -0.06307904 -0.08601742 -0.0987129 -0.08810855
0000e0 2c de 0a 3e 3b 77 88 bd 88 da f0 bd 6b 10 c7 3d
       0.13561314 -0.066633664 -0.117604315 0.09719928
0000f0 d9 ba 60 3d 1d 3a c7 3d 16 0c 10 be e5 d8 09 be
       0.05486569 0.09727881 -0.1406711 -0.13461645
000100 84 90 cd bd 1d 94 98 bd a1 47 a3 b9 86 90 7a 3d
       -0.1003733 -0.07450125 -0.0003114315 0.061172985
000110 60 91 a9 3d ee 1c f9 bd 34 04 67 3d fc 7e a7 bd
       0.08279681 -0.12163721 0.056400493 -0.08178517
000120 31 26 05 3d 87 de 35 3d 88 66 b9 3c 20 f2 4c 3d
       0.032507125 0.04440167 0.022631899 0.050035596
000130 9c 63 e7 bb f9 35 bf 3d cb 9f f1 3c 3e be fd 3d
       -0.007061435 0.09336466 0.02949514 0.123898014
000140 ba 21 fb 3c d6 52 99 bd 26 00 ba 3d 12 0e fb 3b
       0.03065573 -0.07486503 0.090820596 0.0076615894
000150 98 f4 0b 3e 38 1f 80 bc 55 48 0f 3e 53 13 a9 bd
       0.13667524 -0.015639886 0.13992436 -0.08255639
000160 36 90 91 3d eb 10 d8 bd 64 d7 c6 3d 5b 4c d2 3c
       0.07107584 -0.10550102 0.09709051 0.025671175
000170 4e 6f a4 3d 81 6c f9 bd 36 0e 10 be 1d 8e 8b 3d
       0.08029042 -0.121788986 -0.14067921 0.06814215
000180 dc 50 6e bd 9b 69 65 3d b3 d5 ab bd 05 12 33 bd
       -0.058182582 0.056008916 -0.08390369 -0.043718357
000190 0d 16 26 3a d8 6a ae 3d 3e 8f a3 3d 36 f9 4e bc
       0.0006335683 0.085164726 0.07986306 -0.012632659
0001a0 40 d8 23 bd f6 bb 20 bb c6 46 95 3d 87 7b f5 bd
       -0.040001154 -0.0024526096 0.072888896 -0.119864516
0001b0 53 00 31 bd 02 9a 0b be 67 3a a7 3c aa 08 89 bc
       -0.0432132 -0.13632968 0.02041359 -0.016727764
0001c0 10 13 a4 3d ab 60 e7 3d e4 a4 f7 bd 02 2e 80 bd
       0.080114484 0.11297735 -0.12091997 -0.06258775
0001d0 69 3e ba bc 97 d7 b8 ba 1b 3a 04 bd b0 1a b6 bd
       -0.022734838 -0.0014102337 -0.032281976 -0.08891809
0001e0 80 d3 5f bd 14 af 6e bb 23 ea e8 3d 70 a0 13 bd
       -0.05464506 -0.0036420273 0.11372783 -0.036041677
0001f0 22 45 bf 3d 8a 1f ea bd d2 3b cf 3b 11 05 e2 bd
       0.09339358 -0.11431797 0.00632427 -0.110361226
000200 d7 e3 07 be d7 9f 65 3c 7d 9e 84 bd fc 3a d5 3d
       -0.13270508 0.01401516 -0.06475542 0.10411641
000210 9f c4 e4 3d 66 23 10 be f6 79 21 bc ab eb c5 bc
       0.11170315 -0.14076003 -0.009855738 -0.024160227
000220 26 15 a5 bd 27 34 ca bd 81 21 75 bd 49 bf 7f 3d
       -0.08060674 -0.098732285 -0.059846405 0.062438283
000230 65 ba 09 3d f9 50 ae 3d 57 30 0a bc 7d 6d 96 3d
       0.033625025 0.08511538 -0.008434377 0.07345102
000240 72 08 e0 3c 18 a0 fc bc cd 74 07 bc 6f b5 03 be
       0.027347777 -0.030838057 -0.008267594 -0.1286218
000250 85 d8 54 bb ee 4b 3e bd 62 da 41 bd e9 e3 98 bd
       -0.0032477689 -0.04645913 -0.047327407 -0.074653454
000260 f4 cf 47 bd 9e 68 fa bd 63 b0 1c bc 7d 6a c1 bc
       -0.048782304 -0.122269854 -0.009563538 -0.023610348
000270 44 90 18 bd a4 d6 d6 3d 82 cf 9d 3d 89 dc b4 3c
       -0.037246957 0.10490158 0.077055946 0.022077816
000280 fd 3f 8f bd eb c3 93 3c 06 48 c7 bd 58 3a a5 3d
       -0.06994627 0.018037757 -0.09730534 0.08067769
000290 0c f2 e9 3d 77 a4 1f bd 80 5d df 3d 20 3c eb 3d
       0.1142312 -0.038975205 0.109065056 0.11486077
0002a0 c7 ee d7 bc 56 18 57 bd 26 e0 e9 3b 55 74 bf 3c
       -0.026358975 -0.052513443 0.0071373163 0.023370901
0002b0 3a 0d 06 be 63 9a da bc 34 71 51 bd 35 b0 9c 3d
       -0.13090983 -0.026684945 -0.05113335 0.07650796
0002c0 68 06 85 bb f4 8e be 3d 70 0a dd 3d b6 89 35 bd
       -0.0040596016 0.0930461 0.107930064 -0.044320785
0002d0 78 60 f9 3c dd 62 f5 bc 40 71 7c bd dd 3f c5 bd
       0.030441508 -0.029954368 -0.06163144 -0.096313216
0002e0 2b 77 56 3b c2 a8 cd 3c 90 0b 2f bd 3a be c4 3c
       0.0032724838 0.025104884 -0.042735636 0.024016488
0002f0 21 ff b4 3d ce 7b 71 3d 13 df 6e 3d 60 41 b3 3c
       0.088377245 0.05895596 0.05831821 0.02188176
000300 1b a5 de bd 6e cf d3 bd b7 c8 d6 bd cc 53 be 3d
       -0.10871335 -0.103422984 -0.10487502 0.09293327
000310 0b 19 ff bd 7c 3b d8 bd 60 28 9a 3d 28 9f 86 3d
       -0.124559484 -0.10558221 0.07527232 0.065733254
000320 92 e5 08 be 8b 5a a7 3d b9 2c 04 bd 6d 99 f9 3c
       -0.13368824 0.081715666 -0.032269213 0.030468667
000330 54 6f b5 bd 23 dd af bc a3 be 00 3d 20 d7 dc 3d
       -0.08859125 -0.02146775 0.031431805 0.10783219
000340 b7 a1 af 3d cc 7e 9d bd d3 fa bd bd 3f 00 0d bc
       0.085757665 -0.076902 -0.092763565 -0.008606016
000350 ea cb 35 3d e3 cd 9e 3d 1e 4f 10 be 2c 58 3d bc
       0.04438392 0.077541135 -0.14092681 -0.011556666
000360 f1 df a3 3b 54 43 87 bd 55 71 e4 3d c1 c3 19 bd
       0.005001061 -0.06604639 0.11154429 -0.0375402
000370 13 11 0a be 9f ee ac bd 41 95 94 3b cf 88 d7 bd
       -0.13483076 -0.08443951 0.004534394 -0.10524141
000380 5a 4f 04 3d 7c e0 0c 3e 61 b4 bd 3b 1c b4 0e bd
       0.032302238 0.13757509 0.005789325 -0.034839734
000390 7e 6e 08 3e 16 d1 d5 3d 12 77 c0 3d 9f c2 2f 3c
       0.133234 0.104402706 0.09397711 0.010727554
0003a0 87 da d3 3b db 9d e0 bd 6b dc 6b 3c f9 da 0c 3e
       0.0064652595 -0.109676085 0.014395813 0.13755406
0003b0 b8 fa f4 3b 2f 3b 01 be e3 f7 9e 3d 52 f7 01 3e
       0.007476177 -0.12620233 0.077621244 0.12692001
0003c0 66 cf f2 3d f0 90 da 3b df a4 d9 3c 0b 7c bb 3c
       0.11855964 0.00667011 0.026567874 0.022886297
0003d0 67 69 6d bd 95 0a a9 bc 67 48 ec 3d 65 64 6c 3c
       -0.057961848 -0.020634929 0.11537247 0.014428233
0003e0 8b 7c 08 3e 99 55 c0 bd 9f 50 a9 bc 5d cb de be
       0.1332876 -0.093913265 -0.020668326 -0.4351453
0003f0 60 03 a7 3c a2 0b 0e 3f 8a 17 b5 3e 08 18 bc 3d
       0.020387352 0.554865 0.3536952 0.09184271

hidden_layer_list.0.bias f4 [30]
000000 ce 77 8a bb 1c 62 3b bd e8 07 e8 bd bc c0 1c be
       -0.0042257076 -0.04574786 -0.11329633 -0.15307897
000010 c5 f4 9c bd 9c d3 c4 3d 2d 7b 78 3e fc fc 64 3e
       -0.076638736 0.09610674 0.24265738 0.22362131
000020 3f 0d 02 3e 73 70 8c 3e 49 9f c3 bb 37 95 0f 3e
       0.12700365 0.27429542 -0.005969916 0.14021765
000030 d7 ae fc bd 31 9f 87 bd b0 2b 05 be d9 96 c7 bd
       -0.123380356 -0.0662216 -0.13004947 -0.09745569
000040 87 81 d7 bd 8a 88 0b bd 08 35 57 3e 84 75 b8 3d
       -0.10522752 -0.03406576 0.21016324 0.09006789
000050 a7 10 62 3e 40 3d b4 3d 7b e9 44 3e e6 49 9b bd
       0.22076665 0.08800745 0.1922969 -0.075824544
000060 a2 68 0f be f1 1d 53 3c 07 4f 88 3e 94 87 77 bc
       -0.14004758 0.012885557 0.26622793 -0.015108008
000070 4f 86 89 3d 77 26 ea 3d
       0.067150705 0.11433118

output_layer.weight f4 [4, 30]
000000 f6 4d 43 3e 28 ac 30 be df 7d 9a bd d6 22 b8 bb
       0.19072708 -0.17253172 -0.07543539 -0.005619387
000010 db fe 33 3e 22 7c b7 3e aa 88 b0 be 52 f4 27 bf
       0.17577688 0.35836893 -0.34479266 -0.6560718
000020 91 e1 88 3e 54 95 b8 bd de b6 d9 bd 78 8a 7c bd
       0.26734594 -0.09012857 -0.10630582 -0.06165549
000030 bf 65 d9 3d bb 35 e8 3d 6d 9b 0c 3e 3c d8 17 bd
       0.1061511 0.11338373 0.13731165 -0.03707145
000040 4b d6 60 bd 26 45 1e be e7 b4 5b 3e 0e fb 21 be
       -0.054891866 -0.15456066 0.21455728 -0.15818426
000050 02 0b 83 3e 7e 19 43 3c 3a 45 8f be 74 87 1d 3e
       0.25594336 0.011907933 -0.27982503 0.15383703
000060 0b 76 85 bd b9 3e 9a bd e7 80 d3 be 38 0a 40 3e
       -0.065166555 -0.07531495 -0.41309282 0.18753898
000070 7e 3b a5 3e d1 c8 8e be 5d 4b 55 3e 20 5c 7f bd
       0.3227195 -0.27887586 0.2082953 -0.062343717
000080 7a 8c d3 3c 55 14 aa bd cd ee 3c 3d 4c bf ae 3d
       0.02582382 -0.08304659 0.046126176 0.08532581
000090 3e 99 85 bf 25 7c 4e bf 55 f4 ad 3e 98 41 48 bf
       -1.0437391 -0.8065818 0.33975473 -0.7822509
0000a0 32 10 04 be ef 52 7b 3e be b6 35 3e 90 98 34 be
       -0.12896803 0.24543355 0.17745492 -0.17636323
0000b0 27 6f 12 3e 96 c1 11 3e a6 69 24 3c 5b a0 b1 bf
       0.14300214 0.14234003 0.010034954 -1.3877062
0000c0 62 ca 84 3e da e6 8f 3e 70 be 23 3e a7 ad 24 3e
       0.25935656 0.28105813 0.15990615 0.16081868
0000d0 1d 69 9c bf f2 15 8e bd e5 c4 1b 3d c9 6f a0 3d
       -1.2219578 -0.069377795 0.03802957 0.07833821
0000e0 25 b5 8c bf 60 41 fc 3e 93 20 98 3e a9 e7 6e 3e
       -1.0992781 0.49268627 0.29712352 0.23330559
0000f0 35 be 02 be 5f 54 5a bd 06 64 f9 3d 26 e5 9b 3d
       -0.1276787 -0.05330312 0.12177281 0.07612066
000100 3f ff af bc 75 d5 8e be ec 03 1f 3d cd e8 b4 3e
       -0.021484016 -0.2789723 0.0388221 0.35333863
000110 46 8c 48 be d2 1a f0 3d 0f 1a f9 bc eb 43 ec be
       -0.1958476 0.117238656 -0.030407934 -0.46145567
000120 b2 55 01 3e b8 9f 0a bd a1 4c 27 be b0 a5 2a be
       0.12630346 -0.033843726 -0.16337825 -0.16664767
000130 08 fa 14 be 3a 23 4a be 22 e4 31 3d 03 a5 8f 3e
       -0.14548504 -0.1974 0.043430455 0.2805558
000140 de af df bc 5e 4e 3d be 86 b7 8b 3d 26 3c bf bd
       -0.02730554 -0.18486926 0.06822114 -0.09337644
000150 52 ca 12 3e bc 89 08 bc 76 5b fc 3d dd 16 16 bf
       0.14334992 -0.00833362 0.12322132 -0.58628637
000160 7a c8 31 bf 3b 08 99 3e 0f a5 67 bf 41 1f ec bc
       -0.6944653 0.29889092 -0.90486234 -0.028823497
000170 10 08 11 3e f3 24 02 be 4f 01 9e 3c 41 3b 69 bf
       0.14163232 -0.12709408 0.019287733 -0.9110604
000180 05 c6 bd 3e dc c2 51 3e b8 34 39 bf 3a 7f c2 3e
       0.3706514 0.20484489 -0.7234607 0.3798769
000190 98 69 f9 bd a6 eb 99 be 0c 4b c5 bc 6d 21 12 be
       -0.121783435 -0.30062598 -0.024083637 -0.14270563
0001a0 db 33 09 be d2 71 72 bd 1f 89 af bc 30 72 ad 3e
       -0.13398688 -0.05919058 -0.02142769 0.3387618
0001b0 0f dd 0e bf 1f bb 46 bf bb 61 5c bf 81 4a 84 bf
       -0.5580606 -0.77629274 -0.86086625 -1.0335237
0001c0 35 18 09 3f 1b 38 2a 3e 9c ab 13 be f2 a1 06 be
       0.5355256 0.16622965 -0.14420933 -0.13147715
0001d0 4e a8 1e 3f c9 18 b5 be d8 3d ab be a3 ef 17 bf
       0.6197556 -0.35370472 -0.3344562 -0.5935003

output_layer.bias f4 [4]
000000 89 09 ff 3c 1d 17 0a bd 49 90 66 3e 2b 87 a3 3d
       0.031132476 -0.03371345 0.22515978 0.079847656
