K-Digital Training/김소현 강사님/Pytorch/숙제/language_model/best_model_epoch_2.pth (torch, 14536 bytes, 6 tensors)

input_layer.weight f4 [50, 26]
000000 0d f4 ce 3d 1a 47 b1 bd 32 ba 1b bd 24 85 bc 3d
       0.10105143 -0.0865614 -0.038019367 0.09205082
000010 e6 0f 3d be bb df f0 3d e7 41 25 bd ba 55 cc 3d
       -0.18463096 0.11761423 -0.040346052 0.099772885
000020 a6 57 df 3c 7c b7 c4 bc 3d cd 5e 3d e1 82 1e 3c
       0.027263474 -0.024013273 0.05439495 0.009674759
000030 40 b1 92 3d 94 85 9c bd 9c 44 6a bc ec a2 90 bc
       0.07162714 -0.076426655 -0.014298584 -0.017655812
000040 53 dd e8 3c 62 60 4d ba 7f 8d 2f 3e f8 f9 79 3d
       0.028425848 -0.00078344916 0.1714382 0.061029404
000050 4f 93 95 bd 1d 94 f2 bd ee a4 06 bd 07 3f ad bd
       -0.073034875 -0.118446566 -0.032872133 -0.08459287
000060 f2 b4 80 bd 01 da 19 3c ba 92 02 3e bd 46 f2 3d
       -0.062845126 0.009390355 0.12751284 0.118298985
000070 50 b6 4a be f1 4b 0b 3e 72 9a 81 3d d3 5a 3c 3e
       -0.19796109 0.13603188 0.06328286 0.18394022
000080 d0 32 01 3e 92 33 33 be b4 ca 34 be 7e eb 9f bd
       0.1261704 -0.17500141 -0.1765545 -0.078085884
000090 0d 74 41 3e 3f bf e4 bc 56 b8 c1 3d 0c b8 ae bd
       0.18891926 -0.027923224 0.094589874 -0.08531198
0000a0 04 4e 40 3e 7d cc 97 bd 25 e9 0d 3e ee 14 4d 3c
       0.1877976 -0.0741205 0.13858469 0.012517197
0000b0 d5 16 c8 bd ed 60 d8 3d 99 e3 b6 bd 32 be 48 3d
       -0.0976998 0.10565362 -0.089301296 0.04900951
0000c0 98 16 85 bd 1f e9 01 bd b4 92 42 be 5c 9b c8 bd
       -0.0649845 -0.031716462 -0.19001275 -0.097952574
0000d0 f9 b5 c5 3d 11 80 6b bd bf 84 52 3e 1e 23 2d 3e
       0.09653849 -0.05749518 0.20558451 0.16907927
0000e0 e4 94 94 3b 59 41 00 be 53 63 d2 3d 52 41 49 3d
       0.0045343507 -0.12524928 0.10272851 0.04913456
0000f0 53 5f 00 be f1 27 17 3e e9 d4 d1 3d ea a9 37 3e
       -0.12536363 0.1476133 0.102456875 0.17935911
000100 bd 05 e1 bd 76 e6 17 bd 8c d2 b7 bb 86 98 ee 3c
       -0.109874226 -0.03708502 -0.005609816 0.029125463
000110 2b 59 04 be 9d 51 03 be ba f2 e6 3d 29 82 2f bd
       -0.1292464 -0.12824102 0.11276765 -0.04284874
000120 3b 39 d9 3d d5 e4 cd 3c 95 9d 2b 3d c3 d5 71 3d
       0.10606619 0.02513353 0.04189833 0.05904175
000130 9e 48 50 3d 2d 90 c6 3d 58 51 45 be 14 ec c8 3d
       0.050850503 0.09695468 -0.19269311 0.09810653
000140 26 1f 08 be 82 1d 1d be 61 2c 34 3c 9b 18 b0 bc
       -0.13293132 -0.15343288 0.010996909 -0.021496108
000150 0d 94 e1 3d a5 4a c6 bd 96 9f 37 be 07 a6 05 3e
       0.110145666 -0.09682206 -0.17931971 0.13051616
000160 c5 4c 30 bd 14 06 d6 3d b0 1c 5d 3d 30 2a 1d be
       -0.043041963 0.10450378 0.053982437 -0.15348125
000170 a7 a1 3d 3d 66 8e 1b 3d da fc 19 be ba 0e c2 bd
       0.04629674 0.0379776 -0.15037861 -0.09475465
000180 40 7a 81 3d ed e0 21 3d ed 0e ca bd 4f 25 6d bd
       0.063221455 0.039521147 -0.09866128 -0.05789691
000190 39 2d 4d 3e b3 51 3c bd f7 a8 fd 3d 11 71 8f 3d
       0.20036782 -0.045976352 0.12385743 0.070039876
0001a0 2a 0e 13 be 51 ab 2b be 6c 51 4a 3e 2b 66 57 3c
       -0.14360872 -0.16764571 0.19757622 0.013146917
0001b0 7b 54 11 3e a3 7d 71 3d 42 35 3e 3d 48 d2 27 3e
       0.14192383 0.058957707 0.04643751 0.1638881
0001c0 32 70 39 3e ca 9f 06 be 83 8c 09 3c 97 c1 0f 3e
       0.18109205 -0.13146892 0.008395317 0.14038692
0001d0 c6 fd 05 3e ca 6b e0 3d 62 a3 0b be bb fe 1b be
       0.13085088 0.10958059 -0.13636544 -0.1523389
0001e0 91 e1 0a be d2 64 fb 3c 94 6f 46 3e 2e bf ef bd
       -0.1356261 0.030687723 0.19378501 -0.117063865
0001f0 c6 23 bb 3d a2 21 ce bd 5d 0e 2b be 68 a0 40 bd
       0.091376826 -0.10065009 -0.16704698 -0.047027975
000200 b7 86 e9 3d a4 9b 23 3e 0f b9 dd bd 09 f3 1d 3d
       0.11402648 0.15977341 -0.10826313 0.038561855
000210 b0 95 27 3e af b5 01 3e 54 8e ef 3d 8a bd f9 3d
       0.16365695 0.12666963 0.11697069 0.12194355
000220 25 2c 0e 3e 09 4d 03 3d 40 10 06 be 0a 38 2d be
       0.13884027 0.03205589 -0.13092136 -0.16915908
000230 7b a3 ab bd f4 2a 7f bc ed fa e3 bd cf 79 a9 3d
       -0.08380791 -0.015574206 -0.11131845 0.08275186
000240 71 48 65 3d 3c 50 0e bd 4c f8 c3 3d da e1 6e 3d
       0.05597729 -0.034744486 0.09568843 0.058320858
000250 23 d2 fa 3d c5 a6 00 3e a0 f4 5c bd 4f 9f 41 3e
       0.12247112 0.12563618 -0.05394423 0.18908428
000260 21 02 29 bd 50 45 6f 3b b2 61 41 be 25 f8 d3 bd
       -0.041261796 0.003650982 -0.18884924 -0.10350064
000270 95 a4 ea bd 0b cb ab bd 6c c7 0e 3e 10 40 83 bd
       -0.11457173 -0.08388337 0.13943261 -0.06408703
000280 3a 12 16 be 7f 88 9a 3d 43 98 80 3d 36 12 02 3e
       -0.1465539 0.07545566 0.062790416 0.1270226
000290 2d d7 cf bd 6a 2a 2e 3d 2c 38 92 bd b5 7a 34 bd
       -0.101484634 0.042520918 -0.0713962 -0.044062335
0002a0 1b 0a 20 be f3 0d b7 bd a8 03 76 bd 09 c2 ab 3d
       -0.15628855 -0.089382075 -0.06006208 0.08386619
0002b0 be c0 12 3d 1e 6d 46 3d 41 71 48 3e 40 ba 43 3e
       0.035828345 0.048443906 0.19574453 0.19114017
0002c0 80 f8 08 3e 21 a3 cc 3b 75 ed 0a be ef f1 1c 3e
       0.13376045 0.0062450324 -0.13567145 0.15326665
0002d0 b6 df 48 bd 83 e2 81 bc 88 ef 38 be 8d 01 2d bd
       -0.049041472 -0.01585508 -0.18060124 -0.042237807
0002e0 83 3f de bd 76 71 4d 3e b9 c9 15 be f7 12 06 be
       -0.10851958 0.20062813 -0.14627732 -0.13093172
0002f0 68 7a c0 bc 94 f9 bb bd 8d 44 91 3d 0e 29 4e bd
       -0.023495868 -0.091784626 0.07093153 -0.05033212
000300 69 2a ce bd 40 f8 44 3c ac a8 0d 3e 6c 8c 16 be
       -0.10066683 0.012022078 0.13833874 -0.14702004
000310 67 b1 be 3d c9 3a fa 3d c0 0f 56 3e 54 73 f3 bd
       0.093111806 0.12218244 0.20904446 -0.118872315
000320 a0 90 57 3d b3 80 0a be 36 84 31 3e a1 b8 63 bd
       0.05262816 -0.13525657 0.1733559 -0.055595998
000330 51 80 f3 3d 45 ff bc 3c 6b 59 e9 bc d8 ab 9a bc
       0.11889709 0.02307094 -0.02848502 -0.01888077
000340 c6 07 47 3d ce 47 db 3d a2 a8 3e 3d 88 91 99 3d
       0.048591398 0.10707055 0.04654754 0.07498461
000350 c8 18 25 be 4f e9 1f 3e 0d b4 3e 3e 9e 9f 35 3e
       -0.16122735 0.15616344 0.18623371 0.1773667
000360 d2 1e 24 3e 16 c5 04 be 80 e7 6c bd 02 9f 40 3e
       0.16027382 -0.12965807 -0.057837963 0.18810657
000370 4d ff 08 be 2f d5 45 3e c2 c8 0d be 98 a9 fd bd
       -0.1337864 0.19319604 -0.13846114 -0.12385863
000380 4c d4 d6 3d bf 93 00 be dc a9 f2 bc b3 f9 21 3e
       0.10489711 -0.1255636 -0.02962201 0.15817909
000390 8b c4 2e 3e 6d 2b 4c 3e 39 43 cb bc b6 d8 0f be
       0.17067163 0.1993844 -0.024812328 -0.14047512
0003a0 a3 90 55 3e 7c e4 e9 bc f5 b6 b2 bd 98 c4 16 3d
       0.20855956 -0.028551333 -0.087263025 0.03680858
0003b0 74 5c f0 bd 4c 40 00 3e 73 e1 04 3e 71 c0 15 be
       -0.11736384 0.12524527 0.12976627 -0.14624192
0003c0 09 b1 21 be ef 47 9f bc b9 be a4 3d ba 4c 79 bc
       -0.1579019 -0.01944348 0.0804419 -0.015216047
0003d0 2a fd ec bd 63 c5 69 3c 2d 7c 3f be 01 0c 0b be
       -0.11571725 0.014268252 -0.18699713 -0.13578798
0003e0 41 4b f0 bd 71 6a 24 3e 5a 9b 46 3e 7f ae 83 bd
       -0.117331035 0.16056229 0.193952 -0.06429767
0003f0 af f2 79 3c 9a b0 be 3d bf 9c ba 3c 89 d2 9c bd
       0.015255614 0.09311028 0.02277982 -0.07657344

input_layer.bias f4 [50]
000000 71 2c 14 bd 62 f7 7d bb 21 b5 86 3d 2c 9d 92 3d
       -0.036175195 -0.0038752188 0.06577516 0.071588844
000010 dd d1 2a 3d 7b 54 a2 3d 24 54 ac bd 10 15 aa 3d
       0.041704047 0.079262696 -0.08414486 0.083047986
000020 ac cc 3f bd 17 6a ff 3d d5 a5 92 bd a5 00 2b be
       -0.04682605 0.12471407 -0.07160536 -0.16699465
000030 ce 79 65 3c 4d 17 d2 3d 22 a4 00 bc 91 07 5f 3a
       0.014006091 0.102583505 -0.007851632 0.00085079024
000040 d9 2a 36 3a 92 c8 d5 3d f7 89 57 3c 28 67 33 be
       0.0006949134 0.104386464 0.013155452 -0.1751982
000050 46 38 0f be 63 ee 3d 3c 58 4b bd bc 2c ea 40 3e
       -0.1398631 0.01159248 -0.023107216 0.1883933
000060 e4 d5 3c bd b8 64 16 3e 09 5e 29 be 72 dd 3e be
       -0.04610242 0.14686859 -0.16539778 -0.18639162
000070 d0 11 95 bc 32 50 fe bd 54 42 6a bd 90 97 ac 3c
       -0.01819697 -0.1241764 -0.05719216 0.021068364
000080 b7 32 2e be fa 2e 0b 3e cd c1 f3 bd 30 85 18 3e
       -0.17011534 0.13592139 -0.11902199 0.14894557
000090 38 59 81 3d 11 a6 16 bd 02 c0 2f be f1 67 b0 3c
       0.06315845 -0.036779467 -0.17163089 0.021533938
0000a0 fd 61 e0 bd b0 32 2e 3e 48 f1 28 be 94 a8 fc bc
       -0.1095619 0.17011523 -0.16498291 -0.030842103
0000b0 e0 5a dd bd 26 29 01 be 85 7c d1 bd 18 47 9f bc
       -0.10808349 -0.12613353 -0.10228828 -0.01944308
0000c0 f3 0c 80 3c c2 2b 03 3d
       0.015631175 0.032024153

hidden_layer_list.0.weight f4 [30, 50]
000000 47 00 94 3d bc 9a 6c bd 12 b4 b3 bd 78 19 f4 bc
       0.072266154 -0.057764754 -0.0877458 -0.0297973
000010 f1 77 08 3e 3d 8a 8d bc 57 d4 f3 bd f7 42 e3 3d
       0.13327004 -0.017277831 -0.11905735 0.11096757
000020 c0 f1 0c 3d 5f 12 c9 3c 8e db c6 3c 0f 13 ca 3d
       0.03441024 0.024544893 0.024274614 0.098669164
000030 b3 e1 83 bd 74 16 d3 3d 13 41 0b 3e 31 5d 15 bd
       -0.06439533 0.10307017 0.13599043 -0.036465827
000040 8d cb b6 3d 6e cb 9f 3d 00 9e 07 3e 32 d1 06 bd
       0.08925543 0.07802473 0.13243866 -0.032914348
000050 9c 4a ac bd c6 05 57 bd c7 0c c5 bd 3b fb 9e 3b
       -0.08412668 -0.05249574 -0.09621578 0.0048517263
000060 64 9f 0b 3e a7 7d 0c 3e 24 c6 da 3d d3 45 65 3c
       0.13635021 0.13719808 0.106823236 0.013993698
000070 cb 32 49 3b 49 c5 bf 3d 6a fa ab 3d f7 ee 65 bc
       0.003070044 0.09363801 0.08397372 -0.014034024
000080 31 81 12 bd f3 0b 65 3d 15 cc a0 bb 11 7a cb bd
       -0.035767738 0.0559196 -0.004907141 -0.09935392
000090 dd 3a 88 bd 39 e3 ea 3d 69 34 f1 3d 40 b7 61 bd
       -0.06651852 0.114691205 0.117775746 -0.0551064
0000a0 0c 9e f8 bc 3e 8c 8f bd 13 1d 3d bd ff 01 04 3e
       -0.0303488 -0.07009171 -0.046170305 0.12891386
0000b0 a2 cc 00 be 24 35 8a 3d 8b 28 02 be 4f 2e 8a bd
       -0.12578061 0.06748417 -0.12710778 -0.06747114
0000c0 bc ea eb bc b7 8d 20 3c 4c 24 bc bc f7 64 84 bd
       -0.028798454 0.009799412 -0.022966526 -0.0646457
0000d0 95 2f 81 bd e7 29 b0 bd fd 29 ca bd 41 72 b4 bd
       -0.06307904 -0.08601742 -0.0987129 -0.08810855
0000e0 2c de 0a 3e 3b 77 88 bd 88 da f0 bd 6b 10 c7 3d
       0.13561314 -0.066633664 -0.117604315 0.09719928
0000f0 d9 ba 60 3d 1d 3a c7 3d 16 0c 10 be e5 d8 09 be
       0.05486569 0.09727881 -0.1406711 -0.13461645
000100 84 90 cd bd 1d 94 98 bd a1 47 a3 b9 86 90 7a 3d
       -0.1003733 -0.07450125 -0.0003114315 0.061172985
000110 60 91 a9 3d ee 1c f9 bd 34 04 67 3d fc 7e a7 bd
       0.08279681 -0.12163721 0.056400493 -0.08178517
000120 31 26 05 3d 87 de 35 3d 88 66 b9 3c 20 f2 4c 3d
       0.032507125 0.04440167 0.022631899 0.050035596
000130 9c 63 e7 bb f9 35 bf 3d cb 9f f1 3c 3e be fd 3d
       -0.007061435 0.09336466 0.02949514 0.123898014
000140 ba 21 fb 3c d6 52 99 bd 26 00 ba 3d 12 0e fb 3b
       0.03065573 -0.07486503 0.090820596 0.0076615894
000150 98 f4 0b 3e 38 1f 80 bc 55 48 0f 3e 53 13 a9 bd
       0.13667524 -0.015639886 0.13992436 -0.08255639
000160 36 90 91 3d eb 10 d8 bd 64 d7 c6 3d 5b 4c d2 3c
       0.07107584 -0.10550102 0.09709051 0.025671175
000170 4e 6f a4 3d 81 6c f9 bd 36 0e 10 be 1d 8e 8b 3d
       0.08029042 -0.121788986 -0.14067921 0.06814215
000180 dc 50 6e bd 9b 69 65 3d b3 d5 ab bd 05 12 33 bd
       -0.058182582 0.056008916 -0.08390369 -0.043718357
000190 0d 16 26 3a d8 6a ae 3d 3e 8f a3 3d 36 f9 4e bc
       0.0006335683 0.085164726 0.07986306 -0.012632659
0001a0 40 d8 23 bd f6 bb 20 bb c6 46 95 3d 87 7b f5 bd
       -0.040001154 -0.0024526096 0.072888896 -0.119864516
0001b0 53 00 31 bd 02 9a 0b be 67 3a a7 3c aa 08 89 bc
       -0.0432132 -0.13632968 0.02041359 -0.016727764
0001c0 10 13 a4 3d ab 60 e7 3d e4 a4 f7 bd 02 2e 80 bd
       0.080114484 0.11297735 -0.12091997 -0.06258775
0001d0 69 3e ba bc 97 d7 b8 ba 1b 3a 04 bd b0 1a b6 bd
       -0.022734838 -0.0014102337 -0.032281976 -0.08891809
0001e0 80 d3 5f bd 14 af 6e bb 23 ea e8 3d 70 a0 13 bd
       -0.05464506 -0.0036420273 0.11372783 -0.036041677
0001f0 22 45 bf 3d 8a 1f ea bd d2 3b cf 3b 11 05 e2 bd
       0.09339358 -0.11431797 0.00632427 -0.110361226
000200 d7 e3 07 be d7 9f 65 3c 7d 9e 84 bd fc 3a d5 3d
       -0.13270508 0.01401516 -0.06475542 0.10411641
000210 9f c4 e4 3d 66 23 10 be f6 79 21 bc ab eb c5 bc
       0.11170315 -0.14076003 -0.009855738 -0.024160227
000220 26 15 a5 bd 27 34 ca bd 81 21 75 bd 49 bf 7f 3d
       -0.08060674 -0.098732285 -0.059846405 0.062438283
000230 65 ba 09 3d f9 50 ae 3d 57 30 0a bc 7d 6d 96 3d
       0.033625025 0.08511538 -0.008434377 0.07345102
000240 72 08 e0 3c 18 a0 fc bc cd 74 07 bc 6f b5 03 be
       0.027347777 -0.030838057 -0.008267594 -0.1286218
000250 85 d8 54 bb ee 4b 3e bd 62 da 41 bd c2 a8 68 bd
       -0.0032477689 -0.04645913 -0.047327407 -0.056801565
000260 01 4b fd bc fa d3 d5 bd 0a f8 07 3c ce 54 bc bb
       -0.030919554 -0.10440822 0.008298883 -0.005747414
000270 44 90 18 bd a3 6b fb 3d 4a 60 c2 3d 4b 98 23 3d
       -0.037246957 0.122763894 0.09491022 0.03994016
000280 e9 5a 55 bd eb c3 93 3c 06 48 c7 bd 93 cf c9 3d
       -0.05208865 0.018037757 -0.09730534 0.09854045
000290 0c 43 07 3e f0 f8 ac bc 80 5d df 3d bc e8 07 3e
       0.1320917 -0.021114796 0.109065056 0.13272375
0002a0 96 38 0b bc 56 18 57 bd 26 e0 e9 3b 55 74 bf 3c
       -0.008497378 -0.052513443 0.0071373163 0.023370901
0002b0 3a 0d 06 be b0 8a 10 bc 34 71 51 bd fd 44 c1 3d
       -0.13090983 -0.008822128 -0.05113335 0.094369866
0002c0 68 06 85 bb f4 8e be 3d b7 cf 00 3e b6 89 35 bd
       -0.0040596016 0.0930461 0.12579237 -0.044320785
0002d0 78 60 f9 3c b6 34 46 bc 40 71 7c bd cb aa a0 bd
       0.030441508 -0.012097528 -0.06163144 -0.07845076
0002e0 2b 77 56 3b b1 fe 2f 3d 18 c3 cb bc 3a be c4 3c
       0.0032724838 0.042967502 -0.024873301 0.024016488
0002f0 21 ff b4 3d ce 7b 71 3d 13 df 6e 3d 2e cb 22 3d
       0.088377245 0.05895596 0.05831821 0.03974455
000300 1b a5 de bd 6a 3a af bd b7 c8 d6 bd cc 53 be 3d
       -0.10871335 -0.085560635 -0.10487502 0.09293327
000310 0b 19 ff bd 7c 3b d8 bd 69 bd be 3d f0 33 ab 3d
       -0.124559484 -0.10558221 0.09313471 0.08359516
000320 92 e5 08 be 8b 5a a7 3d b9 2c 04 bd 6d 99 f9 3c
       -0.13368824 0.081715666 -0.032269213 0.030468667
000330 54 6f b5 bd 23 dd af bc a3 be 00 3d 20 d7 dc 3d
       -0.08859125 -0.02146775 0.031431805 0.10783219
000340 b7 a1 af 3d cc 7e 9d bd d3 fa bd bd 3f 00 0d bc
       0.085757665 -0.076902 -0.092763565 -0.008606016
000350 ea cb 35 3d e3 cd 9e 3d 1e 4f 10 be 2c 58 3d bc
       0.04438392 0.077541135 -0.14092681 -0.011556666
000360 f1 df a3 3b 54 43 87 bd 55 71 e4 3d c1 c3 19 bd
       0.005001061 -0.06604639 0.11154429 -0.0375402
000370 13 11 0a be 9f ee ac bd 41 95 94 3b cf 88 d7 bd
       -0.13483076 -0.08443951 0.004534394 -0.10524141
000380 5a 4f 04 3d 7c e0 0c 3e 61 b4 bd 3b 1c b4 0e bd
       0.032302238 0.13757509 0.005789325 -0.034839734
000390 7e 6e 08 3e 16 d1 d5 3d 12 77 c0 3d 9f c2 2f 3c
       0.133234 0.104402706 0.09397711 0.010727554
0003a0 87 da d3 3b db 9d e0 bd 6b dc 6b 3c f9 da 0c 3e
       0.0064652595 -0.109676085 0.014395813 0.13755406
0003b0 b8 fa f4 3b 2f 3b 01 be e3 f7 9e 3d 52 f7 01 3e
       0.007476177 -0.12620233 0.077621244 0.12692001
0003c0 66 cf f2 3d f0 90 da 3b df a4 d9 3c 0b 7c bb 3c
       0.11855964 0.00667011 0.026567874 0.022886297
0003d0 67 69 6d bd 95 0a a9 bc 67 48 ec 3d 65 64 6c 3c
       -0.057961848 -0.020634929 0.11537247 0.014428233
0003e0 8b 7c 08 3e 99 55 c0 bd 9f 50 a9 bc 40 de 73 bc
       0.1332876 -0.093913265 -0.020668326 -0.0148845315
0003f0 8e b3 b4 bd 7e 77 eb 3d 37 78 c4 3d 86 d1 99 bd
       -0.0882331 0.11497401 0.09593242 -0.075106665

hidden_layer_list.0.bias f4 [30]
000000 9c c5 cf bd 1c 62 3b bd e8 07 e8 bd 02 76 0a be
       -0.10145113 -0.04574786 -0.11329633 -0.13521579
000010 c5 f4 9c bd d9 8b 18 3b fe 25 9a 3d 05 c1 5a 3d
       -0.076638736 0.0023276715 0.07526778 0.053406734
000020 cf c8 6b 3d 37 0a fb 3d 49 9f c3 bb 4c 45 0f 3e
       0.057564553 0.12257808 -0.005969916 0.13991278
000030 d7 ae fc bd 31 9f 87 bd a9 cb e8 bd d9 96 c7 bd
       -0.123380356 -0.0662216 -0.1136697 -0.09745569
000040 87 81 d7 bd c0 32 09 be f4 ed 08 3e c0 ba ea 3c
       -0.10522752 -0.13398266 0.13372022 0.028653502
000050 f6 26 8c 3d cc ac 3b bd 18 92 fd 3c e6 49 9b bd
       0.06843369 -0.04581909 0.030953452 -0.075824544
000060 a2 68 0f be f1 1d 53 3c b8 b9 af 3d 37 de a8 bc
       -0.14004758 0.012885557 0.08580345 -0.020613773
000070 90 06 3c 3d bf 49 7b 3d
       0.045904696 0.061349627

output_layer.weight f4 [4, 30]
000000 69 01 08 3e 28 ac 30 be df 7d 9a bd 72 86 46 3c
       0.13281788 -0.17253172 -0.07543539 0.012117015
000010 db fe 33 3e 61 84 35 3e d8 2b 01 be 6a 61 03 be
       0.17577688 0.1772628 -0.12614381 -0.1283013
000020 f9 98 30 3e df 2f 4c bc de b6 d9 bd 28 2a bd bd
       0.17245854 -0.012462585 -0.10630582 -0.09236556
000030 bf 65 d9 3d bb 35 e8 3d d0 58 1d 3e 3c d8 17 bd
       0.1061511 0.11338373 0.1536591 -0.03707145
000040 4b d6 60 bd 78 25 0c bc 3e 85 22 3e dc b8 26 be
       -0.054891866 -0.008553855 0.1587114 -0.16281456
000050 b8 3d b9 3d cc 31 02 be e1 0a a3 bc 74 87 1d 3e
       0.09044975 -0.12714309 -0.019902648 0.15383703
000060 0b 76 85 bd b9 3e 9a bd ac 7a d2 bc 06 5c a7 3d
       -0.065166555 -0.07531495 -0.02569326 0.08171849
000070 5b ad 13 3e 5f 1d 35 be a0 25 13 3e 20 5c 7f bd
       0.14421599 -0.17686985 0.14369822 -0.062343717
000080 7a 8c d3 3c d4 76 ce bd cd ee 3c 3d f3 1d 2f be
       0.02582382 -0.100812584 0.046126176 -0.17101268
000090 3c f1 ed bd 2f ab b5 bd e0 ca f1 3d 88 ed 47 3d
       -0.116182774 -0.08870541 0.118062735 0.04881051
0000a0 32 10 04 be a6 db e4 3c be b6 35 3e 90 98 34 be
       -0.12896803 0.027936768 0.17745492 -0.17636323
0000b0 6b 2c 23 3e 96 c1 11 3e a6 69 24 3c 21 d5 bd bd
       0.15934913 0.14234003 0.010034954 -0.09269167
0000c0 2a 48 ae 3d c0 d0 b6 3d 2e f0 8d bd 9b c3 d3 bd
       0.08509858 0.08926535 -0.06930576 -0.10340043
0000d0 b6 e9 fc bd f2 15 8e bd e5 c4 1b 3d c9 6f a0 3d
       -0.12349264 -0.069377795 0.03802957 0.07833821
0000e0 56 da 90 bc 5e 67 2a 3e 0a fc 5a 3d e7 6f 63 3d
       -0.017682236 0.16640994 0.05346302 0.05552664
0000f0 9b 75 b9 bd 5f 54 5a bd 06 64 f9 3d 26 44 bf 3d
       -0.090556346 -0.05330312 0.12177281 0.0933917
000100 3f ff af bc 85 f2 01 be df 8d 30 be 1f 02 4e 3c
       -0.021484016 -0.1269017 -0.1724162 0.012573748
000110 90 49 f4 bd aa 1f f9 bc 0f 1a f9 bc ce ba 31 be
       -0.119280934 -0.030410606 -0.030407934 -0.17356417
000120 b2 55 01 3e b8 9f 0a bd 9c 10 38 be b0 a5 2a be
       0.12630346 -0.033843726 -0.17975086 -0.16664767
000130 08 fa 14 be 80 9e 92 bd 4c a8 59 bc 23 8f 94 3d
       -0.14548504 -0.07159138 -0.013284754 0.07253864
000140 fb 20 f1 bb 37 e5 32 be 88 ac 19 be 26 3c bf bd
       -0.007358668 -0.17470251 -0.15007222 -0.09337644
000150 52 ca 12 3e bc 89 08 bc 92 84 23 be b3 e2 a5 bd
       0.14334992 -0.00833362 -0.1596854 -0.0809988
000160 1c 16 09 be 3e 40 c5 3c 9e c6 7e bc 41 1f ec bc
       -0.1338734 0.024078485 -0.015550284 -0.028823497
000170 10 08 11 3e fd 38 e2 bd 4f 01 9e 3c 30 ee 99 bd
       0.14163232 -0.11046026 0.019287733 -0.07516134
000180 d0 d5 02 3d 0d 16 0d be 7b a4 97 bd dd 2d ae 3d
       0.03194219 -0.13777943 -0.07404419 0.085048415
000190 98 69 f9 bd 5d 3c ad bd 0c 4b c5 bc 6d 21 12 be
       -0.121783435 -0.08458779 -0.024083637 -0.14270563
0001a0 d1 e2 f0 bd d2 71 72 bd 1f 89 af bc c3 c9 20 bd
       -0.11762012 -0.05919058 -0.02142769 -0.039254915
0001b0 3f 06 11 3c 1f 23 2e be fb 82 fd bc eb 2d 24 be
       0.008851587 -0.17005585 -0.030946245 -0.16033141
0001c0 37 75 cf 3d 1b 38 2a 3e 9c ab 13 be f2 a1 06 be
       0.10129779 0.16622965 -0.14420933 -0.13147715
0001d0 b0 92 41 3e 8d 41 05 3e aa 14 ab 3d e9 3c ef bd
       0.18903613 0.13013287 0.08353551 -0.116815396

output_layer.bias f4 [4]
000000 6b 89 62 3d 13 08 8b bb 4d 0b 0b 3e 1f a5 e6 3d
       0.055306833 -0.004242906 0.1357853 0.11261963
