K-Digital Training/김소현 강사님/Pytorch/숙제/language_model/best_model_epoch_106.pth (torch, 14536 bytes, 6 tensors)

input_layer.weight f4 [50, 26]
00000000: 0df4 ce3d 1a47 b1bd 32ba 1bbd 2485 bc3d
00000010: e60f 3dbe bbdf f03d e741 25bd ba55 cc3d
00000020: a657 df3c 7cb7 c4bc 3dcd 5e3d e182 1e3c
00000030: 40b1 923d 9485 9cbd 9c44 6abc eca2 90bc
00000040: 53dd e83c 6260 4dba 7f8d 2f3e f8f9 793d
00000050: 4f93 95bd 1d94 f2bd eea4 06bd 073f adbd
00000060: f2b4 80bd 01da 193c e5f6 1f3f 136c 043f
00000070: 1c9d 26bf 075b 13be 1552 f3be 34b8 a0bd
00000080: d57f 753f 4694 c1bd 5c90 2fbd f009 f7be
00000090: 206b 253f b1e9 2dbe ed5e 9d3e f73a 7c3e
000000a0: 1fc4 993e a2c5 ad3c cb9d 89bf 49d2 4dbe
000000b0: 2e34 21be d9d7 e43c 5549 c2be a7c9 f9be
000000c0: 0b47 943e f105 84bf ad8f 213f ca87 143f
000000d0: 8232 923e 3664 9e3e 1070 6dbb e22d 823f
000000e0: 27bf 243f 36ee 08be bd5a 95be 28c4 b7bd
000000f0: a926 583e f0c9 a03f 7b10 4e3f 45a2 b73e
00000100: eaf8 963e bad4 543c 884a c9be 956c da3e
00000110: 86b3 e23e 81d4 ea3e 30d6 933e 726f 3e3e
00000120: 9e51 783f c972 6f3d baab 34bf 83cd cf3e
00000130: ecfe 53bf e26f 26bf 01ec 20bf 9a45 44be
00000140: 88e7 063f a66e fcbc 0a01 ed3e 51df 053f
00000150: 37f1 f4be f16e 5e3e b407 76be 076b 0abd
00000160: aa15 56bf ccab b23e c10b 3bbe 75f5 a8be
00000170: 347c a23e e586 7abd ac9f 453f 26c3 9f3d
00000180: 2264 703e 76eb 863e 51f2 c7bd 2580 073f
00000190: 273e d33e fb95 633f 2a9a f7bd 9905 04bf
000001a0: 238c 00bf ded8 aabe bacf 0e3f a679 113f
000001b0: 7ca3 563f 939c bc3e 8885 36bf f338 483e
000001c0: c94b 473e 5653 163f d625 1dbe b777 a23e
000001d0: e70e 913d 2ad0 1abe 1123 97be 7790 d0bd
000001e0: 5380 803f a619 dc3e 7ef6 a53e fa5c 993d
000001f0: f20d 173f eb33 c83e 1638 f5be e55b 5d3f
00000200: 9b51 3abf 7648 33bf 227f 9b3e ec0c 203f
00000210: c454 303e 4aa2 543f aa47 293f 1ebd 3c3f
00000220: 93e9 5c3e 8a29 5b3f a4ff 943e fc19 e13e
00000230: f52b 0c3f 36d8 373e 50be ab3e e877 aa3e
00000240: 90eb ec3d 7428 bd3e fe8c 8abe cd0c 203f
00000250: d8f6 af3e d35b 323f 3477 0f3f f1cc 4d3e
00000260: db2f 133f 9ee7 edbd 2571 abbe fd85 62bf
00000270: 95a4 eabd 0bcb abbd 6cc7 0e3e 1040 83bd
00000280: 3a12 16be 7f88 9a3d 4398 803d 3612 023e
00000290: 2dd7 cfbd 6a2a 2e3d 2c38 92bd b57a 34bd
000002a0: 1b0a 20be f30d b7bd a803 76bd 09c2 ab3d
000002b0: bec0 123d 1e6d 463d 4171 483e 40ba 433e
000002c0: 80f8 083e 21a3 cc3b 75ed 0abe eff1 1c3e
000002d0: b6df 48bd 83e2 81bc 88a6 f5be 74ca 53be
000002e0: c189 443e e47c 543f f018 113f 5f4f a23d
000002f0: dcc1 40bf 2aaf 62be 7a7a de3d b009 633f
00000300: f27a 13be 9b27 4c3e 4ad9 0f3e 1619 c1be
00000310: 21a5 33be 5ae5 6e3e 6128 b83f d05f 9c3e
00000320: c94e 3d3e a4bb 77b9 441d 4d3f 7f2c d73e
00000330: 0136 e0be 15cd 703f 2750 7abf 4561 52bf
00000340: bddc 043f ceaf e63e c8f6 89be 6c24 d7be
00000350: 32c2 4cbf 0efd 37bd c921 843f 983d b23e
00000360: f0a7 8c3e 4052 6cbf ca74 553e fe67 0b3e
00000370: 7499 6c3d a3ef 133f d914 3a3e a354 02bd
00000380: 2ddb 86bf e735 e2be 7f61 19bd 36fc 003e
00000390: 6199 73be 1196 88be fea1 0b3f bd61 83bf
000003a0: 3179 983f ded6 4e3f c8ae dcbe 65a4 62be
000003b0: d08e 553e 337c 283f 5a7c 4f3f 056d 8d3c
000003c0: d12f 79bf a42f 85be ce81 ad3d 527e 3b3f
000003d0: 735b 47be 6afc 743e eddc 4cbe b8a7 bfbe
000003e0: 1de6 b5be 8126 873e 78be bf3f c16b 983e
000003f0: 02b6 1a3e a6aa 4a3e fac3 233f 597c d43e
0.10105143 -0.0865614 -0.038019367 0.09205082 -0.18463096 0.11761423 -0.040346052 0.099772885
0.027263474 -0.024013273 0.05439495 0.009674759 0.07162714 -0.076426655 -0.014298584 -0.017655812
0.028425848 -0.00078344916 0.1714382 0.061029404 -0.073034875 -0.118446566 -0.032872133 -0.08459287
-0.062845126 0.009390355 0.62486106 0.5172741 -0.6508348 -0.14390193 -0.4752356 -0.07847634
0.9589818 -0.09452109 -0.04286228 -0.4824977 0.64616585 -0.16983677 0.30736485 0.24631868
0.3003244 0.021212403 -1.075128 -0.20099749 -0.15742561 0.027934955 -0.37946573 -0.4878666
0.2896045 -1.0314313 0.63109857 0.580197 0.2855416 0.3093583 -0.0036230125 1.0170252
0.64354175 -0.1337212 -0.2917079 -0.08972961 0.21108498 1.2561626 0.804939 0.3586599
0.2948678 0.012990171 -0.39314675 0.42660967 0.4427759 0.45865253 0.2887435 0.185972
0.9699954 0.058459077 -0.70574534 0.4058648 -0.82810855 -0.6501447 -0.62860113 -0.19167176
0.5269704 -0.03081448 0.46289855 0.5229388 -0.47840282 0.21722008 -0.24026376 -0.033793475
-0.83626807 0.34896696 -0.18266203 -0.3299977 0.31735384 -0.0611638 0.77196765 0.078008935
0.23475698 0.26351517 -0.09763015 0.5292991 0.41258356 0.8890073 -0.12089951 -0.5157104
-0.5021383 -0.33368582 0.55785716 0.56826246 0.8384321 0.36838207 -0.712975 0.19552974
0.19462503 0.5872091 -0.15346465 0.3173196 0.070829205 -0.15118471 -0.2951894 -0.101838045
1.0039161 0.42988318 0.3241462 0.07488437 0.59005654 0.3910211 -0.47894353 0.86468345
-0.7278077 -0.7003244 0.30370432 0.6251972 0.17219836 0.83060133 0.66124976 0.7372607
0.21573476 0.8561026 0.29101288 0.43965137 0.54754573 0.17953572 0.33543634 0.33294606
0.115683675 0.36944926 -0.27060694 0.6251953 0.34368014 0.6967136 0.56041265 0.2009771
0.57494897 -0.11616443 -0.3348476 -0.884857 -0.11457173 -0.08388337 0.13943261 -0.06408703
-0.1465539 0.07545566 0.062790416 0.1270226 -0.101484634 0.042520918 -0.0713962 -0.044062335
-0.15628855 -0.089382075 -0.06006208 0.08386619 0.035828345 0.048443906 0.19574453 0.19114017
0.13376045 0.0062450324 -0.13567145 0.15326665 -0.049041472 -0.01585508 -0.47978616 -0.20682698
0.19193174 0.8300307 0.56678677 0.07925295 -0.75295806 -0.22137132 0.10863204 0.88686657
-0.14402369 0.19936983 0.14047733 -0.37714452 -0.1754346 0.23329678 1.4387323 0.3054185
0.18487085 -0.00023625657 0.8012278 0.42026135 -0.43791202 0.9406293 -0.9777855 -0.8217967
0.5189932 0.45056003 -0.26946092 -0.42019975 -0.7998382 -0.044919066 1.032281 0.34812617
0.27471876 -0.92313004 0.20845333 0.13613889 0.05776353 0.5778753 0.18172015 -0.031818997
-1.0535637 -0.4418175 -0.037446495 0.12596211 -0.23788978 -0.26676992 0.54544055 -1.0264202
1.1911985 0.8079661 -0.43102098 -0.22133024 0.2085526 0.6581451 0.8104912 0.017263899
-0.9733859 -0.2601291 0.08472024 0.73239625 -0.19468479 0.23924413 -0.20006151 -0.37432647
-0.35527125 0.26396564 1.4980001 0.2976971 0.15108493 0.1979166 0.6397091 0.4150112

input_layer.bias f4 [50]
00000000: 712c 14bd 1c47 8f3d 9037 b03e 57f1 e13d
00000010: 1065 c23d 9bc2 073f 2454 acbd 971f 093e
00000020: 6340 773d 5f81 223e 79a9 323d a500 2bbe
00000030: ce79 653c ca14 b43e a54f 033e e9df fb3d
00000040: d92a 363a 278d f93e 88c1 d63d 2867 33be
00000050: 4638 0fbe 63ee 3d3c 10df bfbc 1297 5a3e
00000060: e4d5 3cbd 03c6 3d3e 095e 29be 72dd 3ebe
00000070: 2044 2b3d 3250 febd 5442 6abd 0b42 cb3d
00000080: b732 2ebe ac49 993e cdc1 f3bd 00b9 b53e
00000090: baf9 6e3e 11a6 16bd 02c0 2fbe 5fdd a93c
000000a0: fd61 e0bd 5a70 683e 48f1 28be 4d1b 0c3d
000000b0: e05a ddbd 2629 01be 857c d1bd 1847 9fbc
000000c0: ac71 9e3d 2c39 393e
-0.036175195 0.06995985 0.3441739 0.1103236 0.094919324 0.5303132 -0.08414486 0.13390957
0.06036414 0.15869664 0.043618653 -0.16699465 0.014006091 0.3517211 0.1282335 0.12298567
0.0006949134 0.48740503 0.10486132 -0.1751982 -0.1398631 0.01159248 -0.023421794 0.21346691
-0.04610242 0.18532567 -0.16539778 -0.18639162 0.041813016 -0.1241764 -0.05719216 0.09924706
-0.17011534 0.2993902 -0.11902199 0.35492706 0.2333745 -0.036779467 -0.17163089 0.02073544
-0.1095619 0.22699109 -0.16498291 0.034205724 -0.10808349 -0.12613353 -0.10228828 -0.01944308
0.07736525 0.18088216

hidden_layer_list.0.weight f4 [30, 50]
00000000: 4700 943d 6249 adbe 79e0 103e 1ba1 253f
00000010: 29c8 363f ab96 133e 57d4 f3bd 87ca 3d3f
00000020: b503 c4be 4677 2a3f 2039 a1be 0f13 ca3d
00000030: b3e1 83bd 9be7 cd3d 05c8 b9bd 076e 14be
00000040: 8dcb b63d 9614 963e efb5 033f 32d1 06bd
00000050: 9c4a acbd c605 57bd c70c c5bd 8cab cc3e
00000060: 649f 0b3e 975c 493f 24c6 da3d d345 653c
00000070: 9879 253f 49c5 bf3d 6afa ab3d e584 c4be
00000080: 3181 12bd 8221 7c3e 15cc a0bb 8b61 76bd
00000090: 8cd5 b1bd 39e3 ea3d 6934 f13d 40b7 61bd
000000a0: 0c9e f8bc 5e28 9c3e 131d 3dbd 577d 3a3f
000000b0: a2cc 00be 2435 8a3d 8b28 02be 4f2e 8abd
000000c0: c76a 163f 3f1d b3bd 4c24 bcbc f764 84bd
000000d0: 952f 81bd e729 b0bd fd29 cabd 4172 b4bd
000000e0: 2cde 0a3e 3b77 88bd 88da f0bd 6b10 c73d
000000f0: d9ba 603d 1d3a c73d 160c 10be e5d8 09be
00000100: 8490 cdbd 1d94 98bd a147 a3b9 8690 7a3d
00000110: 6091 a93d ee1c f9bd 3404 673d fc7e a7bd
00000120: 3126 053d 87de 353d 8866 b93c 20f2 4c3d
00000130: 9c63 e7bb f935 bf3d cb9f f13c 3ebe fd3d
00000140: ba21 fb3c d652 99bd 2600 ba3d 120e fb3b
00000150: 98f4 0b3e 381f 80bc 5548 0f3e 5313 a9bd
00000160: 3690 913d eb10 d8bd 64d7 c63d 5b4c d23c
00000170: 4e6f a43d 816c f9bd 360e 10be 1d8e 8b3d
00000180: dc50 6ebd 9b69 653d b3d5 abbd 0512 33bd
00000190: 0d16 263a d86a ae3d 3e8f a33d 36f9 4ebc
000001a0: 40d8 23bd f6bb 20bb c646 953d 877b f5bd
000001b0: 5300 31bd 029a 0bbe 673a a73c aa08 89bc
000001c0: 1013 a43d ab60 e73d e4a4 f7bd 022e 80bd
000001d0: 693e babc 97d7 b8ba 1b3a 04bd b01a b6bd
000001e0: 80d3 5fbd 14af 6ebb 23ea e83d 70a0 13bd
000001f0: 2245 bf3d 8a1f eabd d23b cf3b 1105 e2bd
00000200: d7e3 07be d79f 653c 7d9e 84bd fc3a d53d
00000210: 9fc4 e43d 6623 10be f679 21bc abeb c5bc
00000220: 2615 a5bd 2734 cabd 8121 75bd 49bf 7f3d
00000230: 65ba 093d f950 ae3d 5730 0abc 7d6d 963d
00000240: 7208 e03c 18a0 fcbc cd74 07bc 6fb5 03be
00000250: 85d8 54bb ee4b 3ebd 62da 41bd e9e3 98bd
00000260: f4cf 47bd 9e68 fabd 63b0 1cbc 7d6a c1bc
00000270: 4490 18bd a4d6 d63d 82cf 9d3d 89dc b43c
00000280: fd3f 8fbd ebc3 933c 0648 c7bd 583a a53d
00000290: 0cf2 e93d 77a4 1fbd 805d df3d 203c eb3d
000002a0: c7ee d7bc 5618 57bd 26e0 e93b 5574 bf3c
000002b0: 3a0d 06be 639a dabc 3471 51bd 35b0 9c3d
000002c0: 6806 85bb f48e be3d 700a dd3d b689 35bd
000002d0: 7860 f93c dd62 f5bc 4071 7cbd dd3f c5bd
000002e0: 2b77 563b c2a8 cd3c 900b 2fbd 3abe c43c
000002f0: 21ff b43d ce7b 713d 13df 6e3d 6041 b33c
00000300: 1ba5 debd 6ecf d3bd b7c8 d6bd cc53 be3d
00000310: 0b19 ffbd 7c3b d8bd 6028 9a3d 289f 863d
00000320: 92e5 08be 8b5a a73d b92c 04bd 6d99 f93c
00000330: 546f b5bd 23dd afbc a3be 003d 20d7 dc3d
00000340: b7a1 af3d cc7e 9dbd d3fa bdbd 3f00 0dbc
00000350: eacb 353d e3cd 9e3d 1e4f 10be 2c58 3dbc
00000360: f1df a33b 5443 87bd 5571 e43d c1c3 19bd
00000370: 1311 0abe 9fee acbd 4195 943b cf88 d7bd
00000380: 5a4f 043d 7ce0 0c3e 61b4 bd3b 1cb4 0ebd
00000390: 7e6e 083e 16d1 d53d 1277 c03d 9fc2 2f3c
000003a0: 87da d33b db9d e0bd 6bdc 6b3c f9da 0c3e
000003b0: b8fa f43b 2f3b 01be e3f7 9e3d 52f7 013e
000003c0: 66cf f23d f090 da3b dfa4 d93c 0b7c bb3c
000003d0: 6769 6dbd 950a a9bc 6748 ec3d 6564 6c3c
000003e0: 8b7c 083e 9955 c0bd 9f50 a9bc 14ba 00bf
000003f0: 39d0 c73c 0d58 293f d52a ca3e d4ea d63d
0.072266154 -0.3384505 0.1414813 0.6469895 0.7139917 0.14412944 -0.11905735 0.7413716
-0.38284078 0.66588247 -0.31488895 0.098669164 -0.06439533 0.10053941 -0.09071354 -0.14495097
0.08925543 0.2931258 0.51449484 -0.032914348 -0.08412668 -0.05249574 -0.09621578 0.3997463
0.13635021 0.78656906 0.106823236 0.013993698 0.6463866 0.09363801 0.08397372 -0.3838264
-0.035767738 0.24622157 -0.004907141 -0.060151618 -0.08683309 0.114691205 0.117775746 -0.0551064
-0.0303488 0.30499548 -0.046170305 0.72847503 -0.12578061 0.06748417 -0.12710778 -0.06747114
0.5875668 -0.087458126 -0.022966526 -0.0646457 -0.06307904 -0.08601742 -0.0987129 -0.08810855
0.13561314 -0.066633664 -0.117604315 0.09719928 0.05486569 0.09727881 -0.1406711 -0.13461645
-0.1003733 -0.07450125 -0.0003114315 0.061172985 0.08279681 -0.12163721 0.056400493 -0.08178517
0.032507125 0.04440167 0.022631899 0.050035596 -0.007061435 0.09336466 0.02949514 0.123898014
0.03065573 -0.07486503 0.090820596 0.0076615894 0.13667524 -0.015639886 0.13992436 -0.08255639
0.07107584 -0.10550102 0.09709051 0.025671175 0.08029042 -0.121788986 -0.14067921 0.06814215
-0.058182582 0.056008916 -0.08390369 -0.043718357 0.0006335683 0.085164726 0.07986306 -0.012632659
-0.040001154 -0.0024526096 0.072888896 -0.119864516 -0.0432132 -0.13632968 0.02041359 -0.016727764
0.080114484 0.11297735 -0.12091997 -0.06258775 -0.022734838 -0.0014102337 -0.032281976 -0.08891809
-0.05464506 -0.0036420273 0.11372783 -0.036041677 0.09339358 -0.11431797 0.00632427 -0.110361226
-0.13270508 0.01401516 -0.06475542 0.10411641 0.11170315 -0.14076003 -0.009855738 -0.024160227
-0.08060674 -0.098732285 -0.059846405 0.062438283 0.033625025 0.08511538 -0.008434377 0.07345102
0.027347777 -0.030838057 -0.008267594 -0.1286218 -0.0032477689 -0.04645913 -0.047327407 -0.074653454
-0.048782304 -0.122269854 -0.009563538 -0.023610348 -0.037246957 0.10490158 0.077055946 0.022077816
-0.06994627 0.018037757 -0.09730534 0.08067769 0.1142312 -0.038975205 0.109065056 0.11486077
-0.026358975 -0.052513443 0.0071373163 0.023370901 -0.13090983 -0.026684945 -0.05113335 0.07650796
-0.0040596016 0.0930461 0.107930064 -0.044320785 0.030441508 -0.029954368 -0.06163144 -0.096313216
0.0032724838 0.025104884 -0.042735636 0.024016488 0.088377245 0.05895596 0.05831821 0.02188176
-0.10871335 -0.103422984 -0.10487502 0.09293327 -0.124559484 -0.10558221 0.07527232 0.065733254
-0.13368824 0.081715666 -0.032269213 0.030468667 -0.08859125 -0.02146775 0.031431805 0.10783219
0.085757665 -0.076902 -0.092763565 -0.008606016 0.04438392 0.077541135 -0.14092681 -0.011556666
0.005001061 -0.06604639 0.11154429 -0.0375402 -0.13483076 -0.08443951 0.004534394 -0.10524141
0.032302238 0.13757509 0.005789325 -0.034839734 0.133234 0.104402706 0.09397711 0.010727554
0.0064652595 -0.109676085 0.014395813 0.13755406 0.007476177 -0.12620233 0.077621244 0.12692001
0.11855964 0.00667011 0.026567874 0.022886297 -0.057961848 -0.020634929 0.11537247 0.014428233
0.1332876 -0.093913265 -0.020668326 -0.5028393 0.02439128 0.6614998 0.39485803 0.10494009

hidden_layer_list.0.bias f4 [30]
00000000: 7260 923b 1c62 3bbd e807 e8bd bcc0 1cbe
00000010: c5f4 9cbd 7b46 c73d aab7 863e 7cbb 6f3e
00000020: 0d51 0c3e 3f21 953e 499f c3bb e778 243e
00000030: d7ae fcbd 319f 87bd f7d2 08be d996 c7bd
00000040: ca1e 8abd 6381 bfbc c9c2 603e 56fb cd3d
00000050: dd9e 673e 1690 c53d 680a 533e e649 9bbd
00000060: a268 0fbe f11d 533c d15c 923e b088 1dbb
00000070: 46a9 9b3d 6fb0 023e
0.0044670636 -0.04574786 -0.11329633 -0.15307897 -0.076638736 0.0973024 0.26312 0.23411363
0.13702793 0.29126927 -0.005969916 0.16061746 -0.123380356 -0.0662216 -0.13361727 -0.09745569
-0.06744154 -0.023377126 0.21949305 0.10057704 0.22619195 0.09646623 0.20609438 -0.075824544
-0.14004758 0.012885557 0.28586438 -0.002403777 0.07600646 0.12762617

output_layer.weight f4 [4, 30]
00000000: 2b1a 3b3e 28ac 30be df7d 9abd d622 b8bb
00000010: dbfe 333e e1fb b83e 18b1 9abe 97ef 2dbf
00000020: 6405 843e 196e 11bd deb6 d9bd 4d51 b0bd
00000030: bf65 d93d bb35 e83d 202f 0c3e 3cd8 17bd
00000040: 47d4 88bd 7587 64bd 213b 4e3e ebd3 41be
00000050: 1ffc 7f3e c6d6 afba 0a0a 5fbe 7487 1d3e
00000060: 0b76 85bd b93e 9abd cdc2 c0be a22c 2f3e
00000070: 1346 ab3e d534 a9be 71fd 803e 205c 7fbd
00000080: 7a8c d33c 5514 aabd cdee 3c3d 06a1 e83d
00000090: 62ed a6bf 9f48 66bf 2d4f c33e cc1b 86bf
000000a0: 3210 04be 3063 a63e beb6 353e 9098 34be
000000b0: 1e6f 123e 96c1 113e 85a9 523e fb13 d8bf
000000c0: b959 993e c72a a73e d966 443e 0987 4b3e
000000d0: a618 bcbf f215 8ebd e5c4 1b3d c96f a03d
000000e0: c269 acbf af63 103f a1b7 b23e 5fd8 963e
000000f0: cbca 13be 5f54 5abd 0664 f93d 26e5 9b3d
00000100: 3fff afbc 1102 9fbe e276 9f3d 5c55 cf3e
00000110: 3c60 5bbe 3ac3 1c3e 0f1a f9bc b8d2 2bbf
00000120: b255 013e b89f 0abd 4e25 27be b0a5 2abe
00000130: 1fde 20bf f833 30be 5433 333d 6eb3 a43e
00000140: 5806 10bd d086 3bbe 7303 c63d 263c bfbd
00000150: 52ca 123e bc89 08bc 5a9e 243e 18c6 4ebf
00000160: b044 6fbf 2c42 bc3e ac97 8bbf 411f ecbc
00000170: 1008 113e f324 02be 4f01 9e3c cf5e 86bf
00000180: 761f d23e a6a9 663e e3db 66bf af2b d93e
00000190: 9869 f9bd 96c0 9abe 0c4b c5bc 6d21 12be
000001a0: dd4e 09be d271 72bd 5409 9bbe 0c34 cd3e
000001b0: 153d 34bf 24ee 65bf 8ddf 7bbf 4568 95bf
000001c0: 7ee2 133f 1b38 2a3e 9cab 13be f2a1 06be
000001d0: d426 283f 0402 b9be e4ce b0be 17c4 3bbf
0.18271701 -0.17253172 -0.07543539 -0.005619387 0.17577688 0.36129668 -0.30213237 -0.6794371
0.25785363 -0.035505388 -0.10630582 -0.08609257 0.1061511 0.11338373 0.13689852 -0.03707145
-0.06681114 -0.055793244 0.20139743 -0.18928497 0.2499852 -0.0013415448 -0.21781173 0.15383703
-0.065166555 -0.07531495 -0.3764862 0.1710687 0.334519 -0.3304812 0.2519336 -0.062343717
0.02582382 -0.08304659 0.046126176 0.11358838 -1.3041193 -0.8995456 0.38146344 -1.0477233
-0.12896803 0.3249755 0.17745492 -0.17636323 0.143002 0.14234003 0.20572479 -1.6881098
0.29951265 0.32649824 0.19179858 0.1987573 -1.4695022 -0.069377795 0.03802957 0.07833821
-1.3469775 0.56402105 0.34905723 0.29461953 -0.14432828 -0.05330312 0.12177281 0.07612066
-0.021484016 -0.31056264 0.07786347 0.40494812 -0.21423429 0.15308848 -0.030407934 -0.67118406
0.12630346 -0.033843726 -0.16322824 -0.16664767 -0.6283893 -0.17207325 0.043750122 0.32168144
-0.0351623 -0.18313146 0.09668627 -0.09337644 0.14334992 -0.00833362 0.16076031 -0.8077102
-0.93464184 0.36769235 -1.0905662 -0.028823497 0.14163232 -0.12709408 0.019287733 -1.0497683
0.41039628 0.22525653 -0.9017927 0.4241614 -0.121783435 -0.30225056 -0.024083637 -0.14270563
-0.1340899 -0.05919058 -0.30280554 0.4007877 -0.70405704 -0.898165 -0.98387986 -1.1672446
0.57767475 0.16622965 -0.14420933 -0.13147715 0.65684247 -0.3613435 -0.34532845 -0.73346084

output_layer.bias f4 [4]
00000000: 8f7d d13c 857b 03bd 158a 6e3e 337c 9d3d
0.025572566 -0.03210022 0.23294862 0.07689705
