K-Digital Training/김소현 강사님/Pytorch/숙제/language_model/best_model_epoch_119.pth (torch, 14536 bytes, 6 tensors)

input_layer.weight f4 [50, 26]
0	0x3dcef40d	0.10105143
1	0xbdb1471a	-0.0865614
2	0xbd1bba32	-0.038019367
3	0x3dbc8524	0.09205082
4	0xbe3d0fe6	-0.18463096
5	0x3df0dfbb	0.11761423
6	0xbd2541e7	-0.040346052
7	0x3dcc55ba	0.099772885
8	0x3cdf57a6	0.027263474
9	0xbcc4b77c	-0.024013273
10	0x3d5ecd3d	0.05439495
11	0x3c1e82e1	0.009674759
12	0x3d92b140	0.07162714
13	0xbd9c8594	-0.076426655
14	0xbc6a449c	-0.014298584
15	0xbc90a2ec	-0.017655812
16	0x3ce8dd53	0.028425848
17	0xba4d6062	-0.00078344916
18	0x3e2f8d7f	0.1714382
19	0x3d79f9f8	0.061029404
20	0xbd95934f	-0.073034875
21	0xbdf2941d	-0.118446566
22	0xbd06a4ee	-0.032872133
23	0xbdad3f07	-0.08459287
24	0xbd80b4f2	-0.062845126
25	0x3c19da01	0.009390355
26	0x3f240e64	0.6408446
27	0x3f0b009f	0.5429782
28	0xbf29e09c	-0.6635835
29	0xbe19c8d2	-0.15018013
30	0xbefb4d44	-0.49082386
31	0xbdae51bd	-0.08511684
32	0x3f7dcf4a	0.99144423
33	0xbda366d1	-0.07978595
34	0xbd40b09e	-0.047043435
35	0xbf02f022	-0.51147664
36	0x3f27c5fc	0.65536475
37	0xbe41e145	-0.1893359
38	0x3e9e1ce3	0.30881414
39	0x3e80a3f7	0.25125095
40	0x3ea038b2	0.31293255
41	0x3c3ffdc4	0.011718217
42	0xbf91051a	-1.1329682
43	0xbe48fc85	-0.19627579
44	0xbe231b05	-0.15928276
45	0x3d144a6c	0.036203787
46	0xbecd803e	-0.40136904
47	0xbf00360e	-0.5008248
48	0x3ea3fdd5	0.32029596
49	0xbf894d20	-1.0726662
50	0x3f2c36d7	0.6727118
51	0x3f1e6d02	0.6188508
52	0x3e95a469	0.29226997
53	0x3ea9c336	0.33156747
54	0xbd56a72e	-0.05240553
55	0x3f8677d9	1.0505325
56	0x3f2a7fc9	0.66601235
57	0xbe1aded8	-0.1512407
58	0xbe9b0ba6	-0.30282325
59	0xbdb12305	-0.086492576
60	0x3e67dca6	0.22642764
61	0x3fa8abde	1.317745
62	0x3f5e0e61	0.8674069
63	0x3eb468d3	0.35236225
64	0x3ea33b7c	0.3188132
65	0x3c11f94c	0.008909535
66	0xbedf931c	-0.43666923
67	0x3ee363c2	0.44412047
68	0x3ee5cd3a	0.44883138
69	0x3ef57319	0.47939375
70	0x3e8da06b	0.27661452
71	0x3e440756	0.19143423
72	0x3f82936f	1.0201243
73	0x3d091ac7	0.033472802
74	0xbf3ef11f	-0.7458667
75	0x3ecdccfe	0.4019546
76	0xbf6186c3	-0.88096255
77	0xbf35df3c	-0.71043754
78	0xbf26239b	-0.6489808
79	0xbe5cbb12	-0.21555737
80	0x3f11790d	0.56825334
81	0xbd032e9b	-0.03202687
82	0x3ef76233	0.48317108
83	0x3f0e9385	0.55693847
84	0xbf024fc3	-0.50902957
85	0x3e6eddeb	0.23326842
86	0xbe759765	-0.23983534
87	0xbd5a250b	-0.053257983
88	0xbf65801c	-0.89648604
89	0x3ec12810	0.37725878
90	0xbe48eb46	-0.19621
91	0xbeab8c21	-0.33505347
92	0x3eac839a	0.33694154
93	0xbd73a629	-0.059484635
94	0x3f552c8d	0.83271104
95	0x3d94c54c	0.07264194
96	0x3e7c25c9	0.24623789
97	0x3e87accf	0.2649903
98	0xbdcd2418	-0.1001665
99	0x3f0dde41	0.5541726
100	0x3ed59a29	0.41719177
101	0x3f7504c6	0.9571041
102	0xbe0ab4c5	-0.1354552
103	0xbf0dec0a	-0.5543829
104	0xbf03065f	-0.51181597
105	0xbeb06004	-0.34448254
106	0x3f0f4da1	0.5597783
107	0x3f14b4b6	0.58088243
108	0x3f5b2d2d	0.8561581
109	0x3ebe91ec	0.37220705
110	0xbf3d3a9d	-0.7391756
111	0x3e3e6743	0.18594079
112	0x3e4e1c75	0.20128043
113	0x3f20f212	0.6286937
114	0xbe084327	-0.13306867
115	0x3ea92139	0.3303316
116	0x3d9c18bf	0.076219074
117	0xbe20b994	-0.15695792
118	0xbea1feb3	-0.31639633
119	0xbdb89a60	-0.0901382
120	0x3f867ee8	1.0507479
121	0x3edc5012	0.4302984
122	0x3ea4f621	0.3221903
123	0x3d8eb017	0.0696718
124	0x3f1ee386	0.62065923
125	0x3ecbc3ad	0.39797726
126	0xbf027c11	-0.5097056
127	0x3f65c782	0.8975755
128	0xbf46426c	-0.774451
129	0xbf3f6230	-0.747592
130	0x3e9ec3ea	0.31008846
131	0x3f2ad26f	0.66727346
132	0x3e1ec92d	0.1550643
133	0x3f5a0cdf	0.8517589
134	0x3f2dc89f	0.6788425
135	0x3f452d66	0.770224
136	0x3e59f128	0.212834
137	0x3f6ce2c4	0.92533517
138	0x3e987cec	0.29782808
139	0x3eed0f44	0.4630071
140	0x3f19a188	0.600121
141	0x3e23ebf7	0.16007982
142	0x3eb25e36	0.34837502
143	0x3ea419b6	0.32050866
144	0x3ddaf427	0.106910996
145	0x3ebfba76	0.37446946
146	0xbeac99ab	-0.3371099
147	0x3f25def4	0.64793324
148	0x3eab4622	0.33451945
149	0x3f3a0d31	0.7267638
150	0x3f158152	0.5840045
151	0x3e3956c0	0.18099499
152	0x3f2011f8	0.6252742
153	0xbe0a37cf	-0.13497852
154	0xbeba8929	-0.3643277
155	0xbf7b63eb	-0.9819934
156	0xbdeaa495	-0.11457173
157	0xbdabcb0b	-0.08388337
158	0x3e0ec76c	0.13943261
159	0xbd834010	-0.06408703
160	0xbe16123a	-0.1465539
161	0x3d9a887f	0.07545566
162	0x3d809843	0.062790416
163	0x3e021236	0.1270226
164	0xbdcfd72d	-0.101484634
165	0x3d2e2a6a	0.042520918
166	0xbd92382c	-0.0713962
167	0xbd347ab5	-0.044062335
168	0xbe200a1b	-0.15628855
169	0xbdb70df3	-0.089382075
170	0xbd7603a8	-0.06006208
171	0x3dabc209	0.08386619
172	0x3d12c0be	0.035828345
173	0x3d466d1e	0.048443906
174	0x3e487141	0.19574453
175	0x3e43ba40	0.19114017
176	0x3e08f880	0.13376045
177	0x3bcca321	0.0062450324
178	0xbe0aed75	-0.13567145
179	0x3e1cf1ef	0.15326665
180	0xbd48dfb6	-0.049041472
181	0xbc81e283	-0.01585508
182	0xbef9b9b6	-0.487745
183	0xbe613529	-0.21992935
184	0x3e435433	0.19075088
185	0x3f58078e	0.8438653
186	0x3f151979	0.58241993
187	0x3d9cd21f	0.07657265
188	0xbf474ff3	-0.7785637
189	0xbe76e74c	-0.2411167
190	0x3deecfb5	0.11660711
191	0x3f6eaff4	0.93237233
192	0xbdf2f8c9	-0.11863858
193	0x3e59efd7	0.21282898
194	0x3e17f877	0.14840876
195	0xbec2f736	-0.38079232
196	0xbe4c9d87	-0.19981967
197	0x3e7ccdd6	0.24687895
198	0x3fbe4da8	1.4867449
199	0x3e9c8b14	0.30574858
200	0x3e3b6da3	0.18303542
201	0xbc04e10c	-0.008110296
202	0x3f55a647	0.83456844
203	0x3eda6b4b	0.42659983
204	0xbef402b5	-0.47658315
205	0x3f7829ec	0.9693897
206	0xbf834a29	-1.0257007
207	0xbf5cd43f	-0.8626136
208	0x3f07c41d	0.5303362
209	0x3ef1df41	0.47240642
210	0xbe8bedfd	-0.27330008
211	0xbedc49ba	-0.43025
212	0xbf505b44	-0.8138926
213	0xbd30be07	-0.043149974
214	0x3f87bf9e	1.0605352
215	0x3ebe3295	0.37147966
216	0x3e89680e	0.268372
217	0xbf766d34	-0.9626038
218	0x3e4a39f0	0.19748664
219	0x3df571c4	0.1198459
220	0x3d5b3d5b	0.05352531
221	0x3f14ce59	0.5812736
222	0x3e4f4e51	0.20244719
223	0xbd33f7c6	-0.043937467
224	0xbf8daf3a	-1.10691
225	0xbee0bfb3	-0.43896255
226	0xbd185fe1	-0.037200812
227	0x3e0b4a70	0.13602614
228	0xbe888c51	-0.26669553
229	0xbe8d438a	-0.2759059
230	0x3f15a355	0.5845235
231	0xbf8786e3	-1.0588039
232	0x3f9e42e2	1.2364161
233	0x3f57c832	0.8428985
234	0xbee11584	-0.43961728
235	0xbe700226	-0.2343832
236	0x3e5458d0	0.20737004
237	0x3f2c44be	0.6729239
238	0x3f53cdc3	0.8273584
239	0x3c7c6d94	0.015406985
240	0xbf802ecd	-1.0014282
241	0xbe8ee321	-0.2790766
242	0x3dbec460	0.09314799
243	0x3f47eed6	0.7809881
244	0xbe2ac669	-0.1667725
245	0x3e81a135	0.25318304
246	0xbe443663	-0.19161372
247	0xbec1d48b	-0.3785747
248	0xbec30398	-0.3808868
249	0x3e8e82ca	0.2783416
250	0x3fc622cc	1.5479369
251	0x3e98bade	0.29830068
252	0x3e18992e	0.14902183
253	0x3e42c3a5	0.19019945
254	0x3f2ce2cd	0.6753357
255	0x3ed7c9ea	0.42146236

input_layer.bias f4 [50]
0	0xbd142c71	-0.036175195
1	0x3d92cc3c	0.07167861
2	0x3eb33a9c	0.35005653
3	0x3de5bd2d	0.11217723
4	0x3dc2306a	0.094818905
5	0x3f0a6dad	0.540736
6	0xbdac5424	-0.08414486
7	0x3e08fab2	0.13376883
8	0x3d7d43c8	0.06183222
9	0x3e227bfc	0.15867609
10	0x3d3825a2	0.044957764
11	0xbe2b00a5	-0.16699465
12	0x3c6579ce	0.014006091
13	0x3eb58839	0.35455492
14	0x3e04a09c	0.12951893
15	0x3dffda38	0.12492794
16	0x3a362ad9	0.0006949134
17	0x3efcbb73	0.49361762
18	0x3dd91806	0.10600285
19	0xbe336728	-0.1751982
20	0xbe0f3846	-0.1398631
21	0x3c3dee63	0.01159248
22	0xbcbfdf10	-0.023421794
23	0x3e5b6837	0.21426474
24	0xbd3cd5e4	-0.04610242
25	0x3e3e3374	0.18574315
26	0xbe295e09	-0.16539778
27	0xbe3edd72	-0.18639162
28	0x3d2b563e	0.041830294
29	0xbdfe5032	-0.1241764
30	0xbd6a4254	-0.05719216
31	0x3dcf0d74	0.10109988
32	0xbe2e32b7	-0.17011534
33	0x3e9b43da	0.30325204
34	0xbdf3c1cd	-0.11902199
35	0x3eb76017	0.35815498
36	0x3e71d1d6	0.23615202
37	0xbd16a611	-0.036779467
38	0xbe2fc002	-0.17163089
39	0x3ca9dd5f	0.02073544
40	0xbde061fd	-0.1095619
41	0x3e697d94	0.2280181
42	0xbe28f148	-0.16498291
43	0x3d0c5341	0.034259085
44	0xbddd5ae0	-0.10808349
45	0xbe012926	-0.12613353
46	0xbdd17c85	-0.10228828
47	0xbc9f4718	-0.01944308
48	0x3d9e3df3	0.077266596
49	0x3e3bc950	0.18338513

hidden_layer_list.0.weight f4 [30, 50]
0	0x3d940047	0.072266154
1	0xbeb550e2	-0.3541327
2	0x3e1d2939	0.15347756
3	0x3f32e1e3	0.69875926
4	0x3f40641b	0.7515275
5	0x3e197323	0.14985327
6	0xbdf3d457	-0.11905735
7	0x3f48e39f	0.7847232
8	0xbecff202	-0.40614325
9	0x3f3522e1	0.70756346
10	0xbeac72eb	-0.33681425
11	0x3dca130f	0.098669164
12	0xbd83e1b3	-0.06439533
13	0x3dc5b548	0.09653717
14	0xbdde8b47	-0.10866409
15	0xbe1ccf22	-0.1531339
16	0x3db6cb8d	0.08925543
17	0x3e9acf9c	0.30236518
18	0x3f0757f2	0.5286857
19	0xbd06d132	-0.032914348
20	0xbdac4a9c	-0.08412668
21	0xbd5705c6	-0.05249574
22	0xbdc50cc7	-0.09621578
23	0x3ed84bd3	0.4224535
24	0x3e0b9f64	0.13635021
25	0x3f53afaf	0.82689947
26	0x3ddac624	0.106823236
27	0x3c6545d3	0.013993698
28	0x3f30491f	0.68861574
29	0x3dbfc549	0.09363801
30	0x3dabfa6a	0.08397372
31	0xbecfe4f8	-0.40604377
32	0xbd128131	-0.035767738
33	0x3e7e357d	0.24825092
34	0xbba0cc15	-0.004907141
35	0xbd7fa13c	-0.062409624
36	0xbdbb4069	-0.09143145
37	0x3deae339	0.114691205
38	0x3df13469	0.117775746
39	0xbd61b740	-0.0551064
40	0xbcf89e0c	-0.0303488
41	0x3ea61c1a	0.32443315
42	0xbd3d1d13	-0.046170305
43	0x3f4436dc	0.7664621
44	0xbe00cca2	-0.12578061
45	0x3d8a3524	0.06748417
46	0xbe02288b	-0.12710778
47	0xbd8a2e4f	-0.06747114
48	0x3f20d07d	0.6281813
49	0xbdc31131	-0.095247634
50	0xbcbc244c	-0.022966526
51	0xbd8464f7	-0.0646457
52	0xbd812f95	-0.06307904
53	0xbdb029e7	-0.08601742
54	0xbdca29fd	-0.0987129
55	0xbdb47241	-0.08810855
56	0x3e0ade2c	0.13561314
57	0xbd88773b	-0.066633664
58	0xbdf0da88	-0.117604315
59	0x3dc7106b	0.09719928
60	0x3d60bad9	0.05486569
61	0x3dc73a1d	0.09727881
62	0xbe100c16	-0.1406711
63	0xbe09d8e5	-0.13461645
64	0xbdcd9084	-0.1003733
65	0xbd98941d	-0.07450125
66	0xb9a347a1	-0.0003114315
67	0x3d7a9086	0.061172985
68	0x3da99160	0.08279681
69	0xbdf91cee	-0.12163721
70	0x3d670434	0.056400493
71	0xbda77efc	-0.08178517
72	0x3d052631	0.032507125
73	0x3d35de87	0.04440167
74	0x3cb96688	0.022631899
75	0x3d4cf220	0.050035596
76	0xbbe7639c	-0.007061435
77	0x3dbf35f9	0.09336466
78	0x3cf19fcb	0.02949514
79	0x3dfdbe3e	0.123898014
80	0x3cfb21ba	0.03065573
81	0xbd9952d6	-0.07486503
82	0x3dba0026	0.090820596
83	0x3bfb0e12	0.0076615894
84	0x3e0bf498	0.13667524
85	0xbc801f38	-0.015639886
86	0x3e0f4855	0.13992436
87	0xbda91353	-0.08255639
88	0x3d919036	0.07107584
89	0xbdd810eb	-0.10550102
90	0x3dc6d764	0.09709051
91	0x3cd24c5b	0.025671175
92	0x3da46f4e	0.08029042
93	0xbdf96c81	-0.121788986
94	0xbe100e36	-0.14067921
95	0x3d8b8e1d	0.06814215
96	0xbd6e50dc	-0.058182582
97	0x3d65699b	0.056008916
98	0xbdabd5b3	-0.08390369
99	0xbd331205	-0.043718357
100	0x3a26160d	0.0006335683
101	0x3dae6ad8	0.085164726
102	0x3da38f3e	0.07986306
103	0xbc4ef936	-0.012632659
104	0xbd23d840	-0.040001154
105	0xbb20bbf6	-0.0024526096
106	0x3d9546c6	0.072888896
107	0xbdf57b87	-0.119864516
108	0xbd310053	-0.0432132
109	0xbe0b9a02	-0.13632968
110	0x3ca73a67	0.02041359
111	0xbc8908aa	-0.016727764
112	0x3da41310	0.080114484
113	0x3de760ab	0.11297735
114	0xbdf7a4e4	-0.12091997
115	0xbd802e02	-0.06258775
116	0xbcba3e69	-0.022734838
117	0xbab8d797	-0.0014102337
118	0xbd043a1b	-0.032281976
119	0xbdb61ab0	-0.08891809
120	0xbd5fd380	-0.05464506
121	0xbb6eaf14	-0.0036420273
122	0x3de8ea23	0.11372783
123	0xbd13a070	-0.036041677
124	0x3dbf4522	0.09339358
125	0xbdea1f8a	-0.11431797
126	0x3bcf3bd2	0.00632427
127	0xbde20511	-0.110361226
128	0xbe07e3d7	-0.13270508
129	0x3c659fd7	0.01401516
130	0xbd849e7d	-0.06475542
131	0x3dd53afc	0.10411641
132	0x3de4c49f	0.11170315
133	0xbe102366	-0.14076003
134	0xbc2179f6	-0.009855738
135	0xbcc5ebab	-0.024160227
136	0xbda51526	-0.08060674
137	0xbdca3427	-0.098732285
138	0xbd752181	-0.059846405
139	0x3d7fbf49	0.062438283
140	0x3d09ba65	0.033625025
141	0x3dae50f9	0.08511538
142	0xbc0a3057	-0.008434377
143	0x3d966d7d	0.07345102
144	0x3ce00872	0.027347777
145	0xbcfca018	-0.030838057
146	0xbc0774cd	-0.008267594
147	0xbe03b56f	-0.1286218
148	0xbb54d885	-0.0032477689
149	0xbd3e4bee	-0.04645913
150	0xbd41da62	-0.047327407
151	0xbd98e3e9	-0.074653454
152	0xbd47cff4	-0.048782304
153	0xbdfa689e	-0.122269854
154	0xbc1cb063	-0.009563538
155	0xbcc16a7d	-0.023610348
156	0xbd189044	-0.037246957
157	0x3dd6d6a4	0.10490158
158	0x3d9dcf82	0.077055946
159	0x3cb4dc89	0.022077816
160	0xbd8f3ffd	-0.06994627
161	0x3c93c3eb	0.018037757
162	0xbdc74806	-0.09730534
163	0x3da53a58	0.08067769
164	0x3de9f20c	0.1142312
165	0xbd1fa477	-0.038975205
166	0x3ddf5d80	0.109065056
167	0x3deb3c20	0.11486077
168	0xbcd7eec7	-0.026358975
169	0xbd571856	-0.052513443
170	0x3be9e026	0.0071373163
171	0x3cbf7455	0.023370901
172	0xbe060d3a	-0.13090983
173	0xbcda9a63	-0.026684945
174	0xbd517134	-0.05113335
175	0x3d9cb035	0.07650796
176	0xbb850668	-0.0040596016
177	0x3dbe8ef4	0.0930461
178	0x3ddd0a70	0.107930064
179	0xbd3589b6	-0.044320785
180	0x3cf96078	0.030441508
181	0xbcf562dd	-0.029954368
182	0xbd7c7140	-0.06163144
183	0xbdc53fdd	-0.096313216
184	0x3b56772b	0.0032724838
185	0x3ccda8c2	0.025104884
186	0xbd2f0b90	-0.042735636
187	0x3cc4be3a	0.024016488
188	0x3db4ff21	0.088377245
189	0x3d717bce	0.05895596
190	0x3d6edf13	0.05831821
191	0x3cb34160	0.02188176
192	0xbddea51b	-0.10871335
193	0xbdd3cf6e	-0.103422984
194	0xbdd6c8b7	-0.10487502
195	0x3dbe53cc	0.09293327
196	0xbdff190b	-0.124559484
197	0xbdd83b7c	-0.10558221
198	0x3d9a2860	0.07527232
199	0x3d869f28	0.065733254
200	0xbe08e592	-0.13368824
201	0x3da75a8b	0.081715666
202	0xbd042cb9	-0.032269213
203	0x3cf9996d	0.030468667
204	0xbdb56f54	-0.08859125
205	0xbcafdd23	-0.02146775
206	0x3d00bea3	0.031431805
207	0x3ddcd720	0.10783219
208	0x3dafa1b7	0.085757665
209	0xbd9d7ecc	-0.076902
210	0xbdbdfad3	-0.092763565
211	0xbc0d003f	-0.008606016
212	0x3d35cbea	0.04438392
213	0x3d9ecde3	0.077541135
214	0xbe104f1e	-0.14092681
215	0xbc3d582c	-0.011556666
216	0x3ba3dff1	0.005001061
217	0xbd874354	-0.06604639
218	0x3de47155	0.11154429
219	0xbd19c3c1	-0.0375402
220	0xbe0a1113	-0.13483076
221	0xbdacee9f	-0.08443951
222	0x3b949541	0.004534394
223	0xbdd788cf	-0.10524141
224	0x3d044f5a	0.032302238
225	0x3e0ce07c	0.13757509
226	0x3bbdb461	0.005789325
227	0xbd0eb41c	-0.034839734
228	0x3e086e7e	0.133234
229	0x3dd5d116	0.104402706
230	0x3dc07712	0.09397711
231	0x3c2fc29f	0.010727554
232	0x3bd3da87	0.0064652595
233	0xbde09ddb	-0.109676085
234	0x3c6bdc6b	0.014395813
235	0x3e0cdaf9	0.13755406
236	0x3bf4fab8	0.007476177
237	0xbe013b2f	-0.12620233
238	0x3d9ef7e3	0.077621244
239	0x3e01f752	0.12692001
240	0x3df2cf66	0.11855964
241	0x3bda90f0	0.00667011
242	0x3cd9a4df	0.026567874
243	0x3cbb7c0b	0.022886297
244	0xbd6d6967	-0.057961848
245	0xbca90a95	-0.020634929
246	0x3dec4867	0.11537247
247	0x3c6c6465	0.014428233
248	0x3e087c8b	0.1332876
249	0xbdc05599	-0.093913265
250	0xbca9509f	-0.020668326
251	0xbf057381	-0.5212937
252	0x3cd1944f	0.025583414
253	0x3f31b52e	0.69417083
254	0x3ed0702d	0.40710583
255	0x3ddd3108	0.108003676

hidden_layer_list.0.bias f4 [30]
0	0x3ba96e6c	0.005170634
1	0xbd3b621c	-0.04574786
2	0xbde807e8	-0.11329633
3	0xbe1cc0bc	-0.15307897
4	0xbd9cf4c5	-0.076638736
5	0x3dc68286	0.09692864
6	0x3e8867f3	0.26641807
7	0x3e736980	0.23770714
8	0x3e0e8247	0.13916884
9	0x3e96c2c0	0.29445457
10	0xbbc39f49	-0.005969916
11	0x3e2979ca	0.16550365
12	0xbdfcaed7	-0.123380356
13	0xbd879f31	-0.0662216
14	0xbe08d2f7	-0.13361727
15	0xbdc796d9	-0.09745569
16	0xbd7bcd2c	-0.061474964
17	0xbcb52b54	-0.022115387
18	0x3e61ae09	0.22039045
19	0x3dd27312	0.10275854
20	0x3e67ca40	0.22635746
21	0x3dc73133	0.09726181
22	0x3e55a40a	0.20863357
23	0xbd9b49e6	-0.075824544
24	0xbe0f68a2	-0.14004758
25	0x3c531df1	0.012885557
26	0x3e941c80	0.28927994
27	0x3a120e3e	0.000557158
28	0x3d9fac12	0.07796492
29	0x3e059744	0.13045985

output_layer.weight f4 [4, 30]
0	0x3e3b8df8	0.18315876
1	0xbe30ac28	-0.17253172
2	0xbd9a7ddf	-0.07543539
3	0xbbb822d6	-0.005619387
4	0x3e33fedb	0.17577688
5	0x3eba974b	0.36443552
6	0xbe9b0f81	-0.30285266
7	0xbf3126b7	-0.691997
8	0x3e841ce0	0.2580328
9	0xbd094cd3	-0.03352053
10	0xbdd9b6de	-0.10630582
11	0xbdb283d3	-0.0871655
12	0x3dd965bf	0.1061511
13	0x3de835bb	0.11338373
14	0x3e0c2f20	0.13689852
15	0xbd17d83c	-0.03707145
16	0xbd796c26	-0.060894154
17	0xbd37280e	-0.044715934
18	0x3e4ce6e1	0.20009948
19	0xbe48af36	-0.19598088
20	0x3e8036bc	0.2504176
21	0xbb38bbc3	-0.0028188087
22	0xbe5ad056	-0.21368536
23	0x3e1d8774	0.15383703
24	0xbd85760b	-0.065166555
25	0xbd9a3eb9	-0.07531495
26	0xbec1d1ee	-0.37855476
27	0x3e2fec15	0.17179902
28	0x3eaf6030	0.34253073
29	0xbeaf62ce	-0.3425507
30	0x3e85724a	0.26063758
31	0xbd7f5c20	-0.062343717
32	0x3cd38c7a	0.02582382
33	0xbdaa1455	-0.08304659
34	0x3d3ceecd	0.046126176
35	0x3df3c467	0.11902695
36	0xbfad5b7d	-1.3543545
37	0xbf6b9f3e	-0.9203986
38	0x3ec79095	0.38977495
39	0xbf8ca3e7	-1.0987519
40	0xbe041032	-0.12896803
41	0x3eaf2e4a	0.34215003
42	0x3e35b6be	0.17745492
43	0xbe349890	-0.17636323
44	0x3e126f1e	0.143002
45	0x3e11c196	0.14234003
46	0x3e7e4b6e	0.24833462
47	0xbfdf3aa9	-1.7439777
48	0x3e9d7d5c	0.30759704
49	0x3eabe623	0.33574018
50	0x3e4abeb7	0.19799314
51	0x3e534a69	0.20633854
52	0xbfc24e31	-1.5180112
53	0xbd8e15f2	-0.069377795
54	0x3d1bc4e5	0.03802957
55	0x3da06fc9	0.07833821
56	0xbfb29e0a	-1.395448
57	0x3f143b23	0.57902735
58	0x3eb826cd	0.35967103
59	0x3e9d594d	0.30732194
60	0xbe1767c6	-0.1478568
61	0xbd5a545f	-0.05330312
62	0x3df96406	0.12177281
63	0x3d9be526	0.07612066
64	0xbcafff3f	-0.021484016
65	0xbea390a2	-0.31946284
66	0x3db49d25	0.088190354
67	0x3ed7154a	0.4200843
68	0xbe5fec90	-0.21867585
69	0x3e262f7c	0.16229051
70	0xbcf91a0f	-0.030407934
71	0xbf3afa03	-0.7303774
72	0x3e0155b2	0.12630346
73	0xbd0a9fb8	-0.033843726
74	0xbe27254e	-0.16322824
75	0xbe2aa5b0	-0.16664767
76	0xbf4495a6	-0.76790845
77	0xbe2a5baa	-0.1663653
78	0x3d36ad15	0.044598658
79	0x3eab6504	0.33475506
80	0xbd16c9da	-0.036813594
81	0xbe3a33f1	-0.18183877
82	0x3dd547e7	0.10414105
83	0xbdbf3c26	-0.09337644
84	0x3e12ca52	0.14334992
85	0xbc0889bc	-0.00833362
86	0x3e2ef826	0.17086849
87	0xbf5dc1ec	-0.86624026
88	0xbf7f4616	-0.9971632
89	0x3ec75a57	0.3893611
90	0xbf91ceb7	-1.1391209
91	0xbcec1f41	-0.028823497
92	0x3e110810	0.14163232
93	0xbe0224f3	-0.12709408
94	0x3c9e014f	0.019287733
95	0xbf8b082b	-1.0861868
96	0x3ed7afbd	0.42126265
97	0x3e6cb55d	0.2311606
98	0xbf733267	-0.9499878
99	0x3edf541a	0.43618852
100	0xbdf96998	-0.121783435
101	0xbe9ad9b9	-0.30244234
102	0xbcc54b0c	-0.024083637
103	0xbe12216d	-0.14270563
104	0xbe094edd	-0.1340899
105	0xbd7271d2	-0.05919058
106	0xbece4a13	-0.4029089
107	0x3ed55bfc	0.4167174
108	0xbf3e4cf0	-0.7433615
109	0xbf6e67a2	-0.9312688
110	0xbf821592	-1.0162833
111	0xbf99fa9c	-1.2029605
112	0x3f16d407	0.5891728
113	0x3e2a381b	0.16622965
114	0xbe13ab9c	-0.14420933
115	0xbe06a1f2	-0.13147715
116	0x3f2ac49d	0.6670626
117	0xbeb98160	-0.36231518
118	0xbeb18a9d	-0.34676066
119	0xbf45b081	-0.7722245

output_layer.bias f4 [4]
0	0x3cc468f7	0.023975832
1	0xbd02bef3	-0.031920385
2	0x3e70b82b	0.23507755
3	0x3d9cce7f	0.076565735
