K-Digital Training/김소현 강사님/Pytorch/숙제/language_model/best_model_epoch_19.pth (torch, 14536 bytes, 6 tensors)

input_layer.weight f4 [50, 26]
0	0x3dcef40d	0.10105143
1	0xbdb1471a	-0.0865614
2	0xbd1bba32	-0.038019367
3	0x3dbc8524	0.09205082
4	0xbe3d0fe6	-0.18463096
5	0x3df0dfbb	0.11761423
6	0xbd2541e7	-0.040346052
7	0x3dcc55ba	0.099772885
8	0x3cdf57a6	0.027263474
9	0xbcc4b77c	-0.024013273
10	0x3d5ecd3d	0.05439495
11	0x3c1e82e1	0.009674759
12	0x3d92b140	0.07162714
13	0xbd9c8594	-0.076426655
14	0xbc6a449c	-0.014298584
15	0xbc90a2ec	-0.017655812
16	0x3ce8dd53	0.028425848
17	0xba4d6062	-0.00078344916
18	0x3e2f8d7f	0.1714382
19	0x3d79f9f8	0.061029404
20	0xbd95934f	-0.073034875
21	0xbdf2941d	-0.118446566
22	0xbd06a4ee	-0.032872133
23	0xbdad3f07	-0.08459287
24	0xbd80b4f2	-0.062845126
25	0x3c19da01	0.009390355
26	0x3ebe7b9d	0.37203684
27	0x3e941bba	0.28927404
28	0xbef62e59	-0.48082235
29	0x3dd050f7	0.10171693
30	0xbdfca9a3	-0.12337043
31	0xbd690d14	-0.056897238
32	0x3ecbfed4	0.39842856
33	0xbea1a1cf	-0.31568763
34	0xbdcb294b	-0.099199854
35	0x3c2f8f5c	0.010715332
36	0x3f0235a5	0.50863105
37	0xbd856e83	-0.06515219
38	0x3e7227f2	0.2364805
39	0x3d5307ff	0.051521298
40	0x3d9fb42c	0.07798037
41	0x3d1d37f7	0.03838345
42	0xbe1d022d	-0.15332861
43	0xbdbb4981	-0.09144879
44	0xbe196be4	-0.14982563
45	0xbb966ded	-0.004590741
46	0xbc94b6c8	-0.018153563
47	0xbe846682	-0.25859457
48	0xbe3d9593	-0.1851409
49	0xbeae7289	-0.34071758
50	0xbd501e2b	-0.05081002
51	0x3c7012a2	0.01465288
52	0x3d1a0b99	0.037608717
53	0xbddac5c3	-0.10682251
54	0x3ea7ea0a	0.32795745
55	0x3e9ad3d0	0.30239725
56	0x3e21097b	0.15726273
57	0xbd453edf	-0.04815566
58	0xbc2cbc27	-0.010542906
59	0xbceb6556	-0.028734844
60	0xbdab6db4	-0.083705336
61	0x3eaac366	0.33352202
62	0xbd275f65	-0.04086246
63	0x3e8880cb	0.2666076
64	0xbd9e7b65	-0.077383794
65	0xbd1d8d21	-0.03846467
66	0x3c877f85	0.016540298
67	0x3da62c7a	0.08113952
68	0x3d9e4116	0.07727258
69	0xba23cbe5	-0.0006248339
70	0x3e502dfb	0.2033004
71	0x3cb35bd6	0.021894377
72	0x3e6f3ca3	0.23362975
73	0x3e3d318e	0.18475935
74	0xbdf86be3	-0.12129953
75	0x3e6d9a18	0.23203313
76	0xbde5c7d0	-0.11219752
77	0x3dc4fd07	0.09618574
78	0xbebcc4a7	-0.36868784
79	0x3d07e983	0.03318168
80	0x3dc9f174	0.09860507
81	0xbdbb8051	-0.09155334
82	0x3e284a3f	0.16434573
83	0x3e51da46	0.20493421
84	0xbdc415fa	-0.09574504
85	0x3dc60c12	0.09670271
86	0xbe48bd0c	-0.19603366
87	0x3d1d8a84	0.038462177
88	0xbe972215	-0.2951819
89	0x3e19b07e	0.15008733
90	0xbcfc0e28	-0.030768469
91	0xbe693d25	-0.22777231
92	0x3e386132	0.18005827
93	0xbd04ef34	-0.032454684
94	0xbd1067f0	-0.035255373
95	0x3c7367cd	0.014856291
96	0x3e03d700	0.12874985
97	0x3e3947d4	0.18093807
98	0xbe1f74e1	-0.1557193
99	0x3e32345f	0.1740279
100	0x3ecb9a5c	0.39766204
101	0x3df39d76	0.11895268
102	0x3e07b2ea	0.13251844
103	0xbde9c7cb	-0.114150606
104	0xbec153be	-0.37759203
105	0xbe934c90	-0.2876935
106	0x3ef4d2ee	0.47817177
107	0x3e1b6105	0.15173729
108	0x3ec964e6	0.39334792
109	0x3eb03e85	0.344227
110	0xbe5e0757	-0.21682487
111	0x3eb6f3d0	0.3573289
112	0x3e1bbd41	0.15208913
113	0xbdddf8f7	-0.10838502
114	0xbea7e8a4	-0.32794678
115	0x3e47b9fb	0.1950454
116	0x3c1b78a1	0.009489209
117	0xbc8da4fe	-0.017290588
118	0xbca46ab1	-0.020070406
119	0xbe7023a8	-0.23451102
120	0x3de4653b	0.11152121
121	0x3e584377	0.21119486
122	0x3e9092e1	0.2823706
123	0x3d297192	0.041368075
124	0x3d957ace	0.07298814
125	0x3e563b83	0.2092114
126	0xbc69e9ae	-0.014276905
127	0x3e641d3c	0.22276777
128	0xbcf98831	-0.030460449
129	0xbd05b99b	-0.03264771
130	0xbd832ec3	-0.064054035
131	0xbd357a19	-0.044305895
132	0x3e9120ea	0.28345424
133	0x3e21ef3a	0.15813914
134	0x3e4bb94f	0.19894908
135	0x3df6cf91	0.12051309
136	0x3e87a4ab	0.2649282
137	0xbd3a8676	-0.04553839
138	0xbd9feb41	-0.07808543
139	0xbe80e324	-0.25173295
140	0xbe6e668f	-0.2328131
141	0x3e047623	0.1293569
142	0xbd22b74e	-0.039725594
143	0x3e4b7e55	0.1987241
144	0x3e11c9df	0.14237164
145	0x3d5ec7c7	0.05438974
146	0x3eaa4e6b	0.33262953
147	0x3df07bb2	0.11742343
148	0x3e6e395a	0.23264065
149	0x3e33ccea	0.17558637
150	0x3d930594	0.07178798
151	0x3eabdfd5	0.33569208
152	0xbe06ffb7	-0.13183485
153	0x3e478919	0.19485892
154	0xbe4cc4b0	-0.19996905
155	0x3dbbd331	0.09171141
156	0xbdeaa495	-0.11457173
157	0xbdabcb0b	-0.08388337
158	0x3e0ec76c	0.13943261
159	0xbd834010	-0.06408703
160	0xbe16123a	-0.1465539
161	0x3d9a887f	0.07545566
162	0x3d809843	0.062790416
163	0x3e021236	0.1270226
164	0xbdcfd72d	-0.101484634
165	0x3d2e2a6a	0.042520918
166	0xbd92382c	-0.0713962
167	0xbd347ab5	-0.044062335
168	0xbe200a1b	-0.15628855
169	0xbdb70df3	-0.089382075
170	0xbd7603a8	-0.06006208
171	0x3dabc209	0.08386619
172	0x3d12c0be	0.035828345
173	0x3d466d1e	0.048443906
174	0x3e487141	0.19574453
175	0x3e43ba40	0.19114017
176	0x3e08f880	0.13376045
177	0x3bcca321	0.0062450324
178	0xbe0aed75	-0.13567145
179	0x3e1cf1ef	0.15326665
180	0xbd48dfb6	-0.049041472
181	0xbc81e283	-0.01585508
182	0xbebade15	-0.3649756
183	0xbe0db21e	-0.13837478
184	0x3e17c0cf	0.14819644
185	0x3ec40ddf	0.38291833
186	0x3df8b17e	0.12143229
187	0x3e1f1a87	0.15537463
188	0xbe7a338e	-0.24433729
189	0x3db5bdc1	0.08874083
190	0x3d6e7ed0	0.058226407
191	0x3df130e5	0.11776904
192	0xbeb67ce1	-0.3564215
193	0x3d86996f	0.06572234
194	0x3d5b713e	0.053574793
195	0xbe803ebf	-0.2504787
196	0x3e20cde9	0.15703548
197	0x3d956215	0.07294098
198	0x3ef30f4a	0.47472602
199	0x3d9df511	0.07712758
200	0x3e0c1617	0.13680302
201	0x3c079802	0.008275988
202	0x3e62e15a	0.22156277
203	0x3e7650d4	0.24054271
204	0x3e4c4974	0.19949895
205	0x3e938bc5	0.28817573
206	0xbe4cd44b	-0.20002858
207	0xbe425353	-0.18977098
208	0x3e9a8f6d	0.3018755
209	0x3e82b2d4	0.2552706
210	0xbe527f4f	-0.20556377
211	0xbda6dc8e	-0.08147536
212	0xbed8b07e	-0.42322153
213	0xbe07e933	-0.13272552
214	0x3ef48844	0.47760212
215	0x3951b7f8	0.00020000327
216	0x3e759cad	0.23985548
217	0xbe84a264	-0.25905144
218	0x3e7639f5	0.24045546
219	0x3e5ccfbd	0.21563621
220	0x3d10c01b	0.035339456
221	0x3ec1c9c9	0.37849262
222	0xbe210a04	-0.15726477
223	0x3c8c3e78	0.017119631
224	0xbdd3f927	-0.103502564
225	0xbe96a455	-0.2942225
226	0xbd40e0b3	-0.04708929
227	0x3d608cea	0.054821886
228	0x3e687232	0.22699812
229	0xbdb833f4	-0.08994284
230	0xbdd2da52	-0.102955475
231	0xbec01bb9	-0.3752115
232	0x3ed69278	0.41908622
233	0x3e635f7c	0.22204393
234	0xbe9a2aa8	-0.3011067
235	0xbe082cb4	-0.13298303
236	0x3e088189	0.13330664
237	0x3e439119	0.19098319
238	0x3ea65225	0.32484546
239	0x3da527a1	0.08064199
240	0xbed256f0	-0.41081953
241	0x3d83a353	0.06427636
242	0x3d016a24	0.031595364
243	0xbd4c4e91	-0.049879614
244	0xbecbd44e	-0.39810413
245	0x3da4a69c	0.08039591
246	0xbe959282	-0.2921334
247	0xbe7813df	-0.2422633
248	0xbc9eb354	-0.01937262
249	0x3dbcfd88	0.09228045
250	0x3ee3f4d0	0.44522715
251	0x3d60096e	0.054696493
252	0x3db6bf15	0.08923165
253	0x3e4aa516	0.19789538
254	0x3c95723f	0.018242953
255	0x3e4d0e23	0.20024924

input_layer.bias f4 [50]
0	0xbd142c71	-0.036175195
1	0x3cc077f4	0.023494698
2	0x3deca61d	0.11555121
3	0x3dc9ae79	0.09847731
4	0x3d616e43	0.055036794
5	0x3e1d652f	0.1537063
6	0xbdac5424	-0.08414486
7	0x3dcb4e87	0.09927087
8	0x3c2a0a61	0.010378451
9	0x3deef837	0.11668437
10	0xbb2b7e79	-0.0026167913
11	0xbe2b00a5	-0.16699465
12	0x3c6579ce	0.014006091
13	0x3e4ace00	0.19805145
14	0x3d66e7aa	0.056373276
15	0x3d0a33e7	0.033740904
16	0x3a362ad9	0.0006949134
17	0x3e5908e9	0.21194805
18	0x3d4c74c5	0.049916048
19	0xbe336728	-0.1751982
20	0xbe0f3846	-0.1398631
21	0x3c3dee63	0.01159248
22	0xbcbfdf10	-0.023421794
23	0x3e35d1fb	0.17755882
24	0xbd3cd5e4	-0.04610242
25	0x3e1996da	0.14998952
26	0xbe295e09	-0.16539778
27	0xbe3edd72	-0.18639162
28	0x3c07ffa3	0.008300695
29	0xbdfe5032	-0.1241764
30	0xbd6a4254	-0.05719216
31	0x3d56f380	0.052478313
32	0xbe2e32b7	-0.17011534
33	0x3e22b52f	0.15889429
34	0xbdf3c1cd	-0.11902199
35	0x3e204688	0.15651906
36	0x3ddad026	0.106842324
37	0xbd16a611	-0.036779467
38	0xbe2fc002	-0.17163089
39	0x3ca9dd5f	0.02073544
40	0xbde061fd	-0.1095619
41	0x3e35cefa	0.17754737
42	0xbe28f148	-0.16498291
43	0x3b5c32e1	0.0033599662
44	0xbddd5ae0	-0.10808349
45	0xbe012926	-0.12613353
46	0xbdd17c85	-0.10228828
47	0xbc9f4718	-0.01944308
48	0x3d3fc45f	0.046818133
49	0x3da6f6a4	0.08152512

hidden_layer_list.0.weight f4 [30, 50]
0	0x3d940047	0.072266154
1	0xbd6c9abc	-0.057764754
2	0xbdb3b412	-0.0877458
3	0xbcf41978	-0.0297973
4	0x3e0877f1	0.13327004
5	0xbc8d8a3d	-0.017277831
6	0xbdf3d457	-0.11905735
7	0x3de342f7	0.11096757
8	0x3d0cf1c0	0.03441024
9	0x3cc9125f	0.024544893
10	0x3cc6db8e	0.024274614
11	0x3dca130f	0.098669164
12	0xbd83e1b3	-0.06439533
13	0x3dd31674	0.10307017
14	0x3e0b4113	0.13599043
15	0xbd155d31	-0.036465827
16	0x3db6cb8d	0.08925543
17	0x3d9fcb6e	0.07802473
18	0x3e079e00	0.13243866
19	0xbd06d132	-0.032914348
20	0xbdac4a9c	-0.08412668
21	0xbd5705c6	-0.05249574
22	0xbdc50cc7	-0.09621578
23	0x3b9efb3b	0.0048517263
24	0x3e0b9f64	0.13635021
25	0x3e0c7da7	0.13719808
26	0x3ddac624	0.106823236
27	0x3c6545d3	0.013993698
28	0x3b4932cb	0.003070044
29	0x3dbfc549	0.09363801
30	0x3dabfa6a	0.08397372
31	0xbc65eef7	-0.014034024
32	0xbd128131	-0.035767738
33	0x3d650bf3	0.0559196
34	0xbba0cc15	-0.004907141
35	0xbdcb7a11	-0.09935392
36	0xbd883add	-0.06651852
37	0x3deae339	0.114691205
38	0x3df13469	0.117775746
39	0xbd61b740	-0.0551064
40	0xbcf89e0c	-0.0303488
41	0xbd8f8c3e	-0.07009171
42	0xbd3d1d13	-0.046170305
43	0x3e0401ff	0.12891386
44	0xbe00cca2	-0.12578061
45	0x3d8a3524	0.06748417
46	0xbe02288b	-0.12710778
47	0xbd8a2e4f	-0.06747114
48	0xbcebeabc	-0.028798454
49	0x3c208db7	0.009799412
50	0xbcbc244c	-0.022966526
51	0xbd8464f7	-0.0646457
52	0xbd812f95	-0.06307904
53	0xbdb029e7	-0.08601742
54	0xbdca29fd	-0.0987129
55	0xbdb47241	-0.08810855
56	0x3e0ade2c	0.13561314
57	0xbd88773b	-0.066633664
58	0xbdf0da88	-0.117604315
59	0x3dc7106b	0.09719928
60	0x3d60bad9	0.05486569
61	0x3dc73a1d	0.09727881
62	0xbe100c16	-0.1406711
63	0xbe09d8e5	-0.13461645
64	0xbdcd9084	-0.1003733
65	0xbd98941d	-0.07450125
66	0xb9a347a1	-0.0003114315
67	0x3d7a9086	0.061172985
68	0x3da99160	0.08279681
69	0xbdf91cee	-0.12163721
70	0x3d670434	0.056400493
71	0xbda77efc	-0.08178517
72	0x3d052631	0.032507125
73	0x3d35de87	0.04440167
74	0x3cb96688	0.022631899
75	0x3d4cf220	0.050035596
76	0xbbe7639c	-0.007061435
77	0x3dbf35f9	0.09336466
78	0x3cf19fcb	0.02949514
79	0x3dfdbe3e	0.123898014
80	0x3cfb21ba	0.03065573
81	0xbd9952d6	-0.07486503
82	0x3dba0026	0.090820596
83	0x3bfb0e12	0.0076615894
84	0x3e0bf498	0.13667524
85	0xbc801f38	-0.015639886
86	0x3e0f4855	0.13992436
87	0xbda91353	-0.08255639
88	0x3d919036	0.07107584
89	0xbdd810eb	-0.10550102
90	0x3dc6d764	0.09709051
91	0x3cd24c5b	0.025671175
92	0x3da46f4e	0.08029042
93	0xbdf96c81	-0.121788986
94	0xbe100e36	-0.14067921
95	0x3d8b8e1d	0.06814215
96	0xbd6e50dc	-0.058182582
97	0x3d65699b	0.056008916
98	0xbdabd5b3	-0.08390369
99	0xbd331205	-0.043718357
100	0x3a26160d	0.0006335683
101	0x3dae6ad8	0.085164726
102	0x3da38f3e	0.07986306
103	0xbc4ef936	-0.012632659
104	0xbd23d840	-0.040001154
105	0xbb20bbf6	-0.0024526096
106	0x3d9546c6	0.072888896
107	0xbdf57b87	-0.119864516
108	0xbd310053	-0.0432132
109	0xbe0b9a02	-0.13632968
110	0x3ca73a67	0.02041359
111	0xbc8908aa	-0.016727764
112	0x3da41310	0.080114484
113	0x3de760ab	0.11297735
114	0xbdf7a4e4	-0.12091997
115	0xbd802e02	-0.06258775
116	0xbcba3e69	-0.022734838
117	0xbab8d797	-0.0014102337
118	0xbd043a1b	-0.032281976
119	0xbdb61ab0	-0.08891809
120	0xbd5fd380	-0.05464506
121	0xbb6eaf14	-0.0036420273
122	0x3de8ea23	0.11372783
123	0xbd13a070	-0.036041677
124	0x3dbf4522	0.09339358
125	0xbdea1f8a	-0.11431797
126	0x3bcf3bd2	0.00632427
127	0xbde20511	-0.110361226
128	0xbe07e3d7	-0.13270508
129	0x3c659fd7	0.01401516
130	0xbd849e7d	-0.06475542
131	0x3dd53afc	0.10411641
132	0x3de4c49f	0.11170315
133	0xbe102366	-0.14076003
134	0xbc2179f6	-0.009855738
135	0xbcc5ebab	-0.024160227
136	0xbda51526	-0.08060674
137	0xbdca3427	-0.098732285
138	0xbd752181	-0.059846405
139	0x3d7fbf49	0.062438283
140	0x3d09ba65	0.033625025
141	0x3dae50f9	0.08511538
142	0xbc0a3057	-0.008434377
143	0x3d966d7d	0.07345102
144	0x3ce00872	0.027347777
145	0xbcfca018	-0.030838057
146	0xbc0774cd	-0.008267594
147	0xbe03b56f	-0.1286218
148	0xbb54d885	-0.0032477689
149	0xbd3e4bee	-0.04645913
150	0xbd41da62	-0.047327407
151	0xbd68a8c2	-0.056801565
152	0xbcfd4b01	-0.030919554
153	0xbdd5d3fa	-0.10440822
154	0x3c07f80a	0.008298883
155	0xbbbc54ce	-0.005747414
156	0xbd189044	-0.037246957
157	0x3dfb6ba3	0.122763894
158	0x3dc2604a	0.09491022
159	0x3d23984b	0.03994016
160	0xbd555ae9	-0.05208865
161	0x3c93c3eb	0.018037757
162	0xbdc74806	-0.09730534
163	0x3dc9cf93	0.09854045
164	0x3e07430c	0.1320917
165	0xbcacf8f0	-0.021114796
166	0x3ddf5d80	0.109065056
167	0x3e07e8bc	0.13272375
168	0xbc0b3896	-0.008497378
169	0xbd571856	-0.052513443
170	0x3be9e026	0.0071373163
171	0x3cbf7455	0.023370901
172	0xbe060d3a	-0.13090983
173	0xbc108ab0	-0.008822128
174	0xbd517134	-0.05113335
175	0x3dc144fd	0.094369866
176	0xbb850668	-0.0040596016
177	0x3dbe8ef4	0.0930461
178	0x3e00cfb7	0.12579237
179	0xbd3589b6	-0.044320785
180	0x3cf96078	0.030441508
181	0xbc4634b6	-0.012097528
182	0xbd7c7140	-0.06163144
183	0xbda0aacb	-0.07845076
184	0x3b56772b	0.0032724838
185	0x3d2ffeb1	0.042967502
186	0xbccbc318	-0.024873301
187	0x3cc4be3a	0.024016488
188	0x3db4ff21	0.088377245
189	0x3d717bce	0.05895596
190	0x3d6edf13	0.05831821
191	0x3d22cb2e	0.03974455
192	0xbddea51b	-0.10871335
193	0xbdaf3a6a	-0.085560635
194	0xbdd6c8b7	-0.10487502
195	0x3dbe53cc	0.09293327
196	0xbdff190b	-0.124559484
197	0xbdd83b7c	-0.10558221
198	0x3dbebd69	0.09313471
199	0x3dab33f0	0.08359516
200	0xbe08e592	-0.13368824
201	0x3da75a8b	0.081715666
202	0xbd042cb9	-0.032269213
203	0x3cf9996d	0.030468667
204	0xbdb56f54	-0.08859125
205	0xbcafdd23	-0.02146775
206	0x3d00bea3	0.031431805
207	0x3ddcd720	0.10783219
208	0x3dafa1b7	0.085757665
209	0xbd9d7ecc	-0.076902
210	0xbdbdfad3	-0.092763565
211	0xbc0d003f	-0.008606016
212	0x3d35cbea	0.04438392
213	0x3d9ecde3	0.077541135
214	0xbe104f1e	-0.14092681
215	0xbc3d582c	-0.011556666
216	0x3ba3dff1	0.005001061
217	0xbd874354	-0.06604639
218	0x3de47155	0.11154429
219	0xbd19c3c1	-0.0375402
220	0xbe0a1113	-0.13483076
221	0xbdacee9f	-0.08443951
222	0x3b949541	0.004534394
223	0xbdd788cf	-0.10524141
224	0x3d044f5a	0.032302238
225	0x3e0ce07c	0.13757509
226	0x3bbdb461	0.005789325
227	0xbd0eb41c	-0.034839734
228	0x3e086e7e	0.133234
229	0x3dd5d116	0.104402706
230	0x3dc07712	0.09397711
231	0x3c2fc29f	0.010727554
232	0x3bd3da87	0.0064652595
233	0xbde09ddb	-0.109676085
234	0x3c6bdc6b	0.014395813
235	0x3e0cdaf9	0.13755406
236	0x3bf4fab8	0.007476177
237	0xbe013b2f	-0.12620233
238	0x3d9ef7e3	0.077621244
239	0x3e01f752	0.12692001
240	0x3df2cf66	0.11855964
241	0x3bda90f0	0.00667011
242	0x3cd9a4df	0.026567874
243	0x3cbb7c0b	0.022886297
244	0xbd6d6967	-0.057961848
245	0xbca90a95	-0.020634929
246	0x3dec4867	0.11537247
247	0x3c6c6465	0.014428233
248	0x3e087c8b	0.1332876
249	0xbdc05599	-0.093913265
250	0xbca9509f	-0.020668326
251	0xbe9d0b51	-0.30672696
252	0xbd3cf250	-0.046129525
253	0x3ea1c12d	0.31592694
254	0x3e626e7b	0.22112457
255	0x3aab8544	0.0013085981

hidden_layer_list.0.bias f4 [30]
0	0xbdcfc59c	-0.10145113
1	0xbd3b621c	-0.04574786
2	0xbde807e8	-0.11329633
3	0xbe0a7602	-0.13521579
4	0xbd9cf4c5	-0.076638736
5	0x3d24a643	0.040197622
6	0x3e0f08be	0.13968179
7	0x3df53178	0.11972326
8	0x3d916e98	0.07101172
9	0x3e1b4550	0.1516316
10	0xbbc39f49	-0.005969916
11	0x3e0b12b7	0.13581358
12	0xbdfcaed7	-0.123380356
13	0xbd879f31	-0.0662216
14	0xbdf658cf	-0.12028658
15	0xbdc796d9	-0.09745569
16	0xbdd78187	-0.10522752
17	0xbe0932c0	-0.13398266
18	0x3e0b8384	0.13624388
19	0x3d4d8ed9	0.05018506
20	0x3e01d45b	0.12678663
21	0x3c178446	0.009247845
22	0x3ddd78ed	0.108140804
23	0xbd9b49e6	-0.075824544
24	0xbe0f68a2	-0.14004758
25	0x3c531df1	0.012885557
26	0x3e330511	0.17482401
27	0xbc24df6f	-0.010063036
28	0x3d630328	0.055422932
29	0x3d931893	0.071824215

output_layer.weight f4 [4, 30]
0	0x3e080169	0.13281788
1	0xbe30ac28	-0.17253172
2	0xbd9a7ddf	-0.07543539
3	0x3c468672	0.012117015
4	0x3e33fedb	0.17577688
5	0x3ea6733b	0.3250979
6	0xbea2c534	-0.3179108
7	0xbef18654	-0.47172797
8	0x3e85b6c7	0.2611601
9	0xbddfed0d	-0.10933886
10	0xbdd9b6de	-0.10630582
11	0xbd2916ae	-0.041281395
12	0x3dd965bf	0.1061511
13	0x3de835bb	0.11338373
14	0x3e16959c	0.14705509
15	0xbd17d83c	-0.03707145
16	0xbd60d64b	-0.054891866
17	0xbc0c2578	-0.008553855
18	0x3e59a55b	0.21254484
19	0xbde342e7	-0.11096745
20	0x3e706e98	0.23479688
21	0x3c065a30	0.008200213
22	0xbea35608	-0.31901574
23	0x3e1d8774	0.15383703
24	0xbd85760b	-0.065166555
25	0xbd9a3eb9	-0.07531495
26	0xbec7ba81	-0.3900948
27	0x3e4cad9c	0.19988102
28	0x3e8c9e4f	0.2746453
29	0xbe39bac0	-0.18137646
30	0x3e1325a0	0.14369822
31	0xbd7f5c20	-0.062343717
32	0x3cd38c7a	0.02582382
33	0xbdce76d4	-0.100812584
34	0x3d3ceecd	0.046126176
35	0xbbb73d69	-0.0055920375
36	0xbe99cfff	-0.300415
37	0xbec98d33	-0.3936554
38	0x3e6999b9	0.22812547
39	0xbd6637c4	-0.056205526
40	0xbe041032	-0.12896803
41	0x3dbc4246	0.09192328
42	0x3e35b6be	0.17745492
43	0xbe349890	-0.17636323
44	0x3e1c6942	0.15274528
45	0x3e11c196	0.14234003
46	0x3c2469a6	0.010034954
47	0xbdbdd521	-0.09269167
48	0x3e22f67d	0.1591434
49	0x3e36173c	0.177823
50	0x3d98c7c8	0.0745998
51	0x3d850604	0.06495288
52	0xbeeeaaf9	-0.46614817
53	0xbd8e15f2	-0.069377795
54	0x3d1bc4e5	0.03802957
55	0x3da06fc9	0.07833821
56	0xbec8a72a	-0.39190036
57	0x3ea6fd3d	0.3261508
58	0x3e3377dc	0.17526191
59	0x3dcfd591	0.101481564
60	0xbdb9759b	-0.090556346
61	0xbd5a545f	-0.05330312
62	0x3df96406	0.12177281
63	0x3dbf4426	0.0933917
64	0xbcafff3f	-0.021484016
65	0xbe94a2c3	-0.29030427
66	0xbd8adce9	-0.067804165
67	0x3e4a751b	0.19771235
68	0xbe4de271	-0.20105912
69	0x3ce3f003	0.027824407
70	0xbcf91a0f	-0.030407934
71	0xbe5805d8	-0.21095979
72	0x3e0155b2	0.12630346
73	0xbd0a9fb8	-0.033843726
74	0xbe314ac8	-0.17313683
75	0xbe2aa5b0	-0.16664767
76	0xbe14fa08	-0.14548504
77	0xbd929e80	-0.07159138
78	0xbd633ec7	-0.05547979
79	0x3d326377	0.04355189
80	0xbe1de178	-0.15418041
81	0xbea7cf9b	-0.32775578
82	0xbc9ae2a0	-0.018906891
83	0xbdbf3c26	-0.09337644
84	0x3e12ca52	0.14334992
85	0xbc0889bc	-0.00833362
86	0x3cbe4cb0	0.023229927
87	0xbe7f305b	-0.2492079
88	0xbe97d53c	-0.29654872
89	0x3d0e0bae	0.034679107
90	0xbc7ec69e	-0.015550284
91	0xbcec1f41	-0.028823497
92	0x3e110810	0.14163232
93	0xbde238fd	-0.11046026
94	0x3c9e014f	0.019287733
95	0xbeca7ed9	-0.39549902
96	0x3e49cacc	0.19706267
97	0x3dbd07dc	0.09230015
98	0xbe8bd64a	-0.27311927
99	0x3e439e25	0.19103296
100	0xbdf96998	-0.121783435
101	0xbe448733	-0.191922
102	0xbcc54b0c	-0.024083637
103	0xbe12216d	-0.14270563
104	0xbdfe6d42	-0.12423183
105	0xbd7271d2	-0.05919058
106	0xbcaf891f	-0.02142769
107	0xbd20c9c3	-0.039254915
108	0xbdea30b1	-0.114350684
109	0xbea813dc	-0.32827652
110	0xbea3fe3c	-0.32029903
111	0xbf00a549	-0.50252205
112	0x3eb51d37	0.35373852
113	0x3e2a381b	0.16622965
114	0xbe13ab9c	-0.14420933
115	0xbe06a1f2	-0.13147715
116	0x3ee8391a	0.45356065
117	0xbe118ad1	-0.1421311
118	0xbe0a78f7	-0.13522707
119	0xbe394ad0	-0.18094945

output_layer.bias f4 [4]
0	0x3d297b09	0.0413771
1	0xbbb4745e	-0.005507036
2	0x3e1bfc04	0.15232855
3	0x3de3ab8d	0.11116705
