K-Digital Training/김소현 강사님/Pytorch/숙제/language_model/best_model_epoch_111.pth (torch, 14536 bytes, 6 tensors)

input_layer.weight f4 [50, 26]
0.10105143 -0.0865614 -0.038019367 0.09205082 -0.18463096 0.11761423 -0.040346052 0.099772885
0.027263474 -0.024013273 0.05439495 0.009674759 0.07162714 -0.076426655 -0.014298584 -0.017655812
0.028425848 -0.00078344916 0.1714382 0.061029404 -0.073034875 -0.118446566 -0.032872133 -0.08459287
-0.062845126 0.009390355 0.6312795 0.52752227 -0.6559371 -0.14672159 -0.48169902 -0.08058614
0.9722019 -0.088059366 -0.044385 -0.4941361 0.64998525 -0.17753395 0.307996 0.24840117
0.30558842 0.017517362 -1.0994265 -0.19934289 -0.15817215 0.031192565 -0.38873827 -0.4930733
0.30274397 -1.0486734 0.6484556 0.5954779 0.28843552 0.31838453 -0.02316918 1.030989
0.65285194 -0.14075448 -0.29639176 -0.088550046 0.2172285 1.2805977 0.8298786 0.35610598
0.30434385 0.011360587 -0.41057906 0.43363717 0.44580254 0.4672048 0.28405946 0.18823417
0.990165 0.04814988 -0.72198313 0.40493333 -0.8494496 -0.67455566 -0.6380808 -0.20195974
0.54325616 -0.031669617 0.47082105 0.536046 -0.49160323 0.22334896 -0.24080195 -0.041964047
-0.86099356 0.35948887 -0.18856315 -0.3329098 0.32447878 -0.06152612 0.79663414 0.07578162
0.23863247 0.26395345 -0.09880941 0.5392329 0.41380718 0.9164969 -0.12834539 -0.5313862
-0.5059607 -0.33796445 0.55859315 0.5737471 0.84581095 0.3694119 -0.7236882 0.19115528
0.19719969 0.60388756 -0.14543842 0.32244426 0.072964 -0.15354666 -0.30385756 -0.09720647
1.0237905 0.4303386 0.32342044 0.0728676 0.6027295 0.39378557 -0.49205595 0.8786213
-0.74696684 -0.7190852 0.30660194 0.64222044 0.16540325 0.8397678 0.6686464 0.7514292
0.21432747 0.8842668 0.29410052 0.44999182 0.5688748 0.17186736 0.34082207 0.3282491
0.11225544 0.37163115 -0.29795823 0.6346462 0.34011987 0.7091411 0.5697944 0.19306187
0.59594494 -0.12465336 -0.34596577 -0.9237379 -0.11457173 -0.08388337 0.13943261 -0.06408703
-0.1465539 0.07545566 0.062790416 0.1270226 -0.101484634 0.042520918 -0.0713962 -0.044062335
-0.15628855 -0.089382075 -0.06006208 0.08386619 0.035828345 0.048443906 0.19574453 0.19114017
0.13376045 0.0062450324 -0.13567145 0.15326665 -0.049041472 -0.01585508 -0.48291725 -0.21203087
0.1914096 0.83598965 0.57330406 0.07758689 -0.7634321 -0.22990525 0.11173862 0.9051243
-0.13404411 0.20469368 0.14363414 -0.37866902 -0.18538669 0.23870394 1.4590768 0.3058253
0.1842138 -0.003368481 0.815037 0.4227542 -0.45431113 0.9529735 -0.9975694 -0.83801526
0.5235051 0.45924303 -0.27096352 -0.42460835 -0.8057196 -0.04360096 1.0437953 0.35811016
0.2722827 -0.9389861 0.20422645 0.12967762 0.056076344 0.57932484 0.19023885 -0.03663187
-1.0760922 -0.44093952 -0.03741074 0.12996344 -0.24997653 -0.27041298 0.562039 -1.0402449
1.2100235 0.82184505 -0.43441927 -0.22653443 0.20802212 0.6645169 0.8175221 0.015917098
-0.9848955 -0.2683844 0.08800198 0.7519413 -0.18368094 0.24475478 -0.19670841 -0.37610394
-0.365749 0.26968756 1.5191746 0.29822096 0.15032782 0.1948416 0.65446454 0.417545
00000000: 0df4 ce3d 1a47 b1bd 32ba 1bbd 2485 bc3d
00000010: e60f 3dbe bbdf f03d e741 25bd ba55 cc3d
00000020: a657 df3c 7cb7 c4bc 3dcd 5e3d e182 1e3c
00000030: 40b1 923d 9485 9cbd 9c44 6abc eca2 90bc
00000040: 53dd e83c 6260 4dba 7f8d 2f3e f8f9 793d
00000050: 4f93 95bd 1d94 f2bd eea4 06bd 073f adbd
00000060: f2b4 80bd 01da 193c 899b 213f b30b 073f
00000070: 7eeb 27bf 2f3e 16be 41a1 f6be 590a a5bd
00000080: 39e2 783f 7858 b4bd 0ccd 35bd 68ff fcbe
00000090: 6f65 263f 76cb 35be a7b1 9d3e e05c 7e3e
000000a0: 1676 9c3e 9280 8f3c 02ba 8cbf 8b20 4cbe
000000b0: e1f7 21be 8d87 ff3c b408 c7be 1b74 fcbe
000000c0: 4201 9b3e ee3a 86bf 3001 263f 3d71 183f
000000d0: d2ad 933e 4c03 a33e 4bcd bdbc 73f7 833f
000000e0: 4e21 273f f121 10be a9c0 97be ba59 b5bd
000000f0: 2671 5e3e a0ea a33f ed72 543f 8653 b63e
00000100: f5d2 9b3e c121 3a3c 6b37 d2be b105 de3e
00000110: 3b40 e43e 7835 ef3e 3e70 913e 75c0 403e
00000120: 747b 7d3f cf38 453d e3d3 38bf 6c53 cf3e
00000130: 8775 59bf aeaf 2cbf 4359 23bf 89ce 4ebe
00000140: d612 0b3f 00b8 01bd 750f f13e 503a 093f
00000150: 6bb3 fbbe 97b5 643e c994 76be 7ee2 2bbd
00000160: 136a 5cbf ed0e b83e b316 41be 2773 aabe
00000170: 1522 a63e d002 7cbd 37f0 4b3f 6533 9b3d
00000180: 125c 743e e824 873e 975c cabd 2b0b 0a3f
00000190: 89de d33e 8a9f 6a3f f96c 03be ed08 08bf
000001a0: a486 01bf ad09 adbe f6ff 0e3f 17e1 123f
000001b0: 1187 583f 8e23 bd3e a143 39bf 36be 433e
000001c0: b7ee 493e 6098 1a3f cfed 14be 6a17 a53e
000001d0: 266e 953d 563b 1dbe 3893 9bbe 3014 c7bd
000001e0: 910b 833f 5755 dc3e 5d97 a53e 9c3b 953d
000001f0: 7b4c 1a3f 439e c93e c2ee fbbe 53ed 603f
00000200: 3839 3fbf f815 38bf eefa 9c3e 8f68 243f
00000210: 785f 293e 06fb 563f 692c 2b3f aa5d 403f
00000220: a978 5b3e 4f5f 623f 5894 963e 5465 e63e
00000230: c7a1 113f fffd 2f3e 3b80 ae3e 4410 a83e
00000240: 2ee6 e53d 7046 be3e fb8d 98be 2c78 223f
00000250: 3124 ae3e 458a 353f 0cde 113f 03b2 453e
00000260: d98f 183f 434a ffbd 6d22 b1be 167a 6cbf
00000270: 95a4 eabd 0bcb abbd 6cc7 0e3e 1040 83bd
00000280: 3a12 16be 7f88 9a3d 4398 803d 3612 023e
00000290: 2dd7 cfbd 6a2a 2e3d 2c38 92bd b57a 34bd
000002a0: 1b0a 20be f30d b7bd a803 76bd 09c2 ab3d
000002b0: bec0 123d 1e6d 463d 4171 483e 40ba 433e
000002c0: 80f8 083e 21a3 cc3b 75ed 0abe eff1 1c3e
000002d0: b6df 48bd 83e2 81bc ee40 f7be 9f1e 59be
000002e0: e100 443e 6b03 563f 0ec4 123f e0e5 9e3d
000002f0: 4970 43bf 486c 6bbe 38d7 e43d 3ab6 673f
00000300: dc42 09be 389b 513e d414 133e e8e0 c1be
00000310: 02d6 3dbe ce6e 743e 07c3 ba3f 2295 9c3e
00000320: 8ba2 3c3e bcc1 5cbb 44a6 503f 3d73 d83e
00000330: 789b e8be 12f6 733f b560 7fbf 2b88 56bf
00000340: 6e04 063f e721 eb3e bbbb 8abe 4466 d9be
00000350: a443 4ebf ec96 32bd 169b 853f 375a b73e
00000360: a368 8b3e 6561 70bf bd20 513e 36ca 043e
00000370: 4fb0 653d a24e 143f f9cd 423e 4d0b 16bd
00000380: 64bd 89bf d3c2 e1be 013c 19bd 2315 053e
00000390: d9f9 7fbe 9273 8abe cae1 0f3f bf26 85bf
000003a0: 0de2 9a3f 7064 523f 346c debe a4f8 67be
000003b0: c003 553e c81d 2a3f 2149 513f 9364 823c
000003c0: 1d22 7cbf ae69 89be 623a b43d 3a7f 403f
000003d0: db16 3cbe ffa0 7a3e ee6d 49be b290 c0be
000003e0: 7443 bbbe 7d14 8a3e 5074 c23f 6bb0 983e
000003f0: 89ef 193e 8e84 473e fd8a 273f 75c8 d53e

input_layer.bias f4 [50]
-0.036175195 0.07069183 0.34663787 0.11042633 0.0948907 0.53483003 -0.08414486 0.13385601
0.060965277 0.1586847 0.044182632 -0.16699465 0.014006091 0.35291308 0.12878607 0.123800695
0.0006949134 0.49005386 0.105404094 -0.1751982 -0.1398631 0.01159248 -0.023421794 0.21382436
-0.04610242 0.18555655 -0.16539778 -0.18639162 0.041837018 -0.1241764 -0.05719216 0.10002206
-0.17011534 0.30113566 -0.11902199 0.3563309 0.23456065 -0.036779467 -0.17163089 0.02073544
-0.1095619 0.22746597 -0.16498291 0.03424937 -0.10808349 -0.12613353 -0.10228828 -0.01944308
0.0773427 0.18193662
00000000: 712c 14bd e1c6 903d 857a b13e 3327 e23d
00000010: 0e56 c23d 9fea 083f 2454 acbd 8d11 093e
00000020: bab6 793d 3e7e 223e d9f8 343d a500 2bbe
00000030: ce79 653c 06b1 b43e 7fe0 033e 388b fd3d
00000040: d92a 363a 57e8 fa3e 1ade d73d 2867 33be
00000050: 4638 0fbe 63ee 3d3c 10df bfbc c6f4 5a3e
00000060: e4d5 3cbd 8902 3e3e 095e 29be 72dd 3ebe
00000070: 4b5d 2b3d 3250 febd 5442 6abd 5ed8 cc3d
00000080: b732 2ebe 742e 9a3e cdc1 f3bd 0171 b63e
00000090: ab30 703e 11a6 16bd 02c0 2fbe 5fdd a93c
000000a0: fd61 e0bd d7ec 683e 48f1 28be 1149 0c3d
000000b0: e05a ddbd 2629 01be 857c d1bd 1847 9fbc
000000c0: d965 9e3d 984d 3a3e

hidden_layer_list.0.weight f4 [30, 50]
0.072266154 -0.34493482 0.14630948 0.6680728 0.7292392 0.14642632 -0.11905735 0.7589294
-0.39241776 0.6828165 -0.32387975 0.098669164 -0.06439533 0.0988648 -0.09807009 -0.14837229
0.08925543 0.2968503 0.5203794 -0.032914348 -0.08412668 -0.05249574 -0.09621578 0.40897623
0.13635021 0.8030321 0.106823236 0.013993698 0.663517 0.09363801 0.08397372 -0.39296794
-0.035767738 0.24708891 -0.004907141 -0.06111364 -0.08876483 0.114691205 0.117775746 -0.0551064
-0.0303488 0.31293383 -0.046170305 0.74395716 -0.12578061 0.06748417 -0.12710778 -0.06747114
0.604071 -0.09070707 -0.022966526 -0.0646457 -0.06307904 -0.08601742 -0.0987129 -0.08810855
0.13561314 -0.066633664 -0.117604315 0.09719928 0.05486569 0.09727881 -0.1406711 -0.13461645
-0.1003733 -0.07450125 -0.0003114315 0.061172985 0.08279681 -0.12163721 0.056400493 -0.08178517
0.032507125 0.04440167 0.022631899 0.050035596 -0.007061435 0.09336466 0.02949514 0.123898014
0.03065573 -0.07486503 0.090820596 0.0076615894 0.13667524 -0.015639886 0.13992436 -0.08255639
0.07107584 -0.10550102 0.09709051 0.025671175 0.08029042 -0.121788986 -0.14067921 0.06814215
-0.058182582 0.056008916 -0.08390369 -0.043718357 0.0006335683 0.085164726 0.07986306 -0.012632659
-0.040001154 -0.0024526096 0.072888896 -0.119864516 -0.0432132 -0.13632968 0.02041359 -0.016727764
0.080114484 0.11297735 -0.12091997 -0.06258775 -0.022734838 -0.0014102337 -0.032281976 -0.08891809
-0.05464506 -0.0036420273 0.11372783 -0.036041677 0.09339358 -0.11431797 0.00632427 -0.110361226
-0.13270508 0.01401516 -0.06475542 0.10411641 0.11170315 -0.14076003 -0.009855738 -0.024160227
-0.08060674 -0.098732285 -0.059846405 0.062438283 0.033625025 0.08511538 -0.008434377 0.07345102
0.027347777 -0.030838057 -0.008267594 -0.1286218 -0.0032477689 -0.04645913 -0.047327407 -0.074653454
-0.048782304 -0.122269854 -0.009563538 -0.023610348 -0.037246957 0.10490158 0.077055946 0.022077816
-0.06994627 0.018037757 -0.09730534 0.08067769 0.1142312 -0.038975205 0.109065056 0.11486077
-0.026358975 -0.052513443 0.0071373163 0.023370901 -0.13090983 -0.026684945 -0.05113335 0.07650796
-0.0040596016 0.0930461 0.107930064 -0.044320785 0.030441508 -0.029954368 -0.06163144 -0.096313216
0.0032724838 0.025104884 -0.042735636 0.024016488 0.088377245 0.05895596 0.05831821 0.02188176
-0.10871335 -0.103422984 -0.10487502 0.09293327 -0.124559484 -0.10558221 0.07527232 0.065733254
-0.13368824 0.081715666 -0.032269213 0.030468667 -0.08859125 -0.02146775 0.031431805 0.10783219
0.085757665 -0.076902 -0.092763565 -0.008606016 0.04438392 0.077541135 -0.14092681 -0.011556666
0.005001061 -0.06604639 0.11154429 -0.0375402 -0.13483076 -0.08443951 0.004534394 -0.10524141
0.032302238 0.13757509 0.005789325 -0.034839734 0.133234 0.104402706 0.09397711 0.010727554
0.0064652595 -0.109676085 0.014395813 0.13755406 0.007476177 -0.12620233 0.077621244 0.12692001
0.11855964 0.00667011 0.026567874 0.022886297 -0.057961848 -0.020634929 0.11537247 0.014428233
0.1332876 -0.093913265 -0.020668326 -0.510202 0.024941701 0.6744807 0.3997789 0.10626989
00000000: 4700 943d 4c9b b0be 27d2 153e d206 2b3f
00000010: 6caf 3a3f c8f0 153e 57d4 f3bd 3249 423f
00000020: fbea c8be 10cd 2e3f 91d3 a5be 0f13 ca3d
00000030: b3e1 83bd a179 ca3d f9d8 c8bd e8ee 17be
00000040: 8dcb b63d c3fc 973e 9637 053f 32d1 06bd
00000050: 9c4a acbd c605 57bd c70c c5bd 5565 d13e
00000060: 649f 0b3e 8393 4d3f 24c6 da3d d345 653c
00000070: 40dc 293f 49c5 bf3d 6afa ab3d 1833 c9be
00000080: 3181 12bd e004 7d3e 15cc a0bb 4c52 7abd
00000090: 56ca b5bd 39e3 ea3d 6934 f13d 40b7 61bd
000000a0: 0c9e f8bc dd38 a03e 131d 3dbd fa73 3e3f
000000b0: a2cc 00be 2435 8a3d 8b28 02be 4f2e 8abd
000000c0: 66a4 1a3f a1c4 b9bd 4c24 bcbc f764 84bd
000000d0: 952f 81bd e729 b0bd fd29 cabd 4172 b4bd
000000e0: 2cde 0a3e 3b77 88bd 88da f0bd 6b10 c73d
000000f0: d9ba 603d 1d3a c73d 160c 10be e5d8 09be
00000100: 8490 cdbd 1d94 98bd a147 a3b9 8690 7a3d
00000110: 6091 a93d ee1c f9bd 3404 673d fc7e a7bd
00000120: 3126 053d 87de 353d 8866 b93c 20f2 4c3d
00000130: 9c63 e7bb f935 bf3d cb9f f13c 3ebe fd3d
00000140: ba21 fb3c d652 99bd 2600 ba3d 120e fb3b
00000150: 98f4 0b3e 381f 80bc 5548 0f3e 5313 a9bd
00000160: 3690 913d eb10 d8bd 64d7 c63d 5b4c d23c
00000170: 4e6f a43d 816c f9bd 360e 10be 1d8e 8b3d
00000180: dc50 6ebd 9b69 653d b3d5 abbd 0512 33bd
00000190: 0d16 263a d86a ae3d 3e8f a33d 36f9 4ebc
000001a0: 40d8 23bd f6bb 20bb c646 953d 877b f5bd
000001b0: 5300 31bd 029a 0bbe 673a a73c aa08 89bc
000001c0: 1013 a43d ab60 e73d e4a4 f7bd 022e 80bd
000001d0: 693e babc 97d7 b8ba 1b3a 04bd b01a b6bd
000001e0: 80d3 5fbd 14af 6ebb 23ea e83d 70a0 13bd
000001f0: 2245 bf3d 8a1f eabd d23b cf3b 1105 e2bd
00000200: d7e3 07be d79f 653c 7d9e 84bd fc3a d53d
00000210: 9fc4 e43d 6623 10be f679 21bc abeb c5bc
00000220: 2615 a5bd 2734 cabd 8121 75bd 49bf 7f3d
00000230: 65ba 093d f950 ae3d 5730 0abc 7d6d 963d
00000240: 7208 e03c 18a0 fcbc cd74 07bc 6fb5 03be
00000250: 85d8 54bb ee4b 3ebd 62da 41bd e9e3 98bd
00000260: f4cf 47bd 9e68 fabd 63b0 1cbc 7d6a c1bc
00000270: 4490 18bd a4d6 d63d 82cf 9d3d 89dc b43c
00000280: fd3f 8fbd ebc3 933c 0648 c7bd 583a a53d
00000290: 0cf2 e93d 77a4 1fbd 805d df3d 203c eb3d
000002a0: c7ee d7bc 5618 57bd 26e0 e93b 5574 bf3c
000002b0: 3a0d 06be 639a dabc 3471 51bd 35b0 9c3d
000002c0: 6806 85bb f48e be3d 700a dd3d b689 35bd
000002d0: 7860 f93c dd62 f5bc 4071 7cbd dd3f c5bd
000002e0: 2b77 563b c2a8 cd3c 900b 2fbd 3abe c43c
000002f0: 21ff b43d ce7b 713d 13df 6e3d 6041 b33c
00000300: 1ba5 debd 6ecf d3bd b7c8 d6bd cc53 be3d
00000310: 0b19 ffbd 7c3b d8bd 6028 9a3d 289f 863d
00000320: 92e5 08be 8b5a a73d b92c 04bd 6d99 f93c
00000330: 546f b5bd 23dd afbc a3be 003d 20d7 dc3d
00000340: b7a1 af3d cc7e 9dbd d3fa bdbd 3f00 0dbc
00000350: eacb 353d e3cd 9e3d 1e4f 10be 2c58 3dbc
00000360: f1df a33b 5443 87bd 5571 e43d c1c3 19bd
00000370: 1311 0abe 9fee acbd 4195 943b cf88 d7bd
00000380: 5a4f 043d 7ce0 0c3e 61b4 bd3b 1cb4 0ebd
00000390: 7e6e 083e 16d1 d53d 1277 c03d 9fc2 2f3c
000003a0: 87da d33b db9d e0bd 6bdc 6b3c f9da 0c3e
000003b0: b8fa f43b 2f3b 01be e3f7 9e3d 52f7 013e
000003c0: 66cf f23d f090 da3b dfa4 d93c 0b7c bb3c
000003d0: 6769 6dbd 950a a9bc 6748 ec3d 6564 6c3c
000003e0: 8b7c 083e 9955 c0bd 9f50 a9bc 999c 02bf
000003f0: 8a52 cc3c c4aa 2c3f d2af cc3e 07a4 d93d

hidden_layer_list.0.bias f4 [30]
0.004755277 -0.04574786 -0.11329633 -0.15307897 -0.076638736 0.09723913 0.26456806 0.23555791
0.13778482 0.29270008 -0.005969916 0.16273825 -0.123380356 -0.0662216 -0.13361727 -0.09745569
-0.06457829 -0.022778148 0.21986206 0.1014795 0.22632793 0.096833155 0.20721504 -0.075824544
-0.14004758 0.012885557 0.28716198 -0.00105716 0.076831974 0.12878993
00000000: 28d2 9b3b 1c62 3bbd e807 e8bd bcc0 1cbe
00000010: c5f4 9cbd 4f25 c73d 7775 873e 1836 713e
00000020: 7717 0d3e c9dc 953e 499f c3bb dba4 263e
00000030: d7ae fcbd 319f 87bd f7d2 08be d996 c7bd
00000040: 9f41 84bd 3d99 babc 8523 613e 7cd4 cf3d
00000050: 82c2 673e 7650 c63d 2e30 543e e649 9bbd
00000060: a268 0fbe f11d 533c e506 933e 6790 8aba
00000070: 155a 9d3d 82e1 033e

output_layer.weight f4 [4, 30]
0.18284959 -0.17253172 -0.07543539 -0.005619387 0.17577688 0.36250737 -0.3021732 -0.6843118
0.25787118 -0.034438446 -0.10630582 -0.08668468 0.1061511 0.11338373 0.13689852 -0.03707145
-0.06470675 -0.050976444 0.20083782 -0.19198944 0.25012422 -0.0019696814 -0.21587214 0.15383703
-0.065166555 -0.07531495 -0.37707636 0.17122278 0.33761373 -0.33534446 0.25552592 -0.062343717
0.02582382 -0.08304659 0.046126176 0.11582651 -1.3251132 -0.9081123 0.3848881 -1.0690641
-0.12896803 0.33202136 0.17745492 -0.17636323 0.143002 0.14234003 0.22469802 -1.711535
0.30283684 0.33029214 0.19434848 0.2018737 -1.4897151 -0.069377795 0.03802957 0.07833821
-1.3671637 0.57018834 0.35343212 0.29983386 -0.14580022 -0.05330312 0.12177281 0.07612066
-0.021484016 -0.3141367 0.08209136 0.411034 -0.21606718 0.15687631 -0.030407934 -0.69489783
0.12630346 -0.033843726 -0.16322824 -0.16664767 -0.6871937 -0.16966023 0.044045698 0.32684293
-0.035856634 -0.1826581 0.099752665 -0.09337644 0.14334992 -0.00833362 0.16488568 -0.8313266
-0.9599102 0.37626857 -1.1101109 -0.028823497 0.14163232 -0.12709408 0.019287733 -1.06439
0.41475138 0.22760843 -0.9211076 0.42899007 -0.121783435 -0.30233422 -0.024083637 -0.14270563
-0.1340899 -0.05919058 -0.34800366 0.40722135 -0.71982694 -0.9114372 -0.99690574 -1.1815835
0.5822826 0.16622965 -0.14420933 -0.13147715 0.660932 -0.36176828 -0.34597 -0.748985
00000000: ec3c 3b3e 28ac 30be df7d 9abd d622 b8bb
00000010: dbfe 333e 919a b93e 72b6 9abe 0f2f 2fbf
00000020: b107 843e 540f 0dbd deb6 d9bd bd87 b1bd
00000030: bf65 d93d bb35 e83d 202f 0c3e 3cd8 17bd
00000040: f984 84bd adcc 50bd 6ea8 4d3e e198 44be
00000050: 4810 803e c515 01bb 960d 5dbe 7487 1d3e
00000060: 0b76 85bd b93e 9abd 2710 c1be 0655 2f3e
00000070: b5db ac3e 45b2 abbe 4bd4 823e 205c 7fbd
00000080: 7a8c d33c 5514 aabd cdee 3c3d 7336 ed3d
00000090: 4f9d a9bf 0c7a 68bf 0e10 c53e 18d7 88bf
000000a0: 3210 04be b4fe a93e beb6 353e 9098 34be
000000b0: 1e6f 123e 96c1 113e 3d17 663e 9413 dbbf
000000c0: 6e0d 9b3e 0d1c a93e 4a03 473e fbb7 4e3e
000000d0: fcae bebf f215 8ebd e5c4 1b3d c96f a03d
000000e0: 38ff aebf ddf7 113f 0ef5 b43e d383 993e
000000f0: a74c 15be 5f54 5abd 0664 f93d 26e5 9b3d
00000100: 3fff afbc 87d6 a0be 841f a83d 0c73 d23e
00000110: b740 5dbe 2fa4 203e 0f1a f9bc d3e4 31bf
00000120: b255 013e b89f 0abd 4e25 27be b0a5 2abe
00000130: edeb 2fbf 69bb 2dbe 4369 343d f557 a73e
00000140: 68de 12bd ba0a 3bbe 204b cc3d 263c bfbd
00000150: 52ca 123e bc89 08bc cbd7 283e d2d1 54bf
00000160: adbc 75bf 46a6 c03e 1d18 8ebf 411f ecbc
00000170: 1008 113e f324 02be 4f01 9e3c ee3d 88bf
00000180: 4b5a d43e 2f12 693e b5cd 6bbf 96a4 db3e
00000190: 9869 f9bd 8dcb 9abe 0c4b c5bc 6d21 12be
000001a0: dd4e 09be d271 72bd 892d b2be 517f d03e
000001b0: 9446 38bf f353 69bf 3735 7fbf 213e 97bf
000001c0: 7910 153f 1b38 2a3e 9cab 13be f2a1 06be
000001d0: d732 293f b139 b9be fb22 b1be 7bbd 3fbf

output_layer.bias f4 [4]
0.024944238 -0.03203343 0.23381644 0.076739095
00000000: dc57 cc3c 7c35 03bd 946d 6f3e 6329 9d3d
