K-Digital Training/김소현 강사님/Pytorch/숙제/language_model/best_model_epoch_63.pth (torch, 14536 bytes, 6 tensors)

input_layer.weight f4 [50, 26]
0	0x3dcef40d	0.10105143
1	0xbdb1471a	-0.0865614
2	0xbd1bba32	-0.038019367
3	0x3dbc8524	0.09205082
4	0xbe3d0fe6	-0.18463096
5	0x3df0dfbb	0.11761423
6	0xbd2541e7	-0.040346052
7	0x3dcc55ba	0.099772885
8	0x3cdf57a6	0.027263474
9	0xbcc4b77c	-0.024013273
10	0x3d5ecd3d	0.05439495
11	0x3c1e82e1	0.009674759
12	0x3d92b140	0.07162714
13	0xbd9c8594	-0.076426655
14	0xbc6a449c	-0.014298584
15	0xbc90a2ec	-0.017655812
16	0x3ce8dd53	0.028425848
17	0xba4d6062	-0.00078344916
18	0x3e2f8d7f	0.1714382
19	0x3d79f9f8	0.061029404
20	0xbd95934f	-0.073034875
21	0xbdf2941d	-0.118446566
22	0xbd06a4ee	-0.032872133
23	0xbdad3f07	-0.08459287
24	0xbd80b4f2	-0.062845126
25	0x3c19da01	0.009390355
26	0x3f0cf4c4	0.5506098
27	0x3ecadb8a	0.3962062
28	0xbf1a9dc2	-0.6039697
29	0xbd9a36b9	-0.07529969
30	0xbebf9d7d	-0.37424842
31	0xbe0c3219	-0.13690986
32	0x3f48fc6f	0.78510183
33	0xbe89ba58	-0.26899981
34	0xbd2990ac	-0.041397735
35	0xbea1ca60	-0.31599712
36	0x3f19cb92	0.6007625
37	0xbdbb7750	-0.091536164
38	0x3e9b2f38	0.30309463
39	0x3e56d205	0.20978554
40	0x3e4ab57e	0.19795796
41	0x3d735880	0.059410572
42	0xbf2a1c34	-0.66449285
43	0xbe43f10e	-0.19134924
44	0xbe13e0fc	-0.14441293
45	0xbc9b1271	-0.018929692
46	0xbe591cb6	-0.21202359
47	0xbed517fe	-0.41619867
48	0x3c5cb0b1	0.013469861
49	0xbf40f241	-0.7536965
50	0x3eb4ab1e	0.35286802
51	0x3ed7ce16	0.4214942
52	0x3e6c874c	0.23098487
53	0x3e429225	0.19001062
54	0x3e535099	0.20636214
55	0x3f4d07b1	0.8008986
56	0x3eff52e8	0.4986794
57	0xbd86861d	-0.06568549
58	0xbe58b393	-0.21162252
59	0xbdc46eed	-0.0959147
60	0x3e0b377f	0.13595389
61	0x3f79013a	0.97267497
62	0x3f047603	0.5174257
63	0x3ec21b56	0.3791148
64	0x3e40b2e1	0.18818237
65	0x3cdefdb0	0.027220577
66	0xbe45e039	-0.19323815
67	0x3eacee12	0.33775383
68	0x3eb2e32c	0.34938943
69	0x3ea92d69	0.33042458
70	0x3ea32a6e	0.3186831
71	0x3e16dae7	0.14731942
72	0x3f38ebaa	0.72234595
73	0x3e37e68f	0.17959045
74	0xbf043db3	-0.51656646
75	0x3ec18c5a	0.37802392
76	0xbf112478	-0.5669627
77	0xbeaca5ce	-0.3372025
78	0xbf091a14	-0.5355542
79	0xbda5c390	-0.08093941
80	0x3eac132c	0.33608377
81	0xbd4cc076	-0.049988233
82	0x3eb1ed10	0.34751177
83	0x3ed3e5da	0.413863
84	0xbea8ba3d	-0.3295459
85	0x3e505969	0.20346607
86	0xbe71a8c2	-0.23599532
87	0x3cd38453	0.025819933
88	0xbf1310fd	-0.574478
89	0x3e67ba97	0.22629772
90	0xbe0315d5	-0.12801297
91	0xbe9eeb2b	-0.31038794
92	0x3e81fa6c	0.2538637
93	0xbd912f63	-0.070891164
94	0x3ebdbf58	0.37060046
95	0x3d902326	0.07037954
96	0x3e3566d4	0.17715007
97	0x3e7f3805	0.24923714
98	0xbe11e362	-0.14246896
99	0x3ec4cfa0	0.38439655
100	0x3eed077b	0.4629477
101	0x3f073da3	0.52828425
102	0xbc35e95b	-0.011103
103	0xbec9037a	-0.39260465
104	0xbeee800b	-0.46582064
105	0xbe910490	-0.28323793
106	0x3f0f3a6a	0.5594851
107	0x3ee8f20b	0.45497164
108	0x3f37f648	0.7186017
109	0x3edbfc38	0.42965865
110	0xbf10d59d	-0.5657595
111	0x3ead9795	0.3390471
112	0x3e305798	0.17220914
113	0x3ebb73f0	0.3661189
114	0xbe78435b	-0.24244444
115	0x3e8549a4	0.26032746
116	0x3d2267fc	0.03964995
117	0xbdf49ab5	-0.119435705
118	0xbe265cd5	-0.1624635
119	0xbe231dc1	-0.15929319
120	0x3f236a00	0.6383362
121	0x3ec7dba8	0.39034772
122	0x3ea3e2b9	0.32008913
123	0x3dd3d883	0.10344031
124	0x3ec6f794	0.38860762
125	0x3eb303c5	0.34963813
126	0xbe58ef24	-0.21184975
127	0x3f1f62ff	0.6226043
128	0xbee4ce40	-0.44688606
129	0xbefdb48d	-0.49551812
130	0x3e6e9c42	0.23301795
131	0x3ec977f6	0.39349335
132	0x3e841ca2	0.25803095
133	0x3f29fd1d	0.66401845
134	0x3f0dc0e7	0.5537247
135	0x3eeb3014	0.45935118
136	0x3e7e3e4a	0.24828449
137	0x3eddf740	0.433527
138	0x3e63051a	0.22169915
139	0x3e7fac32	0.24968031
140	0x3e867b1c	0.262658
141	0x3e8af287	0.2713816
142	0x3e853f97	0.26025078
143	0x3eb9a971	0.36262086
144	0x3e0e9a6a	0.13926092
145	0x3ea9e044	0.33178914
146	0x3e2a0080	0.16601753
147	0x3efa03ab	0.48830923
148	0x3ec288db	0.37995037
149	0x3f012a35	0.5045503
150	0x3ef4d4c1	0.47818568
151	0x3ea13a58	0.31489825
152	0x3e40e866	0.18838653
153	0x3dd11f36	0.10211031
154	0xbe9937e1	-0.29925445
155	0xbed26ecc	-0.41100156
156	0xbdeaa495	-0.11457173
157	0xbdabcb0b	-0.08388337
158	0x3e0ec76c	0.13943261
159	0xbd834010	-0.06408703
160	0xbe16123a	-0.1465539
161	0x3d9a887f	0.07545566
162	0x3d809843	0.062790416
163	0x3e021236	0.1270226
164	0xbdcfd72d	-0.101484634
165	0x3d2e2a6a	0.042520918
166	0xbd92382c	-0.0713962
167	0xbd347ab5	-0.044062335
168	0xbe200a1b	-0.15628855
169	0xbdb70df3	-0.089382075
170	0xbd7603a8	-0.06006208
171	0x3dabc209	0.08386619
172	0x3d12c0be	0.035828345
173	0x3d466d1e	0.048443906
174	0x3e487141	0.19574453
175	0x3e43ba40	0.19114017
176	0x3e08f880	0.13376045
177	0x3bcca321	0.0062450324
178	0xbe0aed75	-0.13567145
179	0x3e1cf1ef	0.15326665
180	0xbd48dfb6	-0.049041472
181	0xbc81e283	-0.01585508
182	0xbee6c33d	-0.4507083
183	0xbe120951	-0.14261366
184	0x3e549061	0.20758201
185	0x3f36aef5	0.71360713
186	0x3eeac94f	0.4585671
187	0x3e3ae079	0.18249692
188	0xbf1b6f18	-0.6071639
189	0xbc8ec6f3	-0.01742885
190	0x3da66e4c	0.08126506
191	0x3f26957f	0.6507186
192	0xbe7e4500	-0.24831009
193	0x3e0bffc8	0.13671792
194	0x3dc887ca	0.09791525
195	0xbeb53b28	-0.35396695
196	0xbcd9ba9a	-0.026578236
197	0x3e29351c	0.16524166
198	0x3f88367c	1.0641627
199	0x3e890f07	0.26769277
200	0x3e3645b8	0.17800033
201	0x3d3ed6ee	0.04659169
202	0x3f14da0e	0.58145225
203	0x3ec3b145	0.38221183
204	0xbdecc6d3	-0.1156136
205	0x3f35c279	0.70999867
206	0xbf2cdfa4	-0.6752875
207	0xbf2504db	-0.64460534
208	0x3eef0b2c	0.4668821
209	0x3eb06456	0.3445155
210	0xbe885131	-0.26624444
211	0xbea836de	-0.3285436
212	0xbf34266f	-0.70371145
213	0xbe1bc011	-0.15209986
214	0x3f5f74cb	0.87287587
215	0x3dfacee4	0.122464925
216	0x3e930453	0.28714237
217	0xbf362d67	-0.7116303
218	0x3e7bffbc	0.24609274
219	0x3e51b8ae	0.20480606
220	0x3da2b536	0.079447195
221	0x3f0c38b1	0.54774004
222	0x3d27b093	0.04093988
223	0x3cba688c	0.02275493
224	0xbf2786f3	-0.6544029
225	0xbed8c6b5	-0.423391
226	0xbcfc8434	-0.030824758
227	0x3d853817	0.06504839
228	0xbd0d20bb	-0.034455042
229	0xbe5e7c87	-0.21727191
230	0x3e5c263b	0.21498959
231	0xbf47893f	-0.77943796
232	0x3f63556a	0.88802207
233	0x3f27a695	0.6548856
234	0xbecc7065	-0.399295
235	0xbe1f170e	-0.15536138
236	0x3e63e43c	0.22255033
237	0x3f07f52d	0.53108484
238	0x3f31156f	0.6917333
239	0x3df4cfa5	0.119536676
240	0xbf4fa9db	-0.81118554
241	0xbd5389d8	-0.05164513
242	0x3d5f0e53	0.05445702
243	0x3ef3e238	0.4763353
244	0xbe9ecb8b	-0.31014666
245	0x3e2ffe0c	0.17186755
246	0xbe7c12c5	-0.24616535
247	0xbeb28ec2	-0.3487454
248	0xbe4b3437	-0.19844137
249	0x3e43251d	0.19057126
250	0x3f8d5003	1.1040043
251	0x3e82a22d	0.25514355
252	0x3e128368	0.1430794
253	0x3e79dd53	0.24400835
254	0x3ece5b26	0.40303916
255	0x3ebf493c	0.3736056

input_layer.bias f4 [50]
0	0xbd142c71	-0.036175195
1	0x3d61b803	0.055107128
2	0x3e995f69	0.29955605
3	0x3dcd5851	0.10026611
4	0x3dbf77f2	0.0934905
5	0x3ee4303e	0.44568056
6	0xbdac5424	-0.08414486
7	0x3e09434a	0.13404575
8	0x3d4067ec	0.046974108
9	0x3e20f474	0.15718251
10	0x3d08e66d	0.033422876
11	0xbe2b00a5	-0.16699465
12	0x3c6579ce	0.014006091
13	0x3ea710ff	0.32630154
14	0x3dee7972	0.116442576
15	0x3ddad9f9	0.10686106
16	0x3a362ad9	0.0006949134
17	0x3edecb32	0.435144
18	0x3db7f8d0	0.08983004
19	0xbe336728	-0.1751982
20	0xbe0f3846	-0.1398631
21	0x3c3dee63	0.01159248
22	0xbcbfdf10	-0.023421794
23	0x3e523284	0.20527083
24	0xbd3cd5e4	-0.04610242
25	0x3e369c75	0.17833121
26	0xbe295e09	-0.16539778
27	0xbe3edd72	-0.18639162
28	0x3d2f6d82	0.042829044
29	0xbdfe5032	-0.1241764
30	0xbd6a4254	-0.05719216
31	0x3db105c9	0.086436816
32	0xbe2e32b7	-0.17011534
33	0x3e867a92	0.2626539
34	0xbdf3c1cd	-0.11902199
35	0x3ea6349f	0.32462022
36	0x3e56d193	0.20978384
37	0xbd16a611	-0.036779467
38	0xbe2fc002	-0.17163089
39	0x3ca9dd5f	0.02073544
40	0xbde061fd	-0.1095619
41	0x3e5c0899	0.21487655
42	0xbe28f148	-0.16498291
43	0x3d10929f	0.03529608
44	0xbddd5ae0	-0.10808349
45	0xbe012926	-0.12613353
46	0xbdd17c85	-0.10228828
47	0xbc9f4718	-0.01944308
48	0x3da16624	0.0788081
49	0x3e254fe1	0.16143753

hidden_layer_list.0.weight f4 [30, 50]
0	0x3d940047	0.072266154
1	0xbe83f8c2	-0.25775725
2	0x3d915c27	0.07097655
3	0x3ec59242	0.38588148
4	0x3f023771	0.50865847
5	0x3dd86e2a	0.10567887
6	0xbdf3d457	-0.11905735
7	0x3f0243f2	0.50884926
8	0xbe831916	-0.25605077
9	0x3edf53b9	0.43618563
10	0xbe4d0079	-0.20019712
11	0x3dca130f	0.098669164
12	0xbd83e1b3	-0.06439533
13	0x3ded132d	0.11575923
14	0x3b328ed9	0.0027245788
15	0xbdd5f80b	-0.10447701
16	0x3db6cb8d	0.08925543
17	0x3e71a4e9	0.23598064
18	0x3ed79800	0.42108154
19	0xbd06d132	-0.032914348
20	0xbdac4a9c	-0.08412668
21	0xbd5705c6	-0.05249574
22	0xbdc50cc7	-0.09621578
23	0x3e89da9d	0.269246
24	0x3e0b9f64	0.13635021
25	0x3f0fff40	0.56248856
26	0x3ddac624	0.106823236
27	0x3c6545d3	0.013993698
28	0x3ed593ec	0.41714418
29	0x3dbfc549	0.09363801
30	0x3dabfa6a	0.08397372
31	0xbe875352	-0.26430756
32	0xbd128131	-0.035767738
33	0x3e62ff6a	0.22167745
34	0xbba0cc15	-0.004907141
35	0xbd62374c	-0.055228516
36	0xbd8a7d48	-0.06762177
37	0x3deae339	0.114691205
38	0x3df13469	0.117775746
39	0xbd61b740	-0.0551064
40	0xbcf89e0c	-0.0303488
41	0x3e417d69	0.18895496
42	0xbd3d1d13	-0.046170305
43	0x3f040fc1	0.5158654
44	0xbe00cca2	-0.12578061
45	0x3d8a3524	0.06748417
46	0xbe02288b	-0.12710778
47	0xbd8a2e4f	-0.06747114
48	0x3ebbdf79	0.36693934
49	0xbd4952c0	-0.049151182
50	0xbcbc244c	-0.022966526
51	0xbd8464f7	-0.0646457
52	0xbd812f95	-0.06307904
53	0xbdb029e7	-0.08601742
54	0xbdca29fd	-0.0987129
55	0xbdb47241	-0.08810855
56	0x3e0ade2c	0.13561314
57	0xbd88773b	-0.066633664
58	0xbdf0da88	-0.117604315
59	0x3dc7106b	0.09719928
60	0x3d60bad9	0.05486569
61	0x3dc73a1d	0.09727881
62	0xbe100c16	-0.1406711
63	0xbe09d8e5	-0.13461645
64	0xbdcd9084	-0.1003733
65	0xbd98941d	-0.07450125
66	0xb9a347a1	-0.0003114315
67	0x3d7a9086	0.061172985
68	0x3da99160	0.08279681
69	0xbdf91cee	-0.12163721
70	0x3d670434	0.056400493
71	0xbda77efc	-0.08178517
72	0x3d052631	0.032507125
73	0x3d35de87	0.04440167
74	0x3cb96688	0.022631899
75	0x3d4cf220	0.050035596
76	0xbbe7639c	-0.007061435
77	0x3dbf35f9	0.09336466
78	0x3cf19fcb	0.02949514
79	0x3dfdbe3e	0.123898014
80	0x3cfb21ba	0.03065573
81	0xbd9952d6	-0.07486503
82	0x3dba0026	0.090820596
83	0x3bfb0e12	0.0076615894
84	0x3e0bf498	0.13667524
85	0xbc801f38	-0.015639886
86	0x3e0f4855	0.13992436
87	0xbda91353	-0.08255639
88	0x3d919036	0.07107584
89	0xbdd810eb	-0.10550102
90	0x3dc6d764	0.09709051
91	0x3cd24c5b	0.025671175
92	0x3da46f4e	0.08029042
93	0xbdf96c81	-0.121788986
94	0xbe100e36	-0.14067921
95	0x3d8b8e1d	0.06814215
96	0xbd6e50dc	-0.058182582
97	0x3d65699b	0.056008916
98	0xbdabd5b3	-0.08390369
99	0xbd331205	-0.043718357
100	0x3a26160d	0.0006335683
101	0x3dae6ad8	0.085164726
102	0x3da38f3e	0.07986306
103	0xbc4ef936	-0.012632659
104	0xbd23d840	-0.040001154
105	0xbb20bbf6	-0.0024526096
106	0x3d9546c6	0.072888896
107	0xbdf57b87	-0.119864516
108	0xbd310053	-0.0432132
109	0xbe0b9a02	-0.13632968
110	0x3ca73a67	0.02041359
111	0xbc8908aa	-0.016727764
112	0x3da41310	0.080114484
113	0x3de760ab	0.11297735
114	0xbdf7a4e4	-0.12091997
115	0xbd802e02	-0.06258775
116	0xbcba3e69	-0.022734838
117	0xbab8d797	-0.0014102337
118	0xbd043a1b	-0.032281976
119	0xbdb61ab0	-0.08891809
120	0xbd5fd380	-0.05464506
121	0xbb6eaf14	-0.0036420273
122	0x3de8ea23	0.11372783
123	0xbd13a070	-0.036041677
124	0x3dbf4522	0.09339358
125	0xbdea1f8a	-0.11431797
126	0x3bcf3bd2	0.00632427
127	0xbde20511	-0.110361226
128	0xbe07e3d7	-0.13270508
129	0x3c659fd7	0.01401516
130	0xbd849e7d	-0.06475542
131	0x3dd53afc	0.10411641
132	0x3de4c49f	0.11170315
133	0xbe102366	-0.14076003
134	0xbc2179f6	-0.009855738
135	0xbcc5ebab	-0.024160227
136	0xbda51526	-0.08060674
137	0xbdca3427	-0.098732285
138	0xbd752181	-0.059846405
139	0x3d7fbf49	0.062438283
140	0x3d09ba65	0.033625025
141	0x3dae50f9	0.08511538
142	0xbc0a3057	-0.008434377
143	0x3d966d7d	0.07345102
144	0x3ce00872	0.027347777
145	0xbcfca018	-0.030838057
146	0xbc0774cd	-0.008267594
147	0xbe03b56f	-0.1286218
148	0xbb54d885	-0.0032477689
149	0xbd3e4bee	-0.04645913
150	0xbd41da62	-0.047327407
151	0xbd98e3e9	-0.074653454
152	0xbd47cff4	-0.048782304
153	0xbdfa689e	-0.122269854
154	0xbc1cb063	-0.009563538
155	0xbcc16a7d	-0.023610348
156	0xbd189044	-0.037246957
157	0x3dd6d6a4	0.10490158
158	0x3d9dcf82	0.077055946
159	0x3cb4dc89	0.022077816
160	0xbd8f3ffd	-0.06994627
161	0x3c93c3eb	0.018037757
162	0xbdc74806	-0.09730534
163	0x3da53a58	0.08067769
164	0x3de9f20c	0.1142312
165	0xbd1fa477	-0.038975205
166	0x3ddf5d80	0.109065056
167	0x3deb3c20	0.11486077
168	0xbcd7eec7	-0.026358975
169	0xbd571856	-0.052513443
170	0x3be9e026	0.0071373163
171	0x3cbf7455	0.023370901
172	0xbe060d3a	-0.13090983
173	0xbcda9a63	-0.026684945
174	0xbd517134	-0.05113335
175	0x3d9cb035	0.07650796
176	0xbb850668	-0.0040596016
177	0x3dbe8ef4	0.0930461
178	0x3ddd0a70	0.107930064
179	0xbd3589b6	-0.044320785
180	0x3cf96078	0.030441508
181	0xbcf562dd	-0.029954368
182	0xbd7c7140	-0.06163144
183	0xbdc53fdd	-0.096313216
184	0x3b56772b	0.0032724838
185	0x3ccda8c2	0.025104884
186	0xbd2f0b90	-0.042735636
187	0x3cc4be3a	0.024016488
188	0x3db4ff21	0.088377245
189	0x3d717bce	0.05895596
190	0x3d6edf13	0.05831821
191	0x3cb34160	0.02188176
192	0xbddea51b	-0.10871335
193	0xbdd3cf6e	-0.103422984
194	0xbdd6c8b7	-0.10487502
195	0x3dbe53cc	0.09293327
196	0xbdff190b	-0.124559484
197	0xbdd83b7c	-0.10558221
198	0x3d9a2860	0.07527232
199	0x3d869f28	0.065733254
200	0xbe08e592	-0.13368824
201	0x3da75a8b	0.081715666
202	0xbd042cb9	-0.032269213
203	0x3cf9996d	0.030468667
204	0xbdb56f54	-0.08859125
205	0xbcafdd23	-0.02146775
206	0x3d00bea3	0.031431805
207	0x3ddcd720	0.10783219
208	0x3dafa1b7	0.085757665
209	0xbd9d7ecc	-0.076902
210	0xbdbdfad3	-0.092763565
211	0xbc0d003f	-0.008606016
212	0x3d35cbea	0.04438392
213	0x3d9ecde3	0.077541135
214	0xbe104f1e	-0.14092681
215	0xbc3d582c	-0.011556666
216	0x3ba3dff1	0.005001061
217	0xbd874354	-0.06604639
218	0x3de47155	0.11154429
219	0xbd19c3c1	-0.0375402
220	0xbe0a1113	-0.13483076
221	0xbdacee9f	-0.08443951
222	0x3b949541	0.004534394
223	0xbdd788cf	-0.10524141
224	0x3d044f5a	0.032302238
225	0x3e0ce07c	0.13757509
226	0x3bbdb461	0.005789325
227	0xbd0eb41c	-0.034839734
228	0x3e086e7e	0.133234
229	0x3dd5d116	0.104402706
230	0x3dc07712	0.09397711
231	0x3c2fc29f	0.010727554
232	0x3bd3da87	0.0064652595
233	0xbde09ddb	-0.109676085
234	0x3c6bdc6b	0.014395813
235	0x3e0cdaf9	0.13755406
236	0x3bf4fab8	0.007476177
237	0xbe013b2f	-0.12620233
238	0x3d9ef7e3	0.077621244
239	0x3e01f752	0.12692001
240	0x3df2cf66	0.11855964
241	0x3bda90f0	0.00667011
242	0x3cd9a4df	0.026567874
243	0x3cbb7c0b	0.022886297
244	0xbd6d6967	-0.057961848
245	0xbca90a95	-0.020634929
246	0x3dec4867	0.11537247
247	0x3c6c6465	0.014428233
248	0x3e087c8b	0.1332876
249	0xbdc05599	-0.093913265
250	0xbca9509f	-0.020668326
251	0xbed74488	-0.42044473
252	0x3c99b2d1	0.018762024
253	0x3f074fc4	0.5285609
254	0x3eaffe6a	0.3437379
255	0x3db236c0	0.08701849

hidden_layer_list.0.bias f4 [30]
0	0xbc13e68d	-0.009027136
1	0xbd3b621c	-0.04574786
2	0xbde807e8	-0.11329633
3	0xbe1cc0bc	-0.15307897
4	0xbd9cf4c5	-0.076638736
5	0x3dc1435c	0.09436676
6	0x3e70c2dd	0.23511834
7	0x3e62ba47	0.22141372
8	0x3df91453	0.1216208
9	0x3e87bf43	0.2651311
10	0xbbc39f49	-0.005969916
11	0x3e09f0fe	0.13470837
12	0xbdfcaed7	-0.123380356
13	0xbd879f31	-0.0662216
14	0xbe052bb0	-0.13004947
15	0xbdc796d9	-0.09745569
16	0xbdd78187	-0.10522752
17	0xbd2188a3	-0.039436948
18	0x3e527770	0.20553374
19	0x3db26c1c	0.087120265
20	0x3e5f3dd4	0.2180093
21	0x3dac6453	0.08417573
22	0x3e3e92d3	0.18610696
23	0xbd9b49e6	-0.075824544
24	0xbe0f68a2	-0.14004758
25	0x3c531df1	0.012885557
26	0x3e840c6c	0.25790727
27	0xbc9d80e2	-0.019226495
28	0x3d83e3c0	0.06439924
29	0x3de198e0	0.11015487

output_layer.weight f4 [4, 30]
0	0x3e4954c7	0.19661246
1	0xbe30ac28	-0.17253172
2	0xbd9a7ddf	-0.07543539
3	0xbbb822d6	-0.005619387
4	0x3e33fedb	0.17577688
5	0x3eb8c5b2	0.3608833
6	0xbec4e396	-0.38454884
7	0xbf28f1cc	-0.6599395
8	0x3e8c5bda	0.27413827
9	0xbe09fb68	-0.1347481
10	0xbdd9b6de	-0.10630582
11	0xbd41d6b4	-0.047323897
12	0x3dd965bf	0.1061511
13	0x3de835bb	0.11338373
14	0x3e0c9b6d	0.13731165
15	0xbd17d83c	-0.03707145
16	0xbd60d64b	-0.054891866
17	0xbe5fa036	-0.2183846
18	0x3e6309b8	0.22171676
19	0xbe15a356	-0.14613089
20	0x3e857d30	0.26072073
21	0x3c9aff9f	0.018920718
22	0xbea6af55	-0.32555643
23	0x3e1d8774	0.15383703
24	0xbd85760b	-0.065166555
25	0xbd9a3eb9	-0.07531495
26	0xbee6ba6e	-0.4506411
27	0x3e4c6a3c	0.199624
28	0x3ea6d861	0.3258696
29	0xbe854886	-0.26031893
30	0x3e4553b4	0.19270211
31	0xbd7f5c20	-0.062343717
32	0x3cd38c7a	0.02582382
33	0xbdaa1455	-0.08304659
34	0x3d3ceecd	0.046126176
35	0x3d98b102	0.074556366
36	0xbf7056ea	-0.9388262
37	0xbf46294c	-0.77406764
38	0x3ea6014a	0.32422858
39	0xbf2c8287	-0.6738667
40	0xbe041032	-0.12896803
41	0x3e5ef345	0.21772487
42	0x3e35b6be	0.17745492
43	0xbe349890	-0.17636323
44	0x3e126f27	0.14300214
45	0x3e11c196	0.14234003
46	0x3c2469a6	0.010034954
47	0xbfa11c60	-1.2586784
48	0x3e7a80ed	0.24463244
49	0x3e872cb3	0.2640129
50	0x3e176842	0.14785865
51	0x3e1640b1	0.14673115
52	0xbf8f91cc	-1.1216369
53	0xbd8e15f2	-0.069377795
54	0x3d1bc4e5	0.03802957
55	0x3da06fc9	0.07833821
56	0xbf7fdace	-0.99943244
57	0x3eef1eb5	0.46703115
58	0x3e8e9e41	0.27855113
59	0x3e5788d8	0.21048295
60	0xbe02a3a6	-0.1275774
61	0xbd5a545f	-0.05330312
62	0x3df96406	0.12177281
63	0x3d9be526	0.07612066
64	0xbcafff3f	-0.021484016
65	0xbe8cfbe5	-0.2753593
66	0x3d020b93	0.03174932
67	0x3eaf9bcc	0.3429855
68	0xbe482725	-0.19546182
69	0x3de35646	0.1110044
70	0xbcf91a0f	-0.030407934
71	0xbed13f42	-0.40868574
72	0x3e0155b2	0.12630346
73	0xbd0a9fb8	-0.033843726
74	0xbe274ca1	-0.16337825
75	0xbe2aa5b0	-0.16664767
76	0xbe14fa08	-0.14548504
77	0xbe4d29b8	-0.20035446
78	0x3d2088d4	0.03919299
79	0x3e88bcdf	0.26706597
80	0xbcee60d4	-0.029098906
81	0xbe41952f	-0.18904565
82	0x3d82d34c	0.06387958
83	0xbdbf3c26	-0.09337644
84	0x3e12ca52	0.14334992
85	0xbc0889bc	-0.00833362
86	0x3deeaa56	0.11653583
87	0xbf06aeb6	-0.5261034
88	0xbf20cb59	-0.62810284
89	0x3e8ec0be	0.27881426
90	0xbf57debb	-0.84324235
91	0xbcec1f41	-0.028823497
92	0x3e110810	0.14163232
93	0xbe0224f3	-0.12709408
94	0x3c9e014f	0.019287733
95	0xbf5d269b	-0.8638703
96	0x3eb6dbf0	0.35714674
97	0x3e4aba6e	0.1979768
98	0xbf2a8d0f	-0.6662149
99	0x3ebad7e8	0.36492848
100	0xbdf96998	-0.121783435
101	0xbe997307	-0.2997057
102	0xbcc54b0c	-0.024083637
103	0xbe12216d	-0.14270563
104	0xbe0933db	-0.13398688
105	0xbd7271d2	-0.05919058
106	0xbcaf891f	-0.02142769
107	0x3ea232f4	0.316795
108	0xbf02e34e	-0.5112809
109	0xbf3cddec	-0.73776126
110	0xbf51f558	-0.8201499
111	0xbf7d7bdb	-0.99017113
112	0x3f056e6d	0.5212162
113	0x3e2a381b	0.16622965
114	0xbe13ab9c	-0.14420933
115	0xbe06a1f2	-0.13147715
116	0x3f1b65d8	0.60702276
117	0xbeb2e66b	-0.3494142
118	0xbea868a5	-0.32892337
119	0xbf0d0055	-0.5507863

output_layer.bias f4 [4]
0	0x3d03b76f	0.032157358
1	0xbd0b52df	-0.03401458
2	0x3e648696	0.22316965
3	0x3da5e159	0.08099622
