K-Digital Training/김소현 강사님/Pytorch/숙제/language_model/best_model_epoch_30.pth (torch, 14536 bytes, 6 tensors)

input_layer.weight f4 [50, 26]
00000000: 0df4 ce3d 1a47 b1bd 32ba 1bbd 2485 bc3d
00000010: e60f 3dbe bbdf f03d e741 25bd ba55 cc3d
00000020: a657 df3c 7cb7 c4bc 3dcd 5e3d e182 1e3c
00000030: 40b1 923d 9485 9cbd 9c44 6abc eca2 90bc
00000040: 53dd e83c 6260 4dba 7f8d 2f3e f8f9 793d
00000050: 4f93 95bd 1d94 f2bd eea4 06bd 073f adbd
00000060: f2b4 80bd 01da 193c c1b5 ed3e e6d9 b03e
00000070: 159a 12bf 9af8 7e3d 4bd6 55be 1875 17be
00000080: 1312 083f 8a9b bdbe 3ad7 89bd 005a a5bc
00000090: 92a5 1d3f 83f0 94bd ca65 933e 6c4d eb3d
000000a0: 638b 863d a6b1 a03d 93f3 87be 786f 07be
000000b0: dc9d 1dbe e8b1 21bd 91f7 d9bc 900a b5be
000000c0: d5b4 53be 2c97 ebbe 522b 313d ec83 043e
000000d0: 2e98 053e 5adb 82bc fa85 bf3e 3752 e33e
000000e0: c03e 893e 44bf d0bc 3179 0bbc dd83 89bd
000000f0: 883e 603c 3ee5 093f e767 fa3d d5f2 b63e
00000100: 471c 103d 2d44 153d 0317 e73c 57ba 433e
00000110: 6101 4f3e b940 e23d 9322 943e 2704 b43d
00000120: 7bef c73e 5471 833e eabc 7fbe 7a35 a93e
00000130: c5d8 4dbe a550 a43d 25e8 e3be 4316 a9bb
00000140: aa4e 463e a6a8 8bbd 84ec 713e 7688 9a3e
00000150: 642b 46be 6d77 313e 2841 5bbe 1c24 e43c
00000160: 7f42 cdbe f2dd 2c3e 39f7 95bd 5c01 89be
00000170: 026e 613e 083d 82bd 1b24 5d3d 5600 4e3d
00000180: 76ca 113e 49b8 6a3e abed 2abe 8181 873e
00000190: fc52 f03e dfdc 683e 778d ba3d 7d10 6bbe
000001a0: c8ce debe 10e6 9dbe 651f 123f 239f 673e
000001b0: f5d7 ff3e f470 e23e ab61 a4be 15f1 d93e
000001c0: fb5a 1c3e 8b39 9abc 54cd cabe e94b 6b3e
000001d0: 4a49 b5bb 412f 47bd ca46 563b 7312 70be
000001e0: efba 703e fa8a 8d3e 6a00 a03e 2c4e ca3d
000001f0: 7bd7 003e 440d 9e3e a58e bb3c 05e7 b13e
00000200: 7f0e e3bd 5664 17be 8521 773d 7353 313d
00000210: 891c c23e 98cd 8c3e 631f 9f3e 74a2 3c3e
00000220: 4381 be3e 027c 34bc 08e1 133d 8682 2bbe
00000230: 08b7 33be 8a5b 873e 940f a53d 79cf a63e
00000240: ad2e 713e eb4b 313e 262e e83e 1dfa 653e
00000250: 3aea ae3e e152 8e3e a197 633e d772 e13e
00000260: 6fda 0bbe 5d4c 9e3e 67e9 24be b231 123e
00000270: 95a4 eabd 0bcb abbd 6cc7 0e3e 1040 83bd
00000280: 3a12 16be 7f88 9a3d 4398 803d 3612 023e
00000290: 2dd7 cfbd 6a2a 2e3d 2c38 92bd b57a 34bd
000002a0: 1b0a 20be f30d b7bd a803 76bd 09c2 ab3d
000002b0: bec0 123d 1e6d 463d 4171 483e 40ba 433e
000002c0: 80f8 083e 21a3 cc3b 75ed 0abe eff1 1c3e
000002d0: b6df 48bd 83e2 81bc 716a d7be 5a40 1ebe
000002e0: 0dfc 6f3e 5c95 f13e d16d 703e f9e0 803e
000002f0: 0afd b5be 0a11 193e 1893 7c3d 5615 7f3e
00000300: 9a5e d2be 5850 ca3d 3356 333d 344a 91be
00000310: a341 2c3e 0df9 a03d 615b 1a3f 55a5 183e
00000320: d4bd 2a3e be56 813d 4263 933e 72f7 ac3e
00000330: f1c9 5e3e 0335 d23e f5af 97be 1b40 9ebe
00000340: 34b5 c63e 1675 9b3e 20eb 91be 82b5 10be
00000350: 72af 04bf b76e 63be ce26 1b3f 6faa 4dbd
00000360: feac 883e 4cff b1be 8a9c a83e 5c34 5a3e
00000370: 403c a83d 3c23 e33e fcbb 1cbe 75be 583d
00000380: c67a 5bbe ff94 b0be 9e19 50bd 468a b53c
00000390: acad 503e 3871 35be f695 dbbd e516 f9be
000003a0: ffb9 053f fe55 af3e e996 bbbe cff2 28be
000003b0: 5d50 753e 13e2 8b3e c45e e43e 569f 3f3e
000003c0: ad0b 08bf bd94 013e 3301 003d da26 403d
000003d0: 570d f4be e925 fd3d e7f0 9cbe 731a 8dbe
000003e0: 1ca5 763b f375 c13d 9cd6 183f cf38 023e
000003f0: fe45 003e a554 843e 7f0f ad3d bcfa a13e
0.10105143 -0.0865614 -0.038019367 0.09205082 -0.18463096 0.11761423 -0.040346052 0.099772885
0.027263474 -0.024013273 0.05439495 0.009674759 0.07162714 -0.076426655 -0.014298584 -0.017655812
0.028425848 -0.00078344916 0.1714382 0.061029404 -0.073034875 -0.118446566 -0.032872133 -0.08459287
-0.062845126 0.009390355 0.4642773 0.34541243 -0.5726636 0.062248804 -0.20882528 -0.14790761
0.5315258 -0.3703273 -0.06730504 -0.020184517 0.61580765 -0.072724365 0.28788596 0.114893764
0.06569555 0.07846384 -0.2655302 -0.13226116 -0.1539225 -0.039476305 -0.026607307 -0.3535962
-0.2067445 -0.46013772 0.043254204 0.12940949 0.13046333 -0.015973736 0.37406904 0.44398662
0.26805687 -0.025481828 -0.008512781 -0.06714604 0.013686784 0.5386542 0.12226849 0.3573214
0.035183217 0.03644197 0.028209215 0.19114052 0.2021537 0.11047501 0.28932628 0.087898545
0.39049897 0.256724 -0.24974409 0.33048612 -0.20102222 0.08023194 -0.4451305 -0.0051601245
0.19365945 -0.068192765 0.2362538 0.30182236 -0.1935249 0.17330714 -0.21411574 0.02784925
-0.40089795 0.1688154 -0.073225446 -0.2675885 0.22014621 -0.06359297 0.05398951 0.05029329
0.14237389 0.22921862 -0.16692226 0.2646599 0.46938312 0.22740506 0.091090135 -0.22955509
-0.43517137 -0.30839586 0.57079154 0.226193 0.4996945 0.442268 -0.32105765 0.42566743
0.15269081 -0.018826267 -0.39609778 0.22978176 -0.0055324184 -0.04862905 0.0032696002 -0.23444538
0.2350881 0.27645093 0.31250316 0.09878191 0.125822 0.30869496 0.022895167 0.34746566
-0.11086749 -0.14784369 0.0603347 0.043292474 0.37912396 0.27500606 0.31078634 0.18421346
0.37207994 -0.011015894 0.03610328 -0.1674901 -0.1755029 0.26437026 0.08059612 0.32580164
0.23552962 0.17314117 0.45347708 0.22458692 0.34163076 0.27797607 0.2222581 0.44032928
-0.13657545 0.30917636 -0.16104661 0.1427677 -0.11457173 -0.08388337 0.13943261 -0.06408703
-0.1465539 0.07545566 0.062790416 0.1270226 -0.101484634 0.042520918 -0.0713962 -0.044062335
-0.15628855 -0.089382075 -0.06006208 0.08386619 0.035828345 0.048443906 0.19574453 0.19114017
0.13376045 0.0062450324 -0.13567145 0.15326665 -0.049041472 -0.01585508 -0.42073396 -0.15454236
0.23435993 0.47184265 0.23479392 0.2517164 -0.35544616 0.14947906 0.061663717 0.24910483
-0.410878 0.098786056 0.043783378 -0.28376925 0.16821913 0.07860003 0.60295683 0.14906819
0.16673976 0.06315373 0.28786665 0.33782536 0.21756722 0.4105607 -0.29626432 -0.30908284
0.38810122 0.30362767 -0.284997 -0.1413174 -0.5183021 -0.22210203 0.60606086 -0.050211366
0.26694483 -0.3476509 0.3293193 0.21309036 0.08214617 0.4436282 -0.15306085 0.05291601
-0.21433553 -0.34488675 -0.05080568 0.02216066 0.2037875 -0.17718971 -0.10721962 -0.4865028
0.5223693 0.34245294 -0.36638573 -0.16498874 0.23956437 0.27320918 0.4460355 0.18713126
-0.53142816 0.12654395 0.031251144 0.04691205 -0.47666427 0.123607464 -0.30652544 -0.27559242
0.0037635034 0.09446325 0.5970247 0.12716983 0.125267 0.2584583 0.08450221 0.31636608

input_layer.bias f4 [50]
00000000: 712c 14bd 7730 143d d5bb 533e d855 ce3d
00000010: 77f0 973d b0b8 8c3e 2454 acbd 815f f33d
00000020: 0bd9 bc3c b8d1 0c3e 983f 5b3c a500 2bbe
00000030: ce79 653c 2a27 813e 9c27 a93d 20fa 893d
00000040: d92a 363a 738b 9d3e c1e8 723d 2867 33be
00000050: 4638 0fbe 63ee 3d3c 10df bfbc 4491 3f3e
00000060: e4d5 3cbd 4b4e 233e 095e 29be 72dd 3ebe
00000070: ad40 e63c 3250 febd 5442 6abd a3c7 8c3d
00000080: b732 2ebe f161 3d3e cdc1 f3bd a62d 6b3e
00000090: 9b2b 1c3e 11a6 16bd 02c0 2fbe 5fdd a93c
000000a0: fd61 e0bd 7554 403e 48f1 28be 0bb3 a33c
000000b0: e05a ddbd 2629 01be 857c d1bd 1847 9fbc
000000c0: dfb6 823d 7cfc f33d
-0.036175195 0.036179032 0.20677121 0.10074967 0.07418912 0.27484655 -0.08414486 0.1188345
0.023052713 0.13751876 0.013381861 -0.16699465 0.014006091 0.25225192 0.08259508 0.06737161
0.0006949134 0.30770454 0.059304003 -0.1751982 -0.1398631 0.01159248 -0.023421794 0.18707758
-0.04610242 0.15947835 -0.16539778 -0.18639162 0.028107012 -0.1241764 -0.05719216 0.06874015
-0.17011534 0.18494393 -0.11902199 0.22966632 0.15251009 -0.036779467 -0.17163089 0.02073544
-0.1095619 0.18782218 -0.16498291 0.019982835 -0.10808349 -0.12613353 -0.10228828 -0.01944308
0.06382536 0.11913392

hidden_layer_list.0.weight f4 [30, 50]
00000000: 4700 943d 8ac6 1dbe 051a 6fbd b5f6 c13d
00000010: 7bcf 653e 0744 713c 57d4 f3bd 908f 443e
00000020: d804 6bbd 6d3a e63d b91e 47bd 0f13 ca3d
00000030: b3e1 83bd 7ae9 c83d 8eb3 d73d 1800 a4bd
00000040: 8dcb b63d f7c7 e83d 8801 723e 32d1 06bd
00000050: 9c4a acbd c605 57bd c70c c5bd 9f82 7e3d
00000060: 649f 0b3e a921 853e 24c6 da3d d345 653c
00000070: 5958 b73d 49c5 bf3d 6afa ab3d d123 c4bd
00000080: 3181 12bd b32c fd3d 15cc a0bb f48a c5bd
00000090: 6d23 a2bd 39e3 ea3d 6934 f13d 40b7 61bd
000000a0: 0c9e f8bc 1cc7 51bb 131d 3dbd 327c 603e
000000b0: a2cc 00be 2435 8a3d 8b28 02be 4f2e 8abd
000000c0: 5756 853d 38b1 a9bc 4c24 bcbc f764 84bd
000000d0: 952f 81bd e729 b0bd fd29 cabd 4172 b4bd
000000e0: 2cde 0a3e 3b77 88bd 88da f0bd 6b10 c73d
000000f0: d9ba 603d 1d3a c73d 160c 10be e5d8 09be
00000100: 8490 cdbd 1d94 98bd a147 a3b9 8690 7a3d
00000110: 6091 a93d ee1c f9bd 3404 673d fc7e a7bd
00000120: 3126 053d 87de 353d 8866 b93c 20f2 4c3d
00000130: 9c63 e7bb f935 bf3d cb9f f13c 3ebe fd3d
00000140: ba21 fb3c d652 99bd 2600 ba3d 120e fb3b
00000150: 98f4 0b3e 381f 80bc 5548 0f3e 5313 a9bd
00000160: 3690 913d eb10 d8bd 64d7 c63d 5b4c d23c
00000170: 4e6f a43d 816c f9bd 360e 10be 1d8e 8b3d
00000180: dc50 6ebd 9b69 653d b3d5 abbd 0512 33bd
00000190: 0d16 263a d86a ae3d 3e8f a33d 36f9 4ebc
000001a0: 40d8 23bd f6bb 20bb c646 953d 877b f5bd
000001b0: 5300 31bd 029a 0bbe 673a a73c aa08 89bc
000001c0: 1013 a43d ab60 e73d e4a4 f7bd 022e 80bd
000001d0: 693e babc 97d7 b8ba 1b3a 04bd b01a b6bd
000001e0: 80d3 5fbd 14af 6ebb 23ea e83d 70a0 13bd
000001f0: 2245 bf3d 8a1f eabd d23b cf3b 1105 e2bd
00000200: d7e3 07be d79f 653c 7d9e 84bd fc3a d53d
00000210: 9fc4 e43d 6623 10be f679 21bc abeb c5bc
00000220: 2615 a5bd 2734 cabd 8121 75bd 49bf 7f3d
00000230: 65ba 093d f950 ae3d 5730 0abc 7d6d 963d
00000240: 7208 e03c 18a0 fcbc cd74 07bc 6fb5 03be
00000250: 85d8 54bb ee4b 3ebd 62da 41bd d2e3 98bd
00000260: c4cf 47bd 8768 fabd 94af 1cbc 196a c1bc
00000270: 4490 18bd bbd6 d63d 99cf 9d3d eddc b43c
00000280: e63f 8fbd ebc3 933c 0648 c7bd 6f3a a53d
00000290: 23f2 e93d 47a4 1fbd 805d df3d 373c eb3d
000002a0: 63ee d7bc 5618 57bd 26e0 e93b 5574 bf3c
000002b0: 3a0d 06be ff99 dabc 3471 51bd 4cb0 9c3d
000002c0: 6806 85bb f48e be3d 870a dd3d b689 35bd
000002d0: 7860 f93c 7962 f5bc 4071 7cbd c63f c5bd
000002e0: 2b77 563b 26a9 cd3c 600b 2fbd 3abe c43c
000002f0: 21ff b43d ce7b 713d 13df 6e3d c441 b33c
00000300: 1ba5 debd 57cf d3bd b7c8 d6bd cc53 be3d
00000310: 0b19 ffbd 7c3b d8bd 7728 9a3d 3f9f 863d
00000320: 92e5 08be 8b5a a73d b92c 04bd 6d99 f93c
00000330: 546f b5bd 23dd afbc a3be 003d 20d7 dc3d
00000340: b7a1 af3d cc7e 9dbd d3fa bdbd 3f00 0dbc
00000350: eacb 353d e3cd 9e3d 1e4f 10be 2c58 3dbc
00000360: f1df a33b 5443 87bd 5571 e43d c1c3 19bd
00000370: 1311 0abe 9fee acbd 4195 943b cf88 d7bd
00000380: 5a4f 043d 7ce0 0c3e 61b4 bd3b 1cb4 0ebd
00000390: 7e6e 083e 16d1 d53d 1277 c03d 9fc2 2f3c
000003a0: 87da d33b db9d e0bd 6bdc 6b3c f9da 0c3e
000003b0: b8fa f43b 2f3b 01be e3f7 9e3d 52f7 013e
000003c0: 66cf f23d f090 da3b dfa4 d93c 0b7c bb3c
000003d0: 6769 6dbd 950a a9bc 6748 ec3d 6564 6c3c
000003e0: 8b7c 083e 9955 c0bd 9f50 a9bc 8b53 d1be
000003f0: 22d3 c3bc 7332 ce3e 9abd 8f3e 2ce9 023d
0.072266154 -0.15407768 -0.058374424 0.09470884 0.22442429 0.014725692 -0.11905735 0.1919539
-0.057377666 0.112416126 -0.048613284 0.098669164 -0.06439533 0.09810157 0.10532294 -0.080078304
0.08925543 0.11366265 0.23633397 -0.032914348 -0.08412668 -0.05249574 -0.09621578 0.06213629
0.13635021 0.26002243 0.106823236 0.013993698 0.08952398 0.09363801 0.08397372 -0.09577144
-0.035767738 0.12362041 -0.004907141 -0.09645644 -0.07916913 0.114691205 0.117775746 -0.0551064
-0.0303488 -0.0032009548 -0.046170305 0.21922377 -0.12578061 0.06748417 -0.12710778 -0.06747114
0.06510609 -0.020714387 -0.022966526 -0.0646457 -0.06307904 -0.08601742 -0.0987129 -0.08810855
0.13561314 -0.066633664 -0.117604315 0.09719928 0.05486569 0.09727881 -0.1406711 -0.13461645
-0.1003733 -0.07450125 -0.0003114315 0.061172985 0.08279681 -0.12163721 0.056400493 -0.08178517
0.032507125 0.04440167 0.022631899 0.050035596 -0.007061435 0.09336466 0.02949514 0.123898014
0.03065573 -0.07486503 0.090820596 0.0076615894 0.13667524 -0.015639886 0.13992436 -0.08255639
0.07107584 -0.10550102 0.09709051 0.025671175 0.08029042 -0.121788986 -0.14067921 0.06814215
-0.058182582 0.056008916 -0.08390369 -0.043718357 0.0006335683 0.085164726 0.07986306 -0.012632659
-0.040001154 -0.0024526096 0.072888896 -0.119864516 -0.0432132 -0.13632968 0.02041359 -0.016727764
0.080114484 0.11297735 -0.12091997 -0.06258775 -0.022734838 -0.0014102337 -0.032281976 -0.08891809
-0.05464506 -0.0036420273 0.11372783 -0.036041677 0.09339358 -0.11431797 0.00632427 -0.110361226
-0.13270508 0.01401516 -0.06475542 0.10411641 0.11170315 -0.14076003 -0.009855738 -0.024160227
-0.08060674 -0.098732285 -0.059846405 0.062438283 0.033625025 0.08511538 -0.008434377 0.07345102
0.027347777 -0.030838057 -0.008267594 -0.1286218 -0.0032477689 -0.04645913 -0.047327407 -0.07465328
-0.048782125 -0.12226968 -0.009563345 -0.023610162 -0.037246957 0.10490175 0.07705612 0.022078002
-0.069946095 0.018037757 -0.09730534 0.08067786 0.11423137 -0.038975026 0.109065056 0.114860944
-0.026358789 -0.052513443 0.0071373163 0.023370901 -0.13090983 -0.02668476 -0.05113335 0.076508135
-0.0040596016 0.0930461 0.107930236 -0.044320785 0.030441508 -0.029954182 -0.06163144 -0.096313044
0.0032724838 0.02510507 -0.042735457 0.024016488 0.088377245 0.05895596 0.05831821 0.021881945
-0.10871335 -0.10342281 -0.10487502 0.09293327 -0.124559484 -0.10558221 0.07527249 0.065733425
-0.13368824 0.081715666 -0.032269213 0.030468667 -0.08859125 -0.02146775 0.031431805 0.10783219
0.085757665 -0.076902 -0.092763565 -0.008606016 0.04438392 0.077541135 -0.14092681 -0.011556666
0.005001061 -0.06604639 0.11154429 -0.0375402 -0.13483076 -0.08443951 0.004534394 -0.10524141
0.032302238 0.13757509 0.005789325 -0.034839734 0.133234 0.104402706 0.09397711 0.010727554
0.0064652595 -0.109676085 0.014395813 0.13755406 0.007476177 -0.12620233 0.077621244 0.12692001
0.11855964 0.00667011 0.026567874 0.022886297 -0.057961848 -0.020634929 0.11537247 0.014428233
0.1332876 -0.093913265 -0.020668326 -0.4088405 -0.023904387 0.40272865 0.28074342 0.03196065

hidden_layer_list.0.bias f4 [30]
00000000: 5f12 a1bd 1c62 3bbd e807 e8bd b2c0 1cbe
00000010: c5f4 9cbd 807f 663d f67c 383e 297c 383e
00000020: 1d6e a43d 7ac3 473e 499f c3bb bc8a 0a3e
00000030: d7ae fcbd 319f 87bd b02b 05be d996 c7bd
00000040: 8781 d7bd 15c3 fabd 6676 1e3e 044c 993d
00000050: 3fe4 363e b3f0 3e3d 4d0b 133e e649 9bbd
00000060: a268 0fbe f11d 533c 873e 553e a7e5 7dbc
00000070: c100 773d 11bf c13d
-0.07864832 -0.04574786 -0.11329633 -0.15307882 -0.076638736 0.056273937 0.18016419 0.18016113
0.08028815 0.19508162 -0.005969916 0.13529485 -0.123380356 -0.0662216 -0.13004947 -0.09745569
-0.10522752 -0.1224424 0.15474853 0.07485202 0.17860506 0.046616267 0.1435978 -0.075824544
-0.14004758 0.012885557 0.20824634 -0.015496648 0.060303453 0.09460271

output_layer.weight f4 [4, 30]
00000000: 3ab9 3f3e 28ac 30be df7d 9abd 3b21 b8bb
00000010: dbfe 333e 4e3e b73e d788 edbe be25 22bf
00000020: 63d0 923e 80cd 71be deb6 d9bd 1c33 8cbc
00000030: bf65 d93d bb35 e83d 6d9b 0c3e 3cd8 17bd
00000040: 4bd6 60bd a2e7 91be 1a8f 713e a8e4 dabd
00000050: 9d23 883e 7712 073d c11a e9be 7487 1d3e
00000060: 0b76 85bd b93e 9abd 4281 07bf 6af9 693e
00000070: 94ae a23e 9c24 45be ef72 143e 205c 7fbd
00000080: 7a8c d33c 6c14 aabd cdee 3c3d 3fd6 113d
00000090: 0219 f7be f0ac 16bf 60bf 883e 9ead 50be
000000a0: 3210 04be baf6 033e beb6 353e 9098 34be
000000b0: 276f 123e 96c1 113e a669 243c 8d5a a7be
000000c0: 6de3 473e f641 543e 4282 e43d 9ad0 d03d
000000d0: 5644 2abf f215 8ebd e5c4 1b3d c96f a03d
000000e0: a12b 12bf 63c5 c03e ee11 5f3e 4c29 063e
000000f0: 1863 4bbe 5f54 5abd 0664 f93d 3be5 9b3d
00000100: 3fff afbc 042b aabe 14c3 bd3c 40f9 9b3e
00000110: 10ed 6cbe b4bc e13d 0f1a f9bc ab59 7dbe
00000120: b255 013e b89f 0abd a14c 27be b0a5 2abe
00000130: 08fa 14be 4494 18be 513a 85bd 432b fb3d
00000140: 905d 12be 4510 9dbe 4722 8a3d 263c bfbd
00000150: 52ca 123e bc89 08bc de97 e13d 080a a5be
00000160: 8a63 c6be 6cb8 eb3d dcae 94be 411f ecbc
00000170: 1008 113e ea24 02be 4f01 9e3c 8104 0cbf
00000180: 8414 833e 852f 0f3e ec45 c6be 605c 813e
00000190: 9869 f9bd 08be 88be 0c4b c5bc 6d21 12be
000001a0: db33 09be d271 72bd 1f89 afbc e644 db3d
000001b0: 3be9 64be d1fa fabe fb8c 05bf 7fb7 30bf
000001c0: 305e d43e 1b38 2a3e 9cab 13be f2a1 06be
000001d0: 9c7c 023f 6f34 8fbe 8656 8bbe 652d 9cbe
0.18723002 -0.17253172 -0.07543539 -0.0056191958 0.17577688 0.35789722 -0.46393463 -0.6333884
0.2867461 -0.23613548 -0.10630582 -0.017114215 0.1061511 0.11338373 0.13731165 -0.03707145
-0.054891866 -0.28497034 0.23589745 -0.10688144 0.2658967 0.032976594 -0.45528224 0.15383703
-0.065166555 -0.07531495 -0.52931607 0.2284905 0.31773818 -0.19252247 0.14496969 -0.062343717
0.02582382 -0.083046764 0.046126176 0.03560471 -0.48261267 -0.5885763 0.26708508 -0.2037873
-0.12896803 0.12887087 0.17745492 -0.17636323 0.14300214 0.14234003 0.010034954 -0.32686272
0.1952035 0.20728287 0.11157657 0.101960376 -0.6651052 -0.069377795 0.03802957 0.07833821
-0.5709782 0.37650594 0.21784183 0.13101691 -0.1986202 -0.05330312 0.12177281 0.076120816
-0.021484016 -0.33235943 0.02316431 0.304636 -0.23137307 0.110223204 -0.030407934 -0.24741237
0.12630346 -0.033843726 -0.16337825 -0.16664767 -0.14548504 -0.14900309 -0.065052636 0.12264111
-0.14293504 -0.30676475 0.06744819 -0.09337644 0.14334992 -0.00833362 0.110152945 -0.32234216
-0.38747817 0.11509785 -0.29039657 -0.028823497 0.14163232 -0.12709394 0.019287733 -0.5469437
0.2560159 0.13982971 -0.3872522 0.2526579 -0.121783435 -0.26707482 -0.024083637 -0.14270563
-0.13398688 -0.05919058 -0.02142769 0.10706501 -0.22354595 -0.49019483 -0.52168244 -0.6902999
0.4147811 0.16622965 -0.14420933 -0.13147715 0.5097139 -0.2796969 -0.2721445 -0.30503383

output_layer.bias f4 [4]
00000000: 9913 003d 2d5f a0bc a2b9 493e 442f bc3d
0.03126869 -0.019576633 0.1969972 0.09188703
