K-Digital Training/김소현 강사님/Pytorch/숙제/language_model/best_model_epoch_7.pth (torch, 14536 bytes, 6 tensors)

input_layer.weight f4 [50, 26]
0.10105143 -0.0865614 -0.038019367 0.09205082 -0.18463096 0.11761423 -0.040346052 0.099772885
0.027263474 -0.024013273 0.05439495 0.009674759 0.07162714 -0.076426655 -0.014298584 -0.017655812
0.028425848 -0.00078344916 0.1714382 0.061029404 -0.073034875 -0.118446566 -0.032872133 -0.08459287
-0.062845126 0.009390355 0.17229597 0.15461805 -0.26836106 0.14485116 0.03387663 0.13630448
0.16378587 -0.20510784 -0.15999915 -0.043379262 0.2531209 -0.040621474 0.12124932 -0.06626339
0.15159467 -0.05195982 0.06634853 -0.00014791181 -0.11038385 0.08161851 -0.06316501 -0.024265064
-0.10179525 -0.105498604 -0.18857518 -0.1032925 0.06743653 -0.08393715 0.22720562 0.19637321
0.03635009 -0.11995426 0.055912867 0.0095920935 -0.12599394 0.19568235 0.05680558 0.19112465
-0.112812236 -0.05215591 -0.015342116 0.03040017 -0.07778429 -0.10387097 0.12539372 -0.04082094
0.13225792 0.057914563 -0.021475168 0.099288225 -0.0060303966 0.093845725 -0.22391799 0.09224973
-0.09889741 -0.15436009 0.0236142 0.023302333 0.08031086 -0.04862437 -0.1846501 0.09733245
-0.0933517 0.102330305 0.034709416 -0.16722539 0.07575221 0.017523743 -0.18902989 -0.08508276
0.067230955 0.06492229 -0.13015871 -0.03281068 0.2548287 -0.05321887 0.15411267 0.032884806
-0.20116578 -0.18789864 0.25202733 0.041320864 0.19082761 0.12049376 -0.01879189 0.21071899
0.16981304 -0.12394233 -0.063983075 0.13811648 0.09483057 0.07067498 -0.1139647 -0.18228653
-0.11768107 0.06782652 0.20382059 -0.08547573 0.066919535 -0.04385162 -0.12879361 -0.012853077
0.091227494 0.10276322 -0.09434202 0.013371847 0.16148387 0.116876535 0.112874 0.086802445
0.16926174 -0.014008948 -0.13106738 -0.18813208 -0.108135425 0.0027908476 -0.098264605 0.101854734
0.0462696 -0.019157853 0.15474628 0.050142653 0.13082582 0.109579876 -0.026915604 0.19651131
-0.08952124 0.038017876 -0.2078956 -0.047948234 -0.11457173 -0.08388337 0.13943261 -0.06408703
-0.1465539 0.07545566 0.062790416 0.1270226 -0.101484634 0.042520918 -0.0713962 -0.044062335
-0.15628855 -0.089382075 -0.06006208 0.08386619 0.035828345 0.048443906 0.19574453 0.19114017
0.13376045 0.0062450324 -0.13567145 0.15326665 -0.049041472 -0.01585508 -0.22406307 -0.062469464
-0.055483982 0.25263688 -0.08153294 -0.066717155 -0.080090895 -0.057129007 0.063693956 0.017318076
-0.14239027 0.011890127 0.116409145 -0.18021663 0.091560364 0.104637325 0.266055 -0.07076119
0.063097015 -0.111808844 0.18407623 0.0074373223 0.11411407 0.0792058 -0.07581704 -0.060439188
0.10889487 0.13208753 -0.0005500838 0.02002566 -0.22988068 0.0874097 0.2615177 0.13170286
0.18343206 -0.19910382 -0.013067846 0.21360528 -0.08950222 0.2468962 -0.12232416 -0.08481859
0.10262063 -0.1699659 -0.018856602 0.14226966 0.18945076 0.14503063 -0.03343253 -0.16613509
0.265338 0.044786856 -0.12188003 -0.0016742474 -0.06349229 0.12613115 0.16131319 -0.11285591
-0.19168541 -0.02454963 0.07228734 -0.03490501 -0.16796647 0.03786552 -0.20153981 -0.14485376
-0.088355646 0.15289693 0.25131327 -0.047526512 0.03415747 0.11011891 0.022444593 -0.017238462
00000000: 0df4 ce3d 1a47 b1bd 32ba 1bbd 2485 bc3d
00000010: e60f 3dbe bbdf f03d e741 25bd ba55 cc3d
00000020: a657 df3c 7cb7 c4bc 3dcd 5e3d e182 1e3c
00000030: 40b1 923d 9485 9cbd 9c44 6abc eca2 90bc
00000040: 53dd e83c 6260 4dba 7f8d 2f3e f8f9 793d
00000050: 4f93 95bd 1d94 f2bd eea4 06bd 073f adbd
00000060: f2b4 80bd 01da 193c 5b6e 303e 3254 1e3e
00000070: 9f66 89be dd53 143e 39c2 0a3d 6793 0b3e
00000080: 7cb7 273e ca07 52be d1d6 23be 74ae 31bd
00000090: 1099 813e b462 26bd 9051 f83d 1ab5 87bd
000000a0: a23b 1b3e d2d3 54bd bde1 873d c618 1bb9
000000b0: ee10 e2bd 9b27 a73d a85c 81bd 87c7 c6bc
000000c0: 077a d0bd a70f d8bd da19 41be 058b d3bd
000000d0: 2a1c 8a3d 3ee7 abbd 97a8 683e 0f16 493e
000000e0: d5e3 143d 94aa f5bd e404 653d 2828 1d3c
000000f0: 8e04 01be f460 483e f8ac 683d 2eb6 433e
00000100: 1a0a e7bd 6fa1 55bd 805d 7bbc c709 f93c
00000110: 5f4d 9fbd 4eba d4bd 3667 003e dc33 27bd
00000120: 9f6e 073e d237 6d3d b1ec afbc a057 cb3d
00000130: a29a c5bb 3032 c03d c24a 65be 6ded bc3d
00000140: ba8a cabd 9210 1ebe 9172 c13c 89e4 be3c
00000150: 057a a43d 592a 47bd ea14 3dbe 3c56 c73d
00000160: 2d2f bfbd 8d92 d13d 762b 0e3d 223d 2bbe
00000170: fa23 9b3d f48d 8f3c 0d91 41be df3f aebd
00000180: 62b0 893d faf5 843d 5348 05be 7e64 06bd
00000190: e878 823e 08fc 59bd b6cf 1d3e 38b2 063d
000001a0: 67fe 4dbe 8068 40be ba09 813e 1140 293d
000001b0: 5068 433e 6fc5 f63d 73f1 99bc b8c6 573e
000001c0: 78e3 2d3e 7ad5 fdbd 8f09 83bd 686e 0d3e
000001d0: 8836 c23d 0bbe 903d 5366 e9bd 52a9 3abe
000001e0: c602 f1bd a1e8 8a3d 58b6 503e e60d afbd
000001f0: 1c0d 893d c29d 33bd 79e2 03be b695 52bc
00000200: 7bd5 ba3d 8675 d23d 6436 c1bd 9715 5b3c
00000210: 075c 253e f75c ef3d 7c2a e73d 7bc5 b13d
00000220: f352 2d3e c985 65bc 8736 06be b2a5 40be
00000230: 1b76 ddbd a7e6 363b f43e c9bd 3799 d03d
00000240: 3185 3d3d eef0 9cbc cf75 1e3e 6262 4d3d
00000250: 34f7 053e 6a6b e03d 1d7e dcbc 433a 493e
00000260: e956 b7bd a2b8 1b3d 96e2 54be 5e65 44bd
00000270: 95a4 eabd 0bcb abbd 6cc7 0e3e 1040 83bd
00000280: 3a12 16be 7f88 9a3d 4398 803d 3612 023e
00000290: 2dd7 cfbd 6a2a 2e3d 2c38 92bd b57a 34bd
000002a0: 1b0a 20be f30d b7bd a803 76bd 09c2 ab3d
000002b0: bec0 123d 1e6d 463d 4171 483e 40ba 433e
000002c0: 80f8 083e 21a3 cc3b 75ed 0abe eff1 1c3e
000002d0: b6df 48bd 83e2 81bc ca70 65be fbdf 7fbd
000002e0: 2c43 63bd 9f59 813e befa a6bd 01a3 88bd
000002f0: b206 a4bd 1b00 6abd fa71 823d a3de 8d3c
00000300: c1ce 11be cfce 423c eb67 ee3d b58a 38be
00000310: 0084 bb3d 184c d63d 5c38 883e 3eeb 90bd
00000320: 0239 813d 09fc e4bd 7b7e 3c3e c8b4 f33b
00000330: a3b4 e93d a736 a23d f745 9bbd 158f 77bd
00000340: 4604 df3d f441 073e 8033 10ba da0c a43c
00000350: d765 6bbe db03 b33d a6e5 853e 1ddd 063e
00000360: 9dd5 3b3e dfe1 4bbe 851a 56bc 58bb 5a3e
00000370: f14c b7bd 5cd2 7c3e 1785 fabd 5eb5 adbd
00000380: c42a d23d 8a0b 2ebe 2979 9abc 23af 113e
00000390: 61ff 413e e982 143e 8cf0 08bd 511f 2abe
000003a0: 62da 873e 6c72 373d 3d9c f9bd 6c72 dbba
000003b0: 3f08 82bd 8628 013e 492f 253e 0021 e7bd
000003c0: 2e49 44be 4e1c c9bc 630b 943d 8ef8 0ebd
000003d0: 67ff 2bbe e018 1b3d 7460 4ebe 8b54 14be
000003e0: cef3 b4bd 0391 1c3e 22ac 803e 29ab 42bd
000003f0: b4e8 0b3d 0686 e13d b9dd b73c ad37 8dbc

input_layer.bias f4 [50]
-0.036175195 0.00047184725 0.06553368 0.073960625 0.037930112 0.07941513 -0.08414486 0.07764463
-0.023567514 0.1254927 -0.06336794 -0.16699465 0.014006091 0.12059404 0.0013386642 0.0031989391
0.0006949134 0.10855839 0.01649364 -0.1751982 -0.1398631 0.01159248 -0.023421682 0.18542087
-0.04610242 0.1259838 -0.16539778 -0.18639162 -0.017162694 -0.1241764 -0.05719216 0.024387695
-0.17011534 0.13215464 -0.11902199 0.14363949 0.06581247 -0.036779467 -0.17163089 0.020735733
-0.1095619 0.16883782 -0.16498291 -0.02377294 -0.10808349 -0.12613353 -0.10228828 -0.01944308
0.024871422 0.031628028
00000000: 712c 14bd 4462 f739 8636 863d ab78 973d
00000010: 9b5c 1b3d 66a4 a23d 2454 acbd 2604 9f3d
00000020: a910 c1bc 2981 003e 0dc7 81bd a500 2bbe
00000030: ce79 653c 02fa f63d 1e76 af3a 4ba5 513b
00000040: d92a 363a dc53 de3d ac1d 873c 2867 33be
00000050: 4638 0fbe 63ee 3d3c d4de bfbc f8de 3d3e
00000060: e4d5 3cbd e601 013e 095e 29be 72dd 3ebe
00000070: c798 8cbc 3250 febd 5442 6abd b4c8 c73c
00000080: b732 2ebe 8c53 073e cdc1 f3bd 3b16 133e
00000090: b0c8 863d 11a6 16bd 02c0 2fbe fcdd a93c
000000a0: fd61 e0bd d2e3 2c3e 48f1 28be 78bf c2bc
000000b0: e05a ddbd 2629 01be 857c d1bd 1847 9fbc
000000c0: 27bf cb3c 648c 013d

hidden_layer_list.0.weight f4 [30, 50]
0.072266154 -0.057764754 -0.0877458 -0.0297973 0.13327004 -0.017277831 -0.11905735 0.11096757
0.03441024 0.024544893 0.024274614 0.098669164 -0.06439533 0.10307017 0.13599043 -0.036465827
0.08925543 0.07802473 0.13243866 -0.032914348 -0.08412668 -0.05249574 -0.09621578 0.0048517263
0.13635021 0.13719808 0.106823236 0.013993698 0.003070044 0.09363801 0.08397372 -0.014034024
-0.035767738 0.0559196 -0.004907141 -0.09935392 -0.06651852 0.114691205 0.117775746 -0.0551064
-0.0303488 -0.07009171 -0.046170305 0.12891386 -0.12578061 0.06748417 -0.12710778 -0.06747114
-0.028798454 0.009799412 -0.022966526 -0.0646457 -0.06307904 -0.08601742 -0.0987129 -0.08810855
0.13561314 -0.066633664 -0.117604315 0.09719928 0.05486569 0.09727881 -0.1406711 -0.13461645
-0.1003733 -0.07450125 -0.0003114315 0.061172985 0.08279681 -0.12163721 0.056400493 -0.08178517
0.032507125 0.04440167 0.022631899 0.050035596 -0.007061435 0.09336466 0.02949514 0.123898014
0.03065573 -0.07486503 0.090820596 0.0076615894 0.13667524 -0.015639886 0.13992436 -0.08255639
0.07107584 -0.10550102 0.09709051 0.025671175 0.08029042 -0.121788986 -0.14067921 0.06814215
-0.058182582 0.056008916 -0.08390369 -0.043718357 0.0006335683 0.085164726 0.07986306 -0.012632659
-0.040001154 -0.0024526096 0.072888896 -0.119864516 -0.0432132 -0.13632968 0.02041359 -0.016727764
0.080114484 0.11297735 -0.12091997 -0.06258775 -0.022734838 -0.0014102337 -0.032281976 -0.08891809
-0.05464506 -0.0036420273 0.11372783 -0.036041677 0.09339358 -0.11431797 0.00632427 -0.110361226
-0.13270508 0.01401516 -0.06475542 0.10411641 0.11170315 -0.14076003 -0.009855738 -0.024160227
-0.08060674 -0.098732285 -0.059846405 0.062438283 0.033625025 0.08511538 -0.008434377 0.07345102
0.027347777 -0.030838057 -0.008267594 -0.1286218 -0.0032477689 -0.04645913 -0.047327407 -0.056801565
-0.030919554 -0.10440822 0.008298883 -0.005747414 -0.037246957 0.122763894 0.09491022 0.03994016
-0.05208865 0.018037757 -0.09730534 0.09854045 0.1320917 -0.021114796 0.109065056 0.13272375
-0.008497378 -0.052513443 0.0071373163 0.023370901 -0.13090983 -0.008822128 -0.05113335 0.094369866
-0.0040596016 0.0930461 0.12579237 -0.044320785 0.030441508 -0.012097528 -0.06163144 -0.07845076
0.0032724838 0.042967502 -0.024873301 0.024016488 0.088377245 0.05895596 0.05831821 0.03974455
-0.10871335 -0.085560635 -0.10487502 0.09293327 -0.124559484 -0.10558221 0.09313471 0.08359516
-0.13368824 0.081715666 -0.032269213 0.030468667 -0.08859125 -0.02146775 0.031431805 0.10783219
0.085757665 -0.076902 -0.092763565 -0.008606016 0.04438392 0.077541135 -0.14092681 -0.011556666
0.005001061 -0.06604639 0.11154429 -0.0375402 -0.13483076 -0.08443951 0.004534394 -0.10524141
0.032302238 0.13757509 0.005789325 -0.034839734 0.133234 0.104402706 0.09397711 0.010727554
0.0064652595 -0.109676085 0.014395813 0.13755406 0.007476177 -0.12620233 0.077621244 0.12692001
0.11855964 0.00667011 0.026567874 0.022886297 -0.057961848 -0.020634929 0.11537247 0.014428233
0.1332876 -0.093913265 -0.020668326 -0.069851965 -0.09271765 0.14714666 0.10295088 -0.066058315
00000000: 4700 943d bc9a 6cbd 12b4 b3bd 7819 f4bc
00000010: f177 083e 3d8a 8dbc 57d4 f3bd f742 e33d
00000020: c0f1 0c3d 5f12 c93c 8edb c63c 0f13 ca3d
00000030: b3e1 83bd 7416 d33d 1341 0b3e 315d 15bd
00000040: 8dcb b63d 6ecb 9f3d 009e 073e 32d1 06bd
00000050: 9c4a acbd c605 57bd c70c c5bd 3bfb 9e3b
00000060: 649f 0b3e a77d 0c3e 24c6 da3d d345 653c
00000070: cb32 493b 49c5 bf3d 6afa ab3d f7ee 65bc
00000080: 3181 12bd f30b 653d 15cc a0bb 117a cbbd
00000090: dd3a 88bd 39e3 ea3d 6934 f13d 40b7 61bd
000000a0: 0c9e f8bc 3e8c 8fbd 131d 3dbd ff01 043e
000000b0: a2cc 00be 2435 8a3d 8b28 02be 4f2e 8abd
000000c0: bcea ebbc b78d 203c 4c24 bcbc f764 84bd
000000d0: 952f 81bd e729 b0bd fd29 cabd 4172 b4bd
000000e0: 2cde 0a3e 3b77 88bd 88da f0bd 6b10 c73d
000000f0: d9ba 603d 1d3a c73d 160c 10be e5d8 09be
00000100: 8490 cdbd 1d94 98bd a147 a3b9 8690 7a3d
00000110: 6091 a93d ee1c f9bd 3404 673d fc7e a7bd
00000120: 3126 053d 87de 353d 8866 b93c 20f2 4c3d
00000130: 9c63 e7bb f935 bf3d cb9f f13c 3ebe fd3d
00000140: ba21 fb3c d652 99bd 2600 ba3d 120e fb3b
00000150: 98f4 0b3e 381f 80bc 5548 0f3e 5313 a9bd
00000160: 3690 913d eb10 d8bd 64d7 c63d 5b4c d23c
00000170: 4e6f a43d 816c f9bd 360e 10be 1d8e 8b3d
00000180: dc50 6ebd 9b69 653d b3d5 abbd 0512 33bd
00000190: 0d16 263a d86a ae3d 3e8f a33d 36f9 4ebc
000001a0: 40d8 23bd f6bb 20bb c646 953d 877b f5bd
000001b0: 5300 31bd 029a 0bbe 673a a73c aa08 89bc
000001c0: 1013 a43d ab60 e73d e4a4 f7bd 022e 80bd
000001d0: 693e babc 97d7 b8ba 1b3a 04bd b01a b6bd
000001e0: 80d3 5fbd 14af 6ebb 23ea e83d 70a0 13bd
000001f0: 2245 bf3d 8a1f eabd d23b cf3b 1105 e2bd
00000200: d7e3 07be d79f 653c 7d9e 84bd fc3a d53d
00000210: 9fc4 e43d 6623 10be f679 21bc abeb c5bc
00000220: 2615 a5bd 2734 cabd 8121 75bd 49bf 7f3d
00000230: 65ba 093d f950 ae3d 5730 0abc 7d6d 963d
00000240: 7208 e03c 18a0 fcbc cd74 07bc 6fb5 03be
00000250: 85d8 54bb ee4b 3ebd 62da 41bd c2a8 68bd
00000260: 014b fdbc fad3 d5bd 0af8 073c ce54 bcbb
00000270: 4490 18bd a36b fb3d 4a60 c23d 4b98 233d
00000280: e95a 55bd ebc3 933c 0648 c7bd 93cf c93d
00000290: 0c43 073e f0f8 acbc 805d df3d bce8 073e
000002a0: 9638 0bbc 5618 57bd 26e0 e93b 5574 bf3c
000002b0: 3a0d 06be b08a 10bc 3471 51bd fd44 c13d
000002c0: 6806 85bb f48e be3d b7cf 003e b689 35bd
000002d0: 7860 f93c b634 46bc 4071 7cbd cbaa a0bd
000002e0: 2b77 563b b1fe 2f3d 18c3 cbbc 3abe c43c
000002f0: 21ff b43d ce7b 713d 13df 6e3d 2ecb 223d
00000300: 1ba5 debd 6a3a afbd b7c8 d6bd cc53 be3d
00000310: 0b19 ffbd 7c3b d8bd 69bd be3d f033 ab3d
00000320: 92e5 08be 8b5a a73d b92c 04bd 6d99 f93c
00000330: 546f b5bd 23dd afbc a3be 003d 20d7 dc3d
00000340: b7a1 af3d cc7e 9dbd d3fa bdbd 3f00 0dbc
00000350: eacb 353d e3cd 9e3d 1e4f 10be 2c58 3dbc
00000360: f1df a33b 5443 87bd 5571 e43d c1c3 19bd
00000370: 1311 0abe 9fee acbd 4195 943b cf88 d7bd
00000380: 5a4f 043d 7ce0 0c3e 61b4 bd3b 1cb4 0ebd
00000390: 7e6e 083e 16d1 d53d 1277 c03d 9fc2 2f3c
000003a0: 87da d33b db9d e0bd 6bdc 6b3c f9da 0c3e
000003b0: b8fa f43b 2f3b 01be e3f7 9e3d 52f7 013e
000003c0: 66cf f23d f090 da3b dfa4 d93c 0b7c bb3c
000003d0: 6769 6dbd 950a a9bc 6748 ec3d 6564 6c3c
000003e0: 8b7c 083e 9955 c0bd 9f50 a9bc 8c0e 8fbd
000003f0: c0e2 bdbd 9dad 163e e9d7 d23d 9549 87bd

hidden_layer_list.0.bias f4 [30]
-0.10145113 -0.04574786 -0.11329633 -0.13521579 -0.076638736 0.0024472633 0.07342031 0.054269135
0.05835131 0.12135313 -0.005969916 0.14078286 -0.123380356 -0.0662216 -0.1136697 -0.09745569
-0.10522752 -0.13398266 0.13411903 0.030197287 0.067459375 -0.035065673 0.036482416 -0.075824544
-0.14004758 0.012885557 0.09687718 -0.020519093 0.04529658 0.06269779
00000000: 9cc5 cfbd 1c62 3bbd e807 e8bd 0276 0abe
00000010: c5f4 9cbd 4462 203b 635d 963d 5049 5e3d
00000020: c901 6f3d fd87 f83d 499f c3bb 6229 103e
00000030: d7ae fcbd 319f 87bd a9cb e8bd d996 c7bd
00000040: 8781 d7bd c032 09be 8056 093e 4d60 f73c
00000050: 2428 8a3d 06a1 0fbd 966e 153d e649 9bbd
00000060: a268 0fbe f11d 533c 8b67 c63d a817 a8bc
00000070: e888 393d b367 803d

output_layer.weight f4 [4, 30]
0.13281788 -0.17253172 -0.07543539 0.012117015 0.17577688 0.2029579 -0.13597293 -0.16839184
0.18434943 -0.013098152 -0.10630582 -0.08746682 0.1061511 0.11338373 0.1536591 -0.03707145
-0.054891866 -0.008553855 0.1618443 -0.15653853 0.10426817 -0.119357385 -0.05079317 0.15383703
-0.065166555 -0.07531495 -0.106371 0.09688835 0.15471786 -0.18050078 0.14369822 -0.062343717
0.02582382 -0.100812584 0.046126176 -0.1423437 -0.12544516 -0.11370883 0.13351808 0.045157973
-0.12896803 0.032942355 0.17745492 -0.17636323 0.15934913 0.14234003 0.010034954 -0.09269167
0.09152318 0.09991432 -0.06034509 -0.08864538 -0.17232321 -0.069377795 0.03802957 0.07833821
-0.099574156 0.19353972 0.06140408 0.05965675 -0.090556346 -0.05330312 0.12177281 0.0933917
-0.021484016 -0.14598417 -0.16618422 0.036449354 -0.12768933 -0.029105267 -0.030407934 -0.17686793
0.12630346 -0.033843726 -0.17975086 -0.16664767 -0.14548504 -0.07159138 -0.015794693 0.068336934
-0.01355389 -0.1909798 -0.1415459 -0.09337644 0.14334992 -0.00833362 -0.11953135 -0.10233475
-0.14445557 0.02579792 -0.015550284 -0.028823497 0.14163232 -0.11046026 0.019287733 -0.12760167
0.043429416 -0.11126556 -0.09788313 0.08806296 -0.121783435 -0.09196987 -0.024083637 -0.14270563
-0.11762012 -0.05919058 -0.02142769 -0.039254915 0.0007657407 -0.1851549 -0.04957793 -0.18383148
0.14761521 0.16622965 -0.14420933 -0.13147715 0.2516908 0.09401406 0.073530465 -0.11988801
00000000: 6901 083e 28ac 30be df7d 9abd 7286 463c
00000010: dbfe 333e 32d4 4f3e 7d3c 0bbe e96e 2cbe
00000020: 19c6 3c3e a299 56bc deb6 d9bd ce21 b3bd
00000030: bf65 d93d bb35 e83d d058 1d3e 3cd8 17bd
00000040: 4bd6 60bd 7825 0cbc 83ba 253e a34b 20be
00000050: 8d8a d53d a571 f4bd 800c 50bd 7487 1d3e
00000060: 0b76 85bd b93e 9abd 0ad9 d9bd 666d c63d
00000070: 5c6e 1e3e 32d5 38be a025 133e 205c 7fbd
00000080: 7a8c d33c d476 cebd cdee 3c3d 8cc2 11be
00000090: b274 00be 2de0 e8bd f7b8 083e 91f7 383d
000000a0: 3210 04be 90ee 063d beb6 353e 9098 34be
000000b0: 6b2c 233e 96c1 113e a669 243c 21d5 bdbd
000000c0: 8170 bb3d e19f cc3d 6a2c 77bd b68b b5bd
000000d0: 7f75 30be f215 8ebd e5c4 1b3d c96f a03d
000000e0: 89ed cbbd 472f 463e d882 7b3d a35a 743d
000000f0: 9b75 b9bd 5f54 5abd 0664 f93d 2644 bf3d
00000100: 3fff afbc e07c 15be 322c 2abe eb4b 153d
00000110: fec0 02be 2b6e eebc 0f1a f9bc de1c 35be
00000120: b255 013e b89f 0abd 9c10 38be b0a5 2abe
00000130: 08fa 14be 809e 92bd df63 81bc 3cf4 8b3d
00000140: 2311 5ebc 3590 43be 69f1 10be 263c bfbd
00000150: 52ca 123e bc89 08bc dacc f4bd e294 d1bd
00000160: 29ec 13be 2956 d33c 9ec6 7ebc 411f ecbc
00000170: 1008 113e fd38 e2bd 4f01 9e3c 03aa 02be
00000180: 0be3 313d 33df e3bd f376 c8bd 5a5a b43d
00000190: 9869 f9bd b35a bcbd 0c4b c5bc 6d21 12be
000001a0: d1e2 f0bd d271 72bd 1f89 afbc c3c9 20bd
000001b0: fdbb 483a 3f99 3dbe 3a12 4bbd 523e 3cbe
000001c0: 7128 173e 1b38 2a3e 9cab 13be f2a1 06be
000001d0: 9edd 803e 728a c03d 2497 963d d887 f5bd

output_layer.bias f4 [4]
0.05503248 -0.0027146332 0.13600247 0.110870086
00000000: bd69 613d fde7 31bb 3b44 0b3e db0f e33d
