K-Digital Training/김소현 강사님/Pytorch/숙제/language_model/best_model_epoch_85.pth (torch, 14536 bytes, 6 tensors)

input_layer.weight f4 [50, 26]
0	0x3dcef40d	0.10105143
1	0xbdb1471a	-0.0865614
2	0xbd1bba32	-0.038019367
3	0x3dbc8524	0.09205082
4	0xbe3d0fe6	-0.18463096
5	0x3df0dfbb	0.11761423
6	0xbd2541e7	-0.040346052
7	0x3dcc55ba	0.099772885
8	0x3cdf57a6	0.027263474
9	0xbcc4b77c	-0.024013273
10	0x3d5ecd3d	0.05439495
11	0x3c1e82e1	0.009674759
12	0x3d92b140	0.07162714
13	0xbd9c8594	-0.076426655
14	0xbc6a449c	-0.014298584
15	0xbc90a2ec	-0.017655812
16	0x3ce8dd53	0.028425848
17	0xba4d6062	-0.00078344916
18	0x3e2f8d7f	0.1714382
19	0x3d79f9f8	0.061029404
20	0xbd95934f	-0.073034875
21	0xbdf2941d	-0.118446566
22	0xbd06a4ee	-0.032872133
23	0xbdad3f07	-0.08459287
24	0xbd80b4f2	-0.062845126
25	0x3c19da01	0.009390355
26	0x3f17ab6d	0.5924595
27	0x3eee49c2	0.46540648
28	0xbf20689c	-0.6265962
29	0xbdfdd03f	-0.123932354
30	0xbee0d24d	-0.43910447
31	0xbda919cd	-0.08256874
32	0x3f63c85d	0.88977605
33	0xbe1221e9	-0.14270748
34	0xbd20a13d	-0.03921627
35	0xbed8d933	-0.4235321
36	0x3f1fa6c9	0.6236387
37	0xbe0a0355	-0.13477834
38	0x3e9b41a4	0.30323517
39	0x3e6f6135	0.23376925
40	0x3e895837	0.26825115
41	0x3d1742b5	0.03692885
42	0xbf6e9be4	-0.9320662
43	0xbe50e493	-0.20399694
44	0xbe1d5190	-0.15363145
45	0x3c3b8679	0.011445635
46	0xbea5fc30	-0.32418966
47	0xbeebe5cf	-0.46073768
48	0x3e5082e5	0.20362432
49	0xbf6ebdee	-0.9325856
50	0x3f080da2	0.531458
51	0x3f02d406	0.5110477
52	0x3e888e9a	0.26671296
53	0x3e868d99	0.26279905
54	0x3db5ea62	0.088825956
55	0x3f700efc	0.93772864
56	0x3f173b74	0.59075093
57	0xbdcdceb4	-0.10049191
58	0xbe879194	-0.26478255
59	0xbdbd90fb	-0.092561685
60	0x3e38a4e3	0.1803165
61	0x3f91ca39	1.1389838
62	0x3f2f33f1	0.6843863
63	0x3ebd2fe4	0.369506
64	0x3e7f843d	0.24952789
65	0x3ca010d6	0.019539278
66	0xbe9e1208	-0.30873132
67	0x3ec82b2e	0.39095443
68	0x3ed34218	0.41261363
69	0x3ed28563	0.4111739
70	0x3e9cf776	0.30657548
71	0x3e30b3ae	0.17256042
72	0x3f5e60a0	0.8686619
73	0x3de21cd7	0.11040657
74	0xbf1fcfb4	-0.62426305
75	0x3ecc0eb3	0.39854965
76	0xbf38a539	-0.7212711
77	0xbf06d26d	-0.52664834
78	0xbf1687ba	-0.5880085
79	0xbe149378	-0.1450938
80	0x3ee26ed2	0.44225174
81	0xbd0d38b1	-0.034477893
82	0x3ed5b366	0.41738433
83	0x3eed74c5	0.4637815
84	0xbed54dd9	-0.41660956
85	0x3e458fa9	0.19293083
86	0xbe75a282	-0.23987773
87	0x3b0617d3	0.0020460978
88	0xbf380145	-0.7187694
89	0x3e96c105	0.29444137
90	0xbe221435	-0.15828021
91	0xbea48dcf	-0.3213944
92	0x3e8fc0e8	0.28076863
93	0xbd81b9ef	-0.06334292
94	0x3f210b94	0.6290829
95	0x3da4adb2	0.08040942
96	0x3e589208	0.21149457
97	0x3e82f179	0.25574854
98	0xbdd5d084	-0.10440162
99	0x3ef22f63	0.47301778
100	0x3ed43493	0.4144636
101	0x3f3f19a1	0.7464848
102	0xbdaaffb0	-0.0834955
103	0xbee8aa6f	-0.4544253
104	0xbef81fa7	-0.4846165
105	0xbe9fb8ab	-0.31195578
106	0x3f0e0eeb	0.55491513
107	0x3f084d3e	0.5324286
108	0x3f4bdbdf	0.7963237
109	0x3ec08f5c	0.37609375
110	0xbf280a8a	-0.6564108
111	0x3e6dd890	0.23227143
112	0x3e3c43e8	0.18385279
113	0x3f00d7dd	0.5032938
114	0xbe423b84	-0.18968016
115	0x3e9628dc	0.29328048
116	0x3d772e7b	0.06034706
117	0xbe0e6a79	-0.13907804
118	0xbe7e282b	-0.2482001
119	0xbdfe0bf6	-0.12404625
120	0x3f61c1f6	0.88186586
121	0x3ed7be8b	0.4213756
122	0x3ea6c23c	0.32570064
123	0x3dad1efa	0.08453174
124	0x3f04e54d	0.51912385
125	0x3ec0ae1f	0.37632844
126	0xbeca3465	-0.394931
127	0x3f47f964	0.78114915
128	0xbf1fb506	-0.62385595
129	0xbf1cf519	-0.6131149
130	0x3e90d52c	0.28287637
131	0x3f09bf27	0.538073
132	0x3e515eb4	0.20446283
133	0x3f462f2a	0.77415717
134	0x3f1eaeee	0.6198567
135	0x3f25a941	0.64711386
136	0x3e6782a1	0.22608425
137	0x3f34af8c	0.70580363
138	0x3e8a362c	0.26994455
139	0x3ebf6f11	0.37389424
140	0x3ee05fe2	0.43823153
141	0x3e5ddd0e	0.21666357
142	0x3e9d071f	0.30669495
143	0x3eb38881	0.35065082
144	0x3e046579	0.12929334
145	0x3eb6b4d3	0.35684833
146	0xbdf43ca9	-0.119256325
147	0x3f12c3fe	0.5733031
148	0x3eb7b754	0.35882056
149	0x3f2095b5	0.62728435
150	0x3f0507df	0.51965135
151	0x3e754729	0.23952927
152	0x3ee68b63	0.4502822
153	0xbd60fb56	-0.054927193
154	0xbe98898e	-0.29792446
155	0xbf31807c	-0.69336677
156	0xbdeaa495	-0.11457173
157	0xbdabcb0b	-0.08388337
158	0x3e0ec76c	0.13943261
159	0xbd834010	-0.06408703
160	0xbe16123a	-0.1465539
161	0x3d9a887f	0.07545566
162	0x3d809843	0.062790416
163	0x3e021236	0.1270226
164	0xbdcfd72d	-0.101484634
165	0x3d2e2a6a	0.042520918
166	0xbd92382c	-0.0713962
167	0xbd347ab5	-0.044062335
168	0xbe200a1b	-0.15628855
169	0xbdb70df3	-0.089382075
170	0xbd7603a8	-0.06006208
171	0x3dabc209	0.08386619
172	0x3d12c0be	0.035828345
173	0x3d466d1e	0.048443906
174	0x3e487141	0.19574453
175	0x3e43ba40	0.19114017
176	0x3e08f880	0.13376045
177	0x3bcca321	0.0062450324
178	0xbe0aed75	-0.13567145
179	0x3e1cf1ef	0.15326665
180	0xbd48dfb6	-0.049041472
181	0xbc81e283	-0.01585508
182	0xbeee5aa9	-0.46553543
183	0xbe388681	-0.18020059
184	0x3e482ffe	0.19549558
185	0x3f4adb19	0.79240566
186	0x3f0791d6	0.52956903
187	0x3dd1870e	0.10230838
188	0xbf32804e	-0.6972703
189	0xbe262030	-0.16223216
190	0x3dc38d76	0.09548466
191	0x3f4bbf46	0.79588735
192	0xbe4120d3	-0.18860178
193	0x3e322c88	0.173998
194	0x3e002467	0.12513886
195	0xbebccacf	-0.3687348
196	0xbdf978ad	-0.1218122
197	0x3e5401c5	0.207038
198	0x3fa84155	1.3144938
199	0x3e98617f	0.29761884
200	0x3e3e6b9f	0.18595742
201	0x3c83d54f	0.016092924
202	0x3f395628	0.7239709
203	0x3ed0aa12	0.40754753
204	0xbeab9033	-0.33508453
205	0x3f5d2f42	0.86400235
206	0xbf5e3973	-0.8680641
207	0xbf3f17f7	-0.7464594
208	0x3efe407d	0.49658576
209	0x3ed018a7	0.40643808
210	0xbe871ec0	-0.26390648
211	0xbec892cd	-0.391745
212	0xbf444b34	-0.7667725
213	0xbd8ab3c8	-0.06772572
214	0x3f78a229	0.97122437
215	0x3e8fe20b	0.28102145
216	0x3e90f9e9	0.28315666
217	0xbf580142	-0.8437692
218	0x3e65e83f	0.22451876
219	0x3e29cccf	0.16582035
220	0x3d854f2a	0.0650924
221	0x3f118146	0.5683788
222	0x3e08b55f	0.13350438
223	0xbc1f1265	-0.009708975
224	0xbf6b3bad	-0.91887933
225	0xbee1f3a3	-0.44131193
226	0xbd1775e8	-0.03697768
227	0x3dd65784	0.10465911
228	0xbe2c5beb	-0.16831939
229	0xbe7ed017	-0.24884067
230	0x3ee18e01	0.44053653
231	0xbf716813	-0.9429943
232	0x3f8aae31	1.0834409
233	0x3f3e52a7	0.7434487
234	0xbed4a805	-0.4153444
235	0xbe46d79e	-0.19418189
236	0x3e58f7af	0.21188234
237	0x3f1e1647	0.6175274
238	0x3f4520e7	0.7700333
239	0x3d1fd729	0.039023552
240	0xbf695f67	-0.911612
241	0xbe4e0506	-0.20119104
242	0x3d90ca7f	0.07069873
243	0x3f225e03	0.634247
244	0xbe79e403	-0.24403386
245	0x3e59cc29	0.21269287
246	0xbe5d92df	-0.21638058
247	0xbebab563	-0.36466512
248	0xbe98ef41	-0.29870036
249	0x3e71b6bc	0.23604864
250	0x3faf1b85	1.3680273
251	0x3e93e221	0.2888346
252	0x3e1c187b	0.15243714
253	0x3e5b1007	0.21392833
254	0x3f0e956b	0.55696744
255	0x3ecdafc9	0.40173176

input_layer.bias f4 [50]
0	0xbd142c71	-0.036175195
1	0x3d84ca2e	0.06483875
2	0x3ea8647e	0.3288917
3	0x3dd7d734	0.105390936
4	0x3dc2344b	0.0948263
5	0x3f007ef9	0.50193745
6	0xbdac5424	-0.08414486
7	0x3e098aee	0.13431904
8	0x3d6519eb	0.05593292
9	0x3e229fb1	0.1588123
10	0x3d22fa44	0.039789453
11	0xbe2b00a5	-0.16699465
12	0x3c6579ce	0.014006091
13	0x3eafea41	0.3435841
14	0x3dfeacd1	0.12435306
15	0x3df0774b	0.11741503
16	0x3a362ad9	0.0006949134
17	0x3ef0b073	0.4700962
18	0x3dce8eea	0.100858524
19	0xbe336728	-0.1751982
20	0xbe0f3846	-0.1398631
21	0x3c3dee63	0.01159248
22	0xbcbfdf10	-0.023421794
23	0x3e57fd24	0.21092659
24	0xbd3cd5e4	-0.04610242
25	0x3e3bcf63	0.1834083
26	0xbe295e09	-0.16539778
27	0xbe3edd72	-0.18639162
28	0x3d2d4326	0.042300366
29	0xbdfe5032	-0.1241764
30	0xbd6a4254	-0.05719216
31	0x3dc1917c	0.09451577
32	0xbe2e32b7	-0.17011534
33	0x3e93655b	0.28788266
34	0xbdf3c1cd	-0.11902199
35	0x3eb0bc87	0.34518835
36	0x3e66e85e	0.22549579
37	0xbd16a611	-0.036779467
38	0xbe2fc002	-0.17163089
39	0x3ca9dd5f	0.02073544
40	0xbde061fd	-0.1095619
41	0x3e64b2c2	0.22333816
42	0xbe28f148	-0.16498291
43	0x3d0e5a9a	0.034754373
44	0xbddd5ae0	-0.10808349
45	0xbe012926	-0.12613353
46	0xbdd17c85	-0.10228828
47	0xbc9f4718	-0.01944308
48	0x3d9f2d95	0.07772366
49	0x3e3258b5	0.17416652

hidden_layer_list.0.weight f4 [30, 50]
0	0x3d940047	0.072266154
1	0xbe9bfddb	-0.30467114
2	0x3dec755e	0.115458235
3	0x3f096203	0.5366518
4	0x3f2232bd	0.6335867
5	0x3e05fd17	0.13084827
6	0xbdf3d457	-0.11905735
7	0x3f266c33	0.6500885
8	0xbeaa644a	-0.3327964
9	0x3f13a321	0.5767079
10	0xbe89775d	-0.2684888
11	0x3dca130f	0.098669164
12	0xbd83e1b3	-0.06439533
13	0x3ddde249	0.10834176
14	0xbd594d64	-0.05305232
15	0xbe025819	-0.12728919
16	0x3db6cb8d	0.08925543
17	0x3e8b8a09	0.2725375
18	0x3ef5ce46	0.48008937
19	0xbd06d132	-0.032914348
20	0xbdac4a9c	-0.08412668
21	0xbd5705c6	-0.05249574
22	0xbdc50cc7	-0.09621578
23	0x3eb34bcb	0.35018763
24	0x3e0b9f64	0.13635021
25	0x3f32c7a3	0.6983587
26	0x3ddac624	0.106823236
27	0x3c6545d3	0.013993698
28	0x3f0e8f2c	0.5568721
29	0x3dbfc549	0.09363801
30	0x3dabfa6a	0.08397372
31	0xbeac0e9c	-0.33604896
32	0xbd128131	-0.035767738
33	0x3e74be41	0.23900701
34	0xbba0cc15	-0.004907141
35	0xbd6620a3	-0.05618347
36	0xbd9eac26	-0.077476785
37	0x3deae339	0.114691205
38	0x3df13469	0.117775746
39	0xbd61b740	-0.0551064
40	0xbcf89e0c	-0.0303488
41	0x3e85cfc6	0.2613508
42	0xbd3d1d13	-0.046170305
43	0x3f2561a0	0.6460209
44	0xbe00cca2	-0.12578061
45	0x3d8a3524	0.06748417
46	0xbe02288b	-0.12710778
47	0xbd8a2e4f	-0.06747114
48	0x3f0030f1	0.5007468
49	0xbd913041	-0.07089282
50	0xbcbc244c	-0.022966526
51	0xbd8464f7	-0.0646457
52	0xbd812f95	-0.06307904
53	0xbdb029e7	-0.08601742
54	0xbdca29fd	-0.0987129
55	0xbdb47241	-0.08810855
56	0x3e0ade2c	0.13561314
57	0xbd88773b	-0.066633664
58	0xbdf0da88	-0.117604315
59	0x3dc7106b	0.09719928
60	0x3d60bad9	0.05486569
61	0x3dc73a1d	0.09727881
62	0xbe100c16	-0.1406711
63	0xbe09d8e5	-0.13461645
64	0xbdcd9084	-0.1003733
65	0xbd98941d	-0.07450125
66	0xb9a347a1	-0.0003114315
67	0x3d7a9086	0.061172985
68	0x3da99160	0.08279681
69	0xbdf91cee	-0.12163721
70	0x3d670434	0.056400493
71	0xbda77efc	-0.08178517
72	0x3d052631	0.032507125
73	0x3d35de87	0.04440167
74	0x3cb96688	0.022631899
75	0x3d4cf220	0.050035596
76	0xbbe7639c	-0.007061435
77	0x3dbf35f9	0.09336466
78	0x3cf19fcb	0.02949514
79	0x3dfdbe3e	0.123898014
80	0x3cfb21ba	0.03065573
81	0xbd9952d6	-0.07486503
82	0x3dba0026	0.090820596
83	0x3bfb0e12	0.0076615894
84	0x3e0bf498	0.13667524
85	0xbc801f38	-0.015639886
86	0x3e0f4855	0.13992436
87	0xbda91353	-0.08255639
88	0x3d919036	0.07107584
89	0xbdd810eb	-0.10550102
90	0x3dc6d764	0.09709051
91	0x3cd24c5b	0.025671175
92	0x3da46f4e	0.08029042
93	0xbdf96c81	-0.121788986
94	0xbe100e36	-0.14067921
95	0x3d8b8e1d	0.06814215
96	0xbd6e50dc	-0.058182582
97	0x3d65699b	0.056008916
98	0xbdabd5b3	-0.08390369
99	0xbd331205	-0.043718357
100	0x3a26160d	0.0006335683
101	0x3dae6ad8	0.085164726
102	0x3da38f3e	0.07986306
103	0xbc4ef936	-0.012632659
104	0xbd23d840	-0.040001154
105	0xbb20bbf6	-0.0024526096
106	0x3d9546c6	0.072888896
107	0xbdf57b87	-0.119864516
108	0xbd310053	-0.0432132
109	0xbe0b9a02	-0.13632968
110	0x3ca73a67	0.02041359
111	0xbc8908aa	-0.016727764
112	0x3da41310	0.080114484
113	0x3de760ab	0.11297735
114	0xbdf7a4e4	-0.12091997
115	0xbd802e02	-0.06258775
116	0xbcba3e69	-0.022734838
117	0xbab8d797	-0.0014102337
118	0xbd043a1b	-0.032281976
119	0xbdb61ab0	-0.08891809
120	0xbd5fd380	-0.05464506
121	0xbb6eaf14	-0.0036420273
122	0x3de8ea23	0.11372783
123	0xbd13a070	-0.036041677
124	0x3dbf4522	0.09339358
125	0xbdea1f8a	-0.11431797
126	0x3bcf3bd2	0.00632427
127	0xbde20511	-0.110361226
128	0xbe07e3d7	-0.13270508
129	0x3c659fd7	0.01401516
130	0xbd849e7d	-0.06475542
131	0x3dd53afc	0.10411641
132	0x3de4c49f	0.11170315
133	0xbe102366	-0.14076003
134	0xbc2179f6	-0.009855738
135	0xbcc5ebab	-0.024160227
136	0xbda51526	-0.08060674
137	0xbdca3427	-0.098732285
138	0xbd752181	-0.059846405
139	0x3d7fbf49	0.062438283
140	0x3d09ba65	0.033625025
141	0x3dae50f9	0.08511538
142	0xbc0a3057	-0.008434377
143	0x3d966d7d	0.07345102
144	0x3ce00872	0.027347777
145	0xbcfca018	-0.030838057
146	0xbc0774cd	-0.008267594
147	0xbe03b56f	-0.1286218
148	0xbb54d885	-0.0032477689
149	0xbd3e4bee	-0.04645913
150	0xbd41da62	-0.047327407
151	0xbd98e3e9	-0.074653454
152	0xbd47cff4	-0.048782304
153	0xbdfa689e	-0.122269854
154	0xbc1cb063	-0.009563538
155	0xbcc16a7d	-0.023610348
156	0xbd189044	-0.037246957
157	0x3dd6d6a4	0.10490158
158	0x3d9dcf82	0.077055946
159	0x3cb4dc89	0.022077816
160	0xbd8f3ffd	-0.06994627
161	0x3c93c3eb	0.018037757
162	0xbdc74806	-0.09730534
163	0x3da53a58	0.08067769
164	0x3de9f20c	0.1142312
165	0xbd1fa477	-0.038975205
166	0x3ddf5d80	0.109065056
167	0x3deb3c20	0.11486077
168	0xbcd7eec7	-0.026358975
169	0xbd571856	-0.052513443
170	0x3be9e026	0.0071373163
171	0x3cbf7455	0.023370901
172	0xbe060d3a	-0.13090983
173	0xbcda9a63	-0.026684945
174	0xbd517134	-0.05113335
175	0x3d9cb035	0.07650796
176	0xbb850668	-0.0040596016
177	0x3dbe8ef4	0.0930461
178	0x3ddd0a70	0.107930064
179	0xbd3589b6	-0.044320785
180	0x3cf96078	0.030441508
181	0xbcf562dd	-0.029954368
182	0xbd7c7140	-0.06163144
183	0xbdc53fdd	-0.096313216
184	0x3b56772b	0.0032724838
185	0x3ccda8c2	0.025104884
186	0xbd2f0b90	-0.042735636
187	0x3cc4be3a	0.024016488
188	0x3db4ff21	0.088377245
189	0x3d717bce	0.05895596
190	0x3d6edf13	0.05831821
191	0x3cb34160	0.02188176
192	0xbddea51b	-0.10871335
193	0xbdd3cf6e	-0.103422984
194	0xbdd6c8b7	-0.10487502
195	0x3dbe53cc	0.09293327
196	0xbdff190b	-0.124559484
197	0xbdd83b7c	-0.10558221
198	0x3d9a2860	0.07527232
199	0x3d869f28	0.065733254
200	0xbe08e592	-0.13368824
201	0x3da75a8b	0.081715666
202	0xbd042cb9	-0.032269213
203	0x3cf9996d	0.030468667
204	0xbdb56f54	-0.08859125
205	0xbcafdd23	-0.02146775
206	0x3d00bea3	0.031431805
207	0x3ddcd720	0.10783219
208	0x3dafa1b7	0.085757665
209	0xbd9d7ecc	-0.076902
210	0xbdbdfad3	-0.092763565
211	0xbc0d003f	-0.008606016
212	0x3d35cbea	0.04438392
213	0x3d9ecde3	0.077541135
214	0xbe104f1e	-0.14092681
215	0xbc3d582c	-0.011556666
216	0x3ba3dff1	0.005001061
217	0xbd874354	-0.06604639
218	0x3de47155	0.11154429
219	0xbd19c3c1	-0.0375402
220	0xbe0a1113	-0.13483076
221	0xbdacee9f	-0.08443951
222	0x3b949541	0.004534394
223	0xbdd788cf	-0.10524141
224	0x3d044f5a	0.032302238
225	0x3e0ce07c	0.13757509
226	0x3bbdb461	0.005789325
227	0xbd0eb41c	-0.034839734
228	0x3e086e7e	0.133234
229	0x3dd5d116	0.104402706
230	0x3dc07712	0.09397711
231	0x3c2fc29f	0.010727554
232	0x3bd3da87	0.0064652595
233	0xbde09ddb	-0.109676085
234	0x3c6bdc6b	0.014395813
235	0x3e0cdaf9	0.13755406
236	0x3bf4fab8	0.007476177
237	0xbe013b2f	-0.12620233
238	0x3d9ef7e3	0.077621244
239	0x3e01f752	0.12692001
240	0x3df2cf66	0.11855964
241	0x3bda90f0	0.00667011
242	0x3cd9a4df	0.026567874
243	0x3cbb7c0b	0.022886297
244	0xbd6d6967	-0.057961848
245	0xbca90a95	-0.020634929
246	0x3dec4867	0.11537247
247	0x3c6c6465	0.014428233
248	0x3e087c8b	0.1332876
249	0xbdc05599	-0.093913265
250	0xbca9509f	-0.020668326
251	0xbeee1f3e	-0.4650821
252	0x3cb42ab1	0.021993013
253	0x3f19b5c6	0.6004299
254	0x3ebe18f9	0.37128428
255	0x3dc8cd0b	0.09804734

hidden_layer_list.0.bias f4 [30]
0	0x3aa93a68	0.0012911083
1	0xbd3b621c	-0.04574786
2	0xbde807e8	-0.11329633
3	0xbe1cc0bc	-0.15307897
4	0xbd9cf4c5	-0.076638736
5	0x3dc6db31	0.09709776
6	0x3e81fbe7	0.253875
7	0x3e68e190	0.22742295
8	0x3e08577b	0.13314621
9	0x3e90f611	0.28312734
10	0xbbc39f49	-0.005969916
11	0x3e1a72ad	0.15082808
12	0xbdfcaed7	-0.123380356
13	0xbd879f31	-0.0662216
14	0xbe052bb0	-0.13004947
15	0xbdc796d9	-0.09745569
16	0xbdc88bed	-0.09792314
17	0xbce89497	-0.028391166
18	0x3e5cc42b	0.21559207
19	0x3dc2dce6	0.09514789
20	0x3e657f3d	0.22411819
21	0x3dbe31dc	0.09286854
22	0x3e4bad9f	0.1989045
23	0xbd9b49e6	-0.075824544
24	0xbe0f68a2	-0.14004758
25	0x3c531df1	0.012885557
26	0x3e8e1cf1	0.27756456
27	0xbc12f7ed	-0.008970243
28	0x3d926649	0.071484156
29	0x3df709e1	0.12062431

output_layer.weight f4 [4, 30]
0	0x3e3d03d3	0.1845849
1	0xbe30ac28	-0.17253172
2	0xbd9a7ddf	-0.07543539
3	0xbbb822d6	-0.005619387
4	0x3e33fedb	0.17577688
5	0x3eb70abb	0.35750374
6	0xbe9f65fd	-0.31132498
7	0xbf290d3a	-0.6603581
8	0x3e85505a	0.26037866
9	0xbd4fbd6f	-0.050717767
10	0xbdd9b6de	-0.10630582
11	0xbd9f6ffa	-0.0778503
12	0x3dd965bf	0.1061511
13	0x3de835bb	0.11338373
14	0x3e0c9b6d	0.13731165
15	0xbd17d83c	-0.03707145
16	0xbd4103a3	-0.04712261
17	0xbdbceed2	-0.09225239
18	0x3e534d17	0.20634876
19	0xbe3269a6	-0.17423114
20	0x3e80a20c	0.25123632
21	0x3b7840cd	0.003788042
22	0xbe732121	-0.23743106
23	0x3e1d8774	0.15383703
24	0xbd85760b	-0.065166555
25	0xbd9a3eb9	-0.07531495
26	0xbec3ee85	-0.38267913
27	0x3e336661	0.17519523
28	0x3ea5b5e8	0.32365346
29	0xbe9bec49	-0.3045371
30	0x3e6c57a9	0.23080315
31	0xbd7f5c20	-0.062343717
32	0x3cd38c7a	0.02582382
33	0xbdaa1455	-0.08304659
34	0x3d3ceecd	0.046126176
35	0x3dcd4369	0.10022623
36	0xbf970c7c	-1.1800685
37	0xbf5a4495	-0.852609
38	0x3eb90c78	0.36142325
39	0xbf6be4d2	-0.9214603
40	0xbe041032	-0.12896803
41	0x3e9227f7	0.28546116
42	0x3e35b6be	0.17745492
43	0xbe349890	-0.17636323
44	0x3e126f27	0.14300214
45	0x3e11c196	0.14234003
46	0x3ca1c03c	0.019744985
47	0xbfc60f36	-1.5473392
48	0x3e8f6dd0	0.28013468
49	0x3e9bf3f5	0.30459562
50	0x3e34e5ac	0.17665738
51	0x3e38dfcb	0.1805412
52	0xbfacf4f8	-1.3512259
53	0xbd8e15f2	-0.069377795
54	0x3d1bc4e5	0.03802957
55	0x3da06fc9	0.07833821
56	0xbf9d496f	-1.2288035
57	0x3f076ab2	0.5289718
58	0x3ea5bf55	0.32372537
59	0x3e879656	0.26481885
60	0xbe0ac835	-0.13552935
61	0xbd5a545f	-0.05330312
62	0x3df96406	0.12177281
63	0x3d9be526	0.07612066
64	0xbcafff3f	-0.021484016
65	0xbe95cb92	-0.29256874
66	0x3d62aea3	0.055342328
67	0x3ebfe727	0.37481043
68	0xbe50eb46	-0.2040225
69	0x3e07a236	0.13245472
70	0xbcf91a0f	-0.030407934
71	0xbf0de9bb	-0.5543477
72	0x3e0155b2	0.12630346
73	0xbd0a9fb8	-0.033843726
74	0xbe274ca1	-0.16337825
75	0xbe2aa5b0	-0.16664767
76	0xbe482714	-0.19546157
77	0xbe3f2b31	-0.1866882
78	0x3d320a18	0.043466657
79	0x3e98a633	0.298143
80	0xbcfc9b6e	-0.030835833
81	0xbe3cb3ab	-0.18427913
82	0x3da3ed6b	0.08004268
83	0xbdbf3c26	-0.09337644
84	0x3e12ca52	0.14334992
85	0xbc0889bc	-0.00833362
86	0x3e0e5968	0.13901293
87	0xbf2ffdaf	-0.68746465
88	0xbf4e17f2	-0.8050529
89	0x3ea80721	0.3281794
90	0xbf7deb41	-0.99187094
91	0xbcec1f41	-0.028823497
92	0x3e110810	0.14163232
93	0xbe0224f3	-0.12709408
94	0x3c9e014f	0.019287733
95	0xbf79f04a	-0.97632277
96	0x3ec75071	0.3892856
97	0x3e5b6ccb	0.2142822
98	0xbf4e56e8	-0.8060136
99	0x3ecd1e34	0.40062106
100	0xbdf96998	-0.121783435
101	0xbe9a67fc	-0.3015746
102	0xbcc54b0c	-0.024083637
103	0xbe12216d	-0.14270563
104	0xbe0933db	-0.13398688
105	0xbd7271d2	-0.05919058
106	0xbd5a141e	-0.05324184
107	0x3ebca7e1	0.3684683
108	0xbf20251d	-0.6255663
109	0xbf551700	-0.8323822
110	0xbf6b1aeb	-0.9183795
111	0xbf8c3d02	-1.0956118
112	0x3f0e26b5	0.5552781
113	0x3e2a381b	0.16622965
114	0xbe13ab9c	-0.14420933
115	0xbe06a1f2	-0.13147715
116	0x3f231b66	0.6371368
117	0xbeb77288	-0.35829568
118	0xbeae5ae7	-0.34053728
119	0xbf283c65	-0.65717155

output_layer.bias f4 [4]
0	0x3ceb83b2	0.02874932
1	0xbd06208f	-0.032745894
2	0x3e69e7c0	0.22842312
3	0x3da04fd2	0.078277245
