K-Digital Training/김소현 강사님/Pytorch/숙제/language_model/best_model_epoch_20.pth (torch, 14536 bytes, 6 tensors)

input_layer.weight f4 [50, 26]
00000000: 0df4 ce3d 1a47 b1bd 32ba 1bbd 2485 bc3d
00000010: e60f 3dbe bbdf f03d e741 25bd ba55 cc3d
00000020: a657 df3c 7cb7 c4bc 3dcd 5e3d e182 1e3c
00000030: 40b1 923d 9485 9cbd 9c44 6abc eca2 90bc
00000040: 53dd e83c 6260 4dba 7f8d 2f3e f8f9 793d
00000050: 4f93 95bd 1d94 f2bd eea4 06bd 073f adbd
00000060: f2b4 80bd 01da 193c 5797 c53e ffea 983e
00000070: 163c fdbe a8de c73d 3dc0 09be ab83 8fbd
00000080: 4ab6 d43e f698 a5be b1a7 c1bd d8a3 4c3c
00000090: cdb8 063f 5bc5 87bd 624b 7a3e d24a 763d
000000a0: b703 993d 5daf 373d 9250 2cbe 91df c7bd
000000b0: 8208 1bbe 4bc9 24bc 3863 8abc af20 8cbe
000000c0: 60ec 41be 00be b6be 8933 21bd 9f60 d43c
000000d0: c5dd 313d 8b76 d1bd 8453 ac3e efb1 a03e
000000e0: cb62 2c3e e1ad 2abd 9247 0abc d5da efbc
000000f0: 3295 9abd 447a b23e 4f0e 17bd a76e 8d3e
00000100: df50 8cbd 14d4 fdbc 2e9b b13c 66a3 b93d
00000110: 0748 b93d 247f 213c 7cb2 593e a597 f63c
00000120: 0c3f 7c3e cc29 483e 6405 03be 0d6b 793e
00000130: 9f8a f0bd e92b c63d 3c27 c2be 9002 e33c
00000140: eb29 e73d 2fbb b2bd c52b 333e 8b5b 5f3e
00000150: e680 ddbd afe3 da3d b663 4abe 88bf 0e3d
00000160: 50b9 9ebe 645f 1d3e 4afe 12bd 83f9 6dbe
00000170: 3d1e 3f3e a656 14bd d5d5 adbc 220d b03c
00000180: 52ab 073e ec5f 413e 5640 20be 1996 413e
00000190: 7a91 d03e 59a3 093e 5e39 033e c8d1 00be
000001a0: 66d1 c6be a472 96be 323b fc3e d2f7 223e
000001b0: fd2e d03e 739d b73e 1f80 6bbe c500 bc3e
000001c0: 19c7 1a3e 325e d9bd 8c27 b0be b353 4c3e
000001d0: 2533 a43b ad17 b5bc 77a7 6ebc dc95 72be
000001e0: fb48 023e b82d 613e 8710 933e ee05 4c3d
000001f0: 5f3b 9b3d 06b4 663e a3dc e1bb bbf2 743e
00000200: 50ce 1fbd 00d4 31bd 75db 5ebd 942c 2bbd
00000210: 2fe1 983e 9817 2b3e 5518 583e 5ca4 053e
00000220: 9320 8f3e ff77 23bd 7e0c 8bbd 1a5a 82be
00000230: f897 72be 64cf 143e 8ac6 eebc 6512 5a3e
00000240: 36c0 203e 81ac 853d 4511 b23e 934e 033e
00000250: 8b7f 7b3e fbd0 403e 1821 ae3d a1ef b33e
00000260: 3932 02be fe14 573e 9709 44be 02f9 d03d
00000270: 95a4 eabd 0bcb abbd 6cc7 0e3e 1040 83bd
00000280: 3a12 16be 7f88 9a3d 4398 803d 3612 023e
00000290: 2dd7 cfbd 6a2a 2e3d 2c38 92bd b57a 34bd
000002a0: 1b0a 20be f30d b7bd a803 76bd 09c2 ab3d
000002b0: bec0 123d 1e6d 463d 4171 483e 40ba 433e
000002c0: 80f8 083e 21a3 cc3b 75ed 0abe eff1 1c3e
000002d0: b6df 48bd 83e2 81bc f0a0 bfbe cc91 12be
000002e0: 072d 263e 92a6 c83e 78b5 0a3e ff30 2e3e
000002f0: 8a4c 83be 9e72 ca3d d20d 6f3d 80d9 fe3d
00000300: dedf bdbe 997f 903d d336 4e3d b83a 82be
00000310: 62e6 253e 9b21 933d 2f16 fb3e aace b13d
00000320: ad8c 113e f604 8c3c a99a 673e 1b4e 833e
00000330: c37e 533e 0ead 9b3e c1bc 55be d24a 4dbe
00000340: 5b3e a13e d126 873e ed1a 60be af7e b3bd
00000350: a717 dfbe a2f6 15be 1a7f fc3e ca4a fdbb
00000360: 1396 793e 1532 86be b6f5 833e 8ee2 5b3e
00000370: f144 303d b81d c63e c35a 23be 4413 bd3c
00000380: 0b69 f2bd 056f 9abe c30f 49bd 1539 493d
00000390: b9b1 683e df24 d7bd b6c0 d9bd 99fa c7be
000003a0: f974 dc3e da76 6f3e e71f a0be 4c11 10be
000003b0: f612 193e 9d88 4b3e 1fcb ad3e 4dbc c53d
000003c0: 28b5 d9be 6c64 983d eb6d f83c badf 44bd
000003d0: 1e8e d4be ce31 af3d 5014 98be 023f 7dbe
000003e0: 208e 5dbc 99c5 b73d 3dfc ec3e d641 833d
000003f0: 06f5 c13d fae6 533e 09b7 b13c 467c 5f3e
0.10105143 -0.0865614 -0.038019367 0.09205082 -0.18463096 0.11761423 -0.040346052 0.099772885
0.027263474 -0.024013273 0.05439495 0.009674759 0.07162714 -0.076426655 -0.014298584 -0.017655812
0.028425848 -0.00078344916 0.1714382 0.061029404 -0.073034875 -0.118446566 -0.032872133 -0.08459287
-0.062845126 0.009390355 0.38592026 0.29866788 -0.49459904 0.09759265 -0.1345224 -0.070075355
0.41545326 -0.32343262 -0.09455813 0.012490235 0.52625734 -0.066294394 0.24442819 0.060129948
0.07471412 0.044844974 -0.1682761 -0.09759439 -0.15139964 -0.010057758 -0.016893014 -0.27368686
-0.18937826 -0.35691833 -0.03935579 0.025924979 0.043424387 -0.102276884 0.33657467 0.31385753
0.16834562 -0.04166973 -0.008439915 -0.029279152 -0.07547988 0.34858906 -0.03687888 0.27623484
-0.068513624 -0.030984916 0.02168044 0.09064369 0.09046941 0.009856973 0.21259493 0.030101607
0.24633425 0.19547194 -0.12795025 0.24357243 -0.1174519 0.09676344 -0.37920558 0.027711183
0.11287292 -0.08727109 0.17497166 0.21812265 -0.10815601 0.106879584 -0.19764599 0.034850627
-0.31000757 0.1536842 -0.03588704 -0.23239712 0.18663879 -0.036215447 -0.021220127 0.021490637
0.13248947 0.18884248 -0.15649542 0.18904914 0.4073599 0.13441218 0.12814853 -0.12580025
-0.38831633 -0.2938434 0.49263912 0.15914848 0.4066085 0.35862312 -0.22998093 0.36719337
0.15115012 -0.106136695 -0.34405172 0.19953804 0.0050109797 -0.022106016 -0.014566294 -0.2368998
0.12723152 0.21990097 0.28723547 0.049810342 0.075796835 0.22529611 -0.006892757 0.2392072
-0.039015114 -0.04341507 -0.05440851 -0.04179056 0.298593 0.16708219 0.21103032 0.1305098
0.2795454 -0.03990936 -0.06789492 -0.25459367 -0.23690784 0.14532238 -0.029147405 0.2129608
0.15698323 0.06527043 0.347788 0.12822942 0.24560373 0.1882972 0.08502406 0.3514376
-0.12714471 0.21004102 -0.19144283 0.102037445 -0.11457173 -0.08388337 0.13943261 -0.06408703
-0.1465539 0.07545566 0.062790416 0.1270226 -0.101484634 0.042520918 -0.0713962 -0.044062335
-0.15628855 -0.089382075 -0.06006208 0.08386619 0.035828345 0.048443906 0.19574453 0.19114017
0.13376045 0.0062450324 -0.13567145 0.15326665 -0.049041472 -0.01585508 -0.37427473 -0.1431343
0.16228114 0.39189583 0.13545787 0.17010878 -0.25644332 0.09885143 0.05836279 0.124438286
-0.3708486 0.07055587 0.050345253 -0.25435424 0.16201165 0.07184144 0.49040362 0.08681996
0.1421382 0.01709221 0.22617592 0.25645527 0.20653825 0.30405468 -0.20872785 -0.20048073
0.31492886 0.26396802 -0.21885271 -0.08764397 -0.43572733 -0.14644864 0.4931572 -0.007729863
0.24373655 -0.26210085 0.257734 0.21473143 0.043034498 0.3869455 -0.15952592 0.023080476
-0.118364416 -0.30162826 -0.049087297 0.049126703 0.22724046 -0.105050795 -0.1063246 -0.39058378
0.43057993 0.23385182 -0.3127434 -0.14069098 0.1494864 0.19876333 0.33944032 0.09655056
-0.42521024 0.07441029 0.03032585 -0.048064925 -0.41514677 0.08554421 -0.29702997 -0.24731067
-0.013522655 0.08973236 0.46286193 0.064090416 0.09470563 0.2069358 0.021693723 0.2182475

input_layer.bias f4 [50]
00000000: 712c 14bd 6240 d03c e995 fe3d c631 cc3d
00000010: daa5 683d 2e6a 2a3e 2454 acbd fa92 d03d
00000020: 3c9d 463c 22a8 f23d 5a19 03b9 a500 2bbe
00000030: ce79 653c d227 513e 530b 773d 2a87 1a3d
00000040: d92a 363a 011c 633e 3aab 533d 2867 33be
00000050: 4638 0fbe 63ee 3d3c 10df bfbc 9e49 363e
00000060: e4d5 3cbd 4639 1b3e 095e 29be 72dd 3ebe
00000070: 2b18 2a3c 3250 febd 5442 6abd 53d6 603d
00000080: b732 2ebe 3a08 263e cdc1 f3bd 5468 283e
00000090: 2415 e53d 11a6 16bd 02c0 2fbe 5fdd a93c
000000a0: fd61 e0bd 16a8 363e 48f1 28be 2c42 b33b
000000b0: e05a ddbd 2629 01be 857c d1bd 1847 9fbc
000000c0: 77a5 463d 067b b03d
-0.036175195 0.025421325 0.12430937 0.09970431 0.056798793 0.16642067 -0.08414486 0.101842836
0.0121224485 0.11848475 -0.00012502578 -0.16699465 0.014006091 0.20425346 0.060313534 0.03772656
0.0006949134 0.22178651 0.051676966 -0.1751982 -0.1398631 0.01159248 -0.023421794 0.1780152
-0.04610242 0.15158567 -0.16539778 -0.18639162 0.010381739 -0.1241764 -0.05719216 0.054891896
-0.17011534 0.16214076 -0.11902199 0.16446048 0.11185673 -0.036779467 -0.17163089 0.02073544
-0.1095619 0.17837557 -0.16498291 0.005470535 -0.10808349 -0.12613353 -0.10228828 -0.01944308
0.048497643 0.08617215

hidden_layer_list.0.weight f4 [30, 50]
00000000: 4700 943d bc9a 6cbd 12b4 b3bd 7819 f4bc
00000010: f177 083e 3d8a 8dbc 57d4 f3bd f742 e33d
00000020: c0f1 0c3d 5f12 c93c 8edb c63c 0f13 ca3d
00000030: b3e1 83bd 7416 d33d 1341 0b3e 315d 15bd
00000040: 8dcb b63d 6ecb 9f3d 009e 073e 32d1 06bd
00000050: 9c4a acbd c605 57bd c70c c5bd 3bfb 9e3b
00000060: 649f 0b3e a77d 0c3e 24c6 da3d d345 653c
00000070: cb32 493b 49c5 bf3d 6afa ab3d f7ee 65bc
00000080: 3181 12bd f30b 653d 15cc a0bb 117a cbbd
00000090: dd3a 88bd 39e3 ea3d 6934 f13d 40b7 61bd
000000a0: 0c9e f8bc 3e8c 8fbd 131d 3dbd ff01 043e
000000b0: a2cc 00be 2435 8a3d 8b28 02be 4f2e 8abd
000000c0: bcea ebbc b78d 203c 4c24 bcbc f764 84bd
000000d0: 952f 81bd e729 b0bd fd29 cabd 4172 b4bd
000000e0: 2cde 0a3e 3b77 88bd 88da f0bd 6b10 c73d
000000f0: d9ba 603d 1d3a c73d 160c 10be e5d8 09be
00000100: 8490 cdbd 1d94 98bd a147 a3b9 8690 7a3d
00000110: 6091 a93d ee1c f9bd 3404 673d fc7e a7bd
00000120: 3126 053d 87de 353d 8866 b93c 20f2 4c3d
00000130: 9c63 e7bb f935 bf3d cb9f f13c 3ebe fd3d
00000140: ba21 fb3c d652 99bd 2600 ba3d 120e fb3b
00000150: 98f4 0b3e 381f 80bc 5548 0f3e 5313 a9bd
00000160: 3690 913d eb10 d8bd 64d7 c63d 5b4c d23c
00000170: 4e6f a43d 816c f9bd 360e 10be 1d8e 8b3d
00000180: dc50 6ebd 9b69 653d b3d5 abbd 0512 33bd
00000190: 0d16 263a d86a ae3d 3e8f a33d 36f9 4ebc
000001a0: 40d8 23bd f6bb 20bb c646 953d 877b f5bd
000001b0: 5300 31bd 029a 0bbe 673a a73c aa08 89bc
000001c0: 1013 a43d ab60 e73d e4a4 f7bd 022e 80bd
000001d0: 693e babc 97d7 b8ba 1b3a 04bd b01a b6bd
000001e0: 80d3 5fbd 14af 6ebb 23ea e83d 70a0 13bd
000001f0: 2245 bf3d 8a1f eabd d23b cf3b 1105 e2bd
00000200: d7e3 07be d79f 653c 7d9e 84bd fc3a d53d
00000210: 9fc4 e43d 6623 10be f679 21bc abeb c5bc
00000220: 2615 a5bd 2734 cabd 8121 75bd 49bf 7f3d
00000230: 65ba 093d f950 ae3d 5730 0abc 7d6d 963d
00000240: 7208 e03c 18a0 fcbc cd74 07bc 6fb5 03be
00000250: 85d8 54bb ee4b 3ebd 62da 41bd c2a8 68bd
00000260: 014b fdbc fad3 d5bd 0af8 073c ce54 bcbb
00000270: 4490 18bd a36b fb3d 4a60 c23d 4b98 233d
00000280: e95a 55bd ebc3 933c 0648 c7bd 93cf c93d
00000290: 0c43 073e f0f8 acbc 805d df3d bce8 073e
000002a0: 9638 0bbc 5618 57bd 26e0 e93b 5574 bf3c
000002b0: 3a0d 06be b08a 10bc 3471 51bd fd44 c13d
000002c0: 6806 85bb f48e be3d b7cf 003e b689 35bd
000002d0: 7860 f93c b634 46bc 4071 7cbd cbaa a0bd
000002e0: 2b77 563b b1fe 2f3d 18c3 cbbc 3abe c43c
000002f0: 21ff b43d ce7b 713d 13df 6e3d 2ecb 223d
00000300: 1ba5 debd 6a3a afbd b7c8 d6bd cc53 be3d
00000310: 0b19 ffbd 7c3b d8bd 69bd be3d f033 ab3d
00000320: 92e5 08be 8b5a a73d b92c 04bd 6d99 f93c
00000330: 546f b5bd 23dd afbc a3be 003d 20d7 dc3d
00000340: b7a1 af3d cc7e 9dbd d3fa bdbd 3f00 0dbc
00000350: eacb 353d e3cd 9e3d 1e4f 10be 2c58 3dbc
00000360: f1df a33b 5443 87bd 5571 e43d c1c3 19bd
00000370: 1311 0abe 9fee acbd 4195 943b cf88 d7bd
00000380: 5a4f 043d 7ce0 0c3e 61b4 bd3b 1cb4 0ebd
00000390: 7e6e 083e 16d1 d53d 1277 c03d 9fc2 2f3c
000003a0: 87da d33b db9d e0bd 6bdc 6b3c f9da 0c3e
000003b0: b8fa f43b 2f3b 01be e3f7 9e3d 52f7 013e
000003c0: 66cf f23d f090 da3b dfa4 d93c 0b7c bb3c
000003d0: 6769 6dbd 950a a9bc 6748 ec3d 6564 6c3c
000003e0: 8b7c 083e 9955 c0bd 9f50 a9bc 7378 a5be
000003f0: 59a3 2ebd 00e2 a73e afa3 6b3e 0598 bd3b
0.072266154 -0.057764754 -0.0877458 -0.0297973 0.13327004 -0.017277831 -0.11905735 0.11096757
0.03441024 0.024544893 0.024274614 0.098669164 -0.06439533 0.10307017 0.13599043 -0.036465827
0.08925543 0.07802473 0.13243866 -0.032914348 -0.08412668 -0.05249574 -0.09621578 0.0048517263
0.13635021 0.13719808 0.106823236 0.013993698 0.003070044 0.09363801 0.08397372 -0.014034024
-0.035767738 0.0559196 -0.004907141 -0.09935392 -0.06651852 0.114691205 0.117775746 -0.0551064
-0.0303488 -0.07009171 -0.046170305 0.12891386 -0.12578061 0.06748417 -0.12710778 -0.06747114
-0.028798454 0.009799412 -0.022966526 -0.0646457 -0.06307904 -0.08601742 -0.0987129 -0.08810855
0.13561314 -0.066633664 -0.117604315 0.09719928 0.05486569 0.09727881 -0.1406711 -0.13461645
-0.1003733 -0.07450125 -0.0003114315 0.061172985 0.08279681 -0.12163721 0.056400493 -0.08178517
0.032507125 0.04440167 0.022631899 0.050035596 -0.007061435 0.09336466 0.02949514 0.123898014
0.03065573 -0.07486503 0.090820596 0.0076615894 0.13667524 -0.015639886 0.13992436 -0.08255639
0.07107584 -0.10550102 0.09709051 0.025671175 0.08029042 -0.121788986 -0.14067921 0.06814215
-0.058182582 0.056008916 -0.08390369 -0.043718357 0.0006335683 0.085164726 0.07986306 -0.012632659
-0.040001154 -0.0024526096 0.072888896 -0.119864516 -0.0432132 -0.13632968 0.02041359 -0.016727764
0.080114484 0.11297735 -0.12091997 -0.06258775 -0.022734838 -0.0014102337 -0.032281976 -0.08891809
-0.05464506 -0.0036420273 0.11372783 -0.036041677 0.09339358 -0.11431797 0.00632427 -0.110361226
-0.13270508 0.01401516 -0.06475542 0.10411641 0.11170315 -0.14076003 -0.009855738 -0.024160227
-0.08060674 -0.098732285 -0.059846405 0.062438283 0.033625025 0.08511538 -0.008434377 0.07345102
0.027347777 -0.030838057 -0.008267594 -0.1286218 -0.0032477689 -0.04645913 -0.047327407 -0.056801565
-0.030919554 -0.10440822 0.008298883 -0.005747414 -0.037246957 0.122763894 0.09491022 0.03994016
-0.05208865 0.018037757 -0.09730534 0.09854045 0.1320917 -0.021114796 0.109065056 0.13272375
-0.008497378 -0.052513443 0.0071373163 0.023370901 -0.13090983 -0.008822128 -0.05113335 0.094369866
-0.0040596016 0.0930461 0.12579237 -0.044320785 0.030441508 -0.012097528 -0.06163144 -0.07845076
0.0032724838 0.042967502 -0.024873301 0.024016488 0.088377245 0.05895596 0.05831821 0.03974455
-0.10871335 -0.085560635 -0.10487502 0.09293327 -0.124559484 -0.10558221 0.09313471 0.08359516
-0.13368824 0.081715666 -0.032269213 0.030468667 -0.08859125 -0.02146775 0.031431805 0.10783219
0.085757665 -0.076902 -0.092763565 -0.008606016 0.04438392 0.077541135 -0.14092681 -0.011556666
0.005001061 -0.06604639 0.11154429 -0.0375402 -0.13483076 -0.08443951 0.004534394 -0.10524141
0.032302238 0.13757509 0.005789325 -0.034839734 0.133234 0.104402706 0.09397711 0.010727554
0.0064652595 -0.109676085 0.014395813 0.13755406 0.007476177 -0.12620233 0.077621244 0.12692001
0.11855964 0.00667011 0.026567874 0.022886297 -0.057961848 -0.020634929 0.11537247 0.014428233
0.1332876 -0.093913265 -0.020668326 -0.32318458 -0.04263625 0.32789612 0.23011659 0.0057859444

hidden_layer_list.0.bias f4 [30]
00000000: 9cc5 cfbd 1c62 3bbd e807 e8bd 0276 0abe
00000010: c5f4 9cbd 57ca 2c3d 133b 153e 332d 013e
00000020: dd44 943d a19f 213e 499f c3bb c32b 0b3e
00000030: d7ae fcbd 319f 87bd 7643 03be d996 c7bd
00000040: 8781 d7bd c032 09be d153 0d3e 60b7 583d
00000050: efe4 063e cf69 473c 8f87 e83d e649 9bbd
00000060: a268 0fbe f11d 533c a42e 383e 6f26 20bc
00000070: 529f 693d d89b 963d
-0.10145113 -0.04574786 -0.11329633 -0.13521579 -0.076638736 0.042185154 0.14573316 0.12614898
0.07239697 0.1578355 -0.005969916 0.13590913 -0.123380356 -0.0662216 -0.12818703 -0.09745569
-0.10522752 -0.13398266 0.13801505 0.052909255 0.13173269 0.012171223 0.11353981 -0.075824544
-0.14004758 0.012885557 0.17986542 -0.009774788 0.057036705 0.073539436

output_layer.weight f4 [4, 30]
00000000: 6901 083e 28ac 30be df7d 9abd 7286 463c
00000010: dbfe 333e de34 a93e 94f9 acbe a99c fdbe
00000020: 0edd 873e 204f ffbd deb6 d9bd a6ec 19bd
00000030: bf65 d93d bb35 e83d a382 0e3e 3cd8 17bd
00000040: 4bd6 60bd 7825 0cbc 8a79 5d3e 7ce4 dfbd
00000050: 7e25 763e ea5e 503c 2df6 adbe 7487 1d3e
00000060: 0b76 85bd b93e 9abd 6f05 d2be e1ef 513e
00000070: 631e 903e 7132 3abe a025 133e 205c 7fbd
00000080: 7a8c d33c d476 cebd cdee 3c3d b389 2a3b
00000090: 8272 a4be 4701 d6be 5ad4 703e 9f9a 92bd
000000a0: 3210 04be 729b c83d beb6 353e 9098 34be
000000b0: 5b56 143e 96c1 113e a669 243c 21d5 bdbd
000000c0: 3a8f 293e 945c 3c3e 49f4 a93d 1e32 953d
000000d0: 6cb6 fabe f215 8ebd e5c4 1b3d c96f a03d
000000e0: eec5 d3be 109f ab3e 473d 3c3e 91e0 d93d
000000f0: 9b75 b9bd 5f54 5abd 0664 f93d 2644 bf3d
00000100: 3fff afbc 9637 99be f6ae 66bd b2de 573e
00000110: 5a23 54be e3a6 193d 0f1a f9bc 90b2 5cbe
00000120: b255 013e b89f 0abd a334 29be b0a5 2abe
00000130: 08fa 14be 809e 92bd fcca 74bd 6de1 3a3d
00000140: 58fe 25be 5170 aabe 80fd fabb 263c bfbd
00000150: 52ca 123e bc89 08bc 2f39 0d3d a84a 85be
00000160: c69c 9ebe 0a13 1b3d 9ec6 7ebc 411f ecbc
00000170: 1008 113e fd38 e2bd 4f01 9e3c 8582 d4be
00000180: 66a8 553e 2069 d53d a152 93be 59cd 4e3e
00000190: 9869 f9bd 481f 4fbe 0c4b c5bc 6d21 12be
000001a0: 094c 07be d271 72bd 1f89 afbc c3c9 20bd
000001b0: 8097 01be b625 b0be f95c afbe 1411 06bf
000001c0: 8236 bb3e 1b38 2a3e 9cab 13be f2a1 06be
000001d0: 0bec ed3e ab75 25be 6d63 1ebe b37a 43be
0.13281788 -0.17253172 -0.07543539 0.012117015 0.17577688 0.33048147 -0.33784163 -0.49533585
0.2653584 -0.12466264 -0.10630582 -0.0375792 0.1061511 0.11338373 0.13917021 -0.03707145
-0.054891866 -0.008553855 0.21628395 -0.10932252 0.2403774 0.012717942 -0.3397688 0.15383703
-0.065166555 -0.07531495 -0.4101977 0.20501663 0.28148183 -0.18183304 0.14369822 -0.062343717
0.02582382 -0.100812584 0.046126176 0.0026022017 -0.32118613 -0.4179785 0.23518506 -0.07158398
-0.12896803 0.09795274 0.17745492 -0.17636323 0.14486067 0.14234003 0.010034954 -0.09269167
0.16558543 0.18394691 0.08298547 0.0728495 -0.48967302 -0.069377795 0.03802957 0.07833821
-0.41361946 0.33519793 0.1838275 0.10638536 -0.090556346 -0.05330312 0.12177281 0.0933917
-0.021484016 -0.2992522 -0.0563192 0.21081045 -0.2071661 0.03751267 -0.030407934 -0.21552491
0.12630346 -0.033843726 -0.16523986 -0.16664767 -0.14548504 -0.07159138 -0.059763893 0.04562514
-0.16210306 -0.33288816 -0.007659614 -0.09337644 0.14334992 -0.00833362 0.034478363 -0.2603352
-0.30978984 0.037859954 -0.015550284 -0.028823497 0.14163232 -0.11046026 0.019287733 -0.41505828
0.2086502 0.10420442 -0.28773978 0.20195521 -0.121783435 -0.20226777 -0.024083637 -0.14270563
-0.13212599 -0.05919058 -0.02142769 -0.039254915 -0.12655449 -0.3440377 -0.3425062 -0.5236981
0.36565024 0.16622965 -0.14420933 -0.13147715 0.4646915 -0.16158168 -0.15467615 -0.19089775

output_layer.bias f4 [4]
00000000: 1d45 213d 915e d3bb c6cf 1f3e d64c e23d
0.039372552 -0.006450482 0.15606603 0.110498115
