K-Digital Training/김소현 강사님/Pytorch/숙제/language_model/best_model_epoch_98.pth (torch, 14536 bytes, 6 tensors)

input_layer.weight f4 [50, 26]
0	0x3dcef40d	0.10105143
1	0xbdb1471a	-0.0865614
2	0xbd1bba32	-0.038019367
3	0x3dbc8524	0.09205082
4	0xbe3d0fe6	-0.18463096
5	0x3df0dfbb	0.11761423
6	0xbd2541e7	-0.040346052
7	0x3dcc55ba	0.099772885
8	0x3cdf57a6	0.027263474
9	0xbcc4b77c	-0.024013273
10	0x3d5ecd3d	0.05439495
11	0x3c1e82e1	0.009674759
12	0x3d92b140	0.07162714
13	0xbd9c8594	-0.076426655
14	0xbc6a449c	-0.014298584
15	0xbc90a2ec	-0.017655812
16	0x3ce8dd53	0.028425848
17	0xba4d6062	-0.00078344916
18	0x3e2f8d7f	0.1714382
19	0x3d79f9f8	0.061029404
20	0xbd95934f	-0.073034875
21	0xbdf2941d	-0.118446566
22	0xbd06a4ee	-0.032872133
23	0xbdad3f07	-0.08459287
24	0xbd80b4f2	-0.062845126
25	0x3c19da01	0.009390355
26	0x3f1d0f8c	0.6135185
27	0x3effa0ad	0.49927273
28	0xbf24634f	-0.6421403
29	0xbe0d8494	-0.13820106
30	0xbeed4dc3	-0.4634839
31	0xbd9d8a15	-0.07692353
32	0x3f6f7691	0.9354029
33	0xbddd15c1	-0.10795165
34	0xbd27cb0d	-0.04096513
35	0xbeecc65b	-0.46245083
36	0x3f238606	0.6387638
37	0xbe20f0f4	-0.15716916
38	0x3e9c9dc2	0.3058911
39	0x3e7814b7	0.24226652
40	0x3e94a66f	0.2903323
41	0x3cdd43ac	0.027009808
42	0xbf83ca38	-1.0296087
43	0xbe50066e	-0.20314953
44	0xbe1ff69a	-0.15621415
45	0x3cb6d60c	0.022318862
46	0xbeb9712b	-0.36219153
47	0xbef520ed	-0.47876683
48	0x3e871afd	0.26387778
49	0xbf7fe29b	-0.9995515
50	0x3f1955a7	0.5989632
51	0x3f0e019f	0.55471224
52	0x3e8f4e4c	0.27989423
53	0x3e964800	0.29351807
54	0x3cf32872	0.029682372
55	0x3f7dc57a	0.9912945
56	0x3f205f44	0.62645364
57	0xbdf930c9	-0.12167508
58	0xbe90dc57	-0.28293106
59	0xbdbacbe7	-0.091209225
60	0x3e4d5b72	0.20054415
61	0x3f9b7ba0	1.2147102
62	0x3f432c10	0.7623911
63	0x3eb9dc72	0.36301
64	0x3e8ecc08	0.27890038
65	0x3c80570a	0.015666503
66	0xbeb9f71e	-0.36321348
67	0x3ed42f37	0.41442272
68	0x3edec54a	0.43509895
69	0x3ee2e186	0.44312686
70	0x3e979f3f	0.29613683
71	0x3e3a279e	0.18179175
72	0x3f6f5e2e	0.9350308
73	0x3d9d2551	0.07673133
74	0xbf2d6cf9	-0.67744404
75	0x3ecf96b6	0.4054467
76	0xbf4a7dcd	-0.79098207
77	0xbf1b7d43	-0.6073801
78	0xbf1d5dff	-0.6147155
79	0xbe33bc28	-0.17552245
80	0x3efeaccd	0.49741212
81	0xbd003820	-0.031303525
82	0x3ee535da	0.44767648
83	0x3f002b38	0.50065947
84	0xbeea3402	-0.45742804
85	0x3e53f11d	0.20697446
86	0xbe764e49	-0.24053301
87	0xbca7a758	-0.020465538
88	0xbf4b7e76	-0.7948984
89	0x3ea8a396	0.32937306
90	0xbe324cb2	-0.1741207
91	0xbea772ef	-0.32704875
92	0x3e9b708f	0.30359313
93	0xbd7e9ac8	-0.06215933
94	0x3f39be3b	0.72555894
95	0x3da3cf0c	0.079984754
96	0x3e67efc9	0.22650065
97	0x3e85ba09	0.26118496
98	0xbdc93332	-0.09824218
99	0x3f02b8b8	0.5106311
100	0x3ed2719b	0.411023
101	0x3f571cca	0.84028304
102	0xbde03244	-0.109470874
103	0xbefc1729	-0.4923642
104	0xbefdcdc9	-0.49571064
105	0xbea70543	-0.32621202
106	0x3f0e818a	0.5566641
107	0x3f0eb46c	0.5574405
108	0x3f5326c9	0.82481056
109	0x3ebca20f	0.3684239
110	0xbf31a079	-0.69385487
111	0x3e521784	0.20516783
112	0x3e431ade	0.19053218
113	0x3f0eed0f	0.5583047
114	0xbe2ab361	-0.1666999
115	0x3e9e18a8	0.30878186
116	0x3d89c732	0.067274466
117	0xbe168848	-0.14700425
118	0xbe8f2bb6	-0.27963036
119	0xbde089a3	-0.10963752
120	0x3f7746d9	0.9659248
121	0x3edb35d3	0.42814502
122	0x3ea6772f	0.32512805
123	0x3da02cef	0.078210704
124	0x3f112654	0.5669911
125	0x3ec5b8aa	0.3861745
126	0xbee8375e	-0.45354742
127	0x3f569a8d	0.83829576
128	0xbf317e60	-0.6933346
129	0xbf2b3232	-0.66873467
130	0x3e9885ce	0.29789585
131	0x3f1880f8	0.5957179
132	0x3e3c0f54	0.18365222
133	0x3f5021d0	0.81301594
134	0x3f25c9c8	0.6476102
135	0x3f35b0a6	0.7097267
136	0x3e6042fa	0.2190055
137	0x3f4e601c	0.806154
138	0x3e91e5fc	0.28495777
139	0x3ed6b75f	0.41936776
140	0x3f02a898	0.51038504
141	0x3e456034	0.1927498
142	0x3ea6e1e1	0.32594207
143	0x3eae3b7d	0.3402976
144	0x3df874b9	0.12131638
145	0x3ebb22e0	0.36550045
146	0xbe629bb4	-0.22129709
147	0x3f1bab43	0.608082
148	0x3eb2f61d	0.34953395
149	0x3f2c93a0	0.6741276
150	0x3f0b9067	0.54517215
151	0x3e5b7d6c	0.21434563
152	0x3f092d59	0.5358482
153	0xbdca0f37	-0.09866183
154	0xbea2f087	-0.31824133
155	0xbf51600f	-0.817872
156	0xbdeaa495	-0.11457173
157	0xbdabcb0b	-0.08388337
158	0x3e0ec76c	0.13943261
159	0xbd834010	-0.06408703
160	0xbe16123a	-0.1465539
161	0x3d9a887f	0.07545566
162	0x3d809843	0.062790416
163	0x3e021236	0.1270226
164	0xbdcfd72d	-0.101484634
165	0x3d2e2a6a	0.042520918
166	0xbd92382c	-0.0713962
167	0xbd347ab5	-0.044062335
168	0xbe200a1b	-0.15628855
169	0xbdb70df3	-0.089382075
170	0xbd7603a8	-0.06006208
171	0x3dabc209	0.08386619
172	0x3d12c0be	0.035828345
173	0x3d466d1e	0.048443906
174	0x3e487141	0.19574453
175	0x3e43ba40	0.19114017
176	0x3e08f880	0.13376045
177	0x3bcca321	0.0062450324
178	0xbe0aed75	-0.13567145
179	0x3e1cf1ef	0.15326665
180	0xbd48dfb6	-0.049041472
181	0xbc81e283	-0.01585508
182	0xbef2f912	-0.4745565
183	0xbe4a7ec9	-0.19774927
184	0x3e459859	0.19296397
185	0x3f51863b	0.81845444
186	0x3f0e0417	0.5547499
187	0x3dac93bd	0.08426616
188	0xbf3bf690	-0.734231
189	0xbe512cc1	-0.20427229
190	0x3dd43db9	0.10363335
191	0x3f5af736	0.85533464
192	0xbe2450a1	-0.16046382
193	0x3e42fcf3	0.19041805
194	0x3e0a6915	0.13516648
195	0xbebfab04	-0.37435162
196	0xbe21684a	-0.1576244
197	0x3e657c16	0.22410616
198	0x3fb33231	1.3999692
199	0x3e9b8efe	0.30382532
200	0x3e3e2961	0.18570472
201	0x3baa136c	0.0051903035
202	0x3f46ac6a	0.77606833
203	0x3ed4fd28	0.41599393
204	0xbed01b48	-0.40645814
205	0x3f6ab5dc	0.91683745
206	0xbf711bc4	-0.9418299
207	0xbf4b62c4	-0.7944758
208	0x3f02daf3	0.5111534
209	0x3edeeef4	0.43541682
210	0xbe88c024	-0.26709092
211	0xbed2b51e	-0.41153806
212	0xbf49fe73	-0.78903884
213	0xbd4ad411	-0.04951865
214	0x3f817fd6	1.0117137
215	0x3ea826bb	0.3284205
216	0x3e8e8361	0.2783461
217	0xbf654f32	-0.8957397
218	0x3e5c0ee0	0.2149005
219	0x3e166801	0.14688112
220	0x3d777613	0.06041534
221	0x3f133257	0.5749869
222	0x3e2a2281	0.16614725
223	0xbcc35637	-0.023844821
224	0xbf81697a	-1.0110314
225	0xbee299e1	-0.44258025
226	0xbd194dc4	-0.03742768
227	0x3df39c91	0.11895097
228	0xbe5cbcb5	-0.21556361
229	0xbe856774	-0.2605549
230	0x3f037379	0.5134807
231	0xbf800430	-1.0001278
232	0x3f94064e	1.1564424
233	0x3f48d9a3	0.7845709
234	0xbed9bd71	-0.42527345
235	0xbe593ae7	-0.21213876
236	0x3e569ef0	0.20959067
237	0x3f254f4a	0.6457411
238	0x3f4c2812	0.7974864
239	0x3cb25353	0.021768248
240	0xbf73e2d2	-0.95267975
241	0xbe792d85	-0.2433377
242	0x3da2b943	0.07945492
243	0x3f32d281	0.69852453
244	0xbe59f224	-0.21283776
245	0x3e6b80a8	0.22998297
246	0xbe529afe	-0.20566937
247	0xbebdfbcc	-0.37106168
248	0xbeac4524	-0.336465
249	0x3e822d61	0.25425246
250	0x3fba91a1	1.4575692
251	0x3e977aea	0.29585963
252	0x3e1bbef6	0.15209565
253	0x3e50227b	0.20325653
254	0x3f1ce2fc	0.6128385
255	0x3ed2408d	0.41064873

input_layer.bias f4 [50]
0	0xbd142c71	-0.036175195
1	0x3d8c0753	0.068373345
2	0x3eadd7d3	0.33953723
3	0x3dde4080	0.10852146
4	0x3dc27663	0.09495237
5	0x3f058daf	0.52169317
6	0xbdac5424	-0.08414486
7	0x3e093eac	0.13402814
8	0x3d721768	0.059104353
9	0x3e229328	0.15876448
10	0x3d2dd25c	0.042436942
11	0xbe2b00a5	-0.16699465
12	0x3c6579ce	0.014006091
13	0x3eb2dbb2	0.3493324
14	0x3e021ff5	0.12707503
15	0x3df85ee2	0.121274725
16	0x3a362ad9	0.0006949134
17	0x3ef6e768	0.48223424
18	0x3dd4ba1f	0.10387062
19	0xbe336728	-0.1751982
20	0xbe0f3846	-0.1398631
21	0x3c3dee63	0.01159248
22	0xbcbfdf10	-0.023421794
23	0x3e59da57	0.21274696
24	0xbd3cd5e4	-0.04610242
25	0x3e3d412d	0.18481894
26	0xbe295e09	-0.16539778
27	0xbe3edd72	-0.18639162
28	0x3d2af427	0.041736748
29	0xbdfe5032	-0.1241764
30	0xbd6a4254	-0.05719216
31	0x3dc86573	0.09784975
32	0xbe2e32b7	-0.17011534
33	0x3e979923	0.29609022
34	0xbdf3c1cd	-0.11902199
35	0x3eb442f8	0.35207343
36	0x3e6c8aaf	0.23099779
37	0xbd16a611	-0.036779467
38	0xbe2fc002	-0.17163089
39	0x3ca9dd5f	0.02073544
40	0xbde061fd	-0.1095619
41	0x3e6773a7	0.22602712
42	0xbe28f148	-0.16498291
43	0x3d0c8be6	0.034313105
44	0xbddd5ae0	-0.10808349
45	0xbe012926	-0.12613353
46	0xbdd17c85	-0.10228828
47	0xbc9f4718	-0.01944308
48	0x3d9e955f	0.07743334
49	0x3e371660	0.17879629

hidden_layer_list.0.weight f4 [30, 50]
0	0x3d940047	0.072266154
1	0xbea76f94	-0.32702315
2	0x3e07ecf0	0.13273978
3	0x3f1c05a8	0.6094613
4	0x3f2fd2c3	0.6868097
5	0x3e0f258d	0.13979168
6	0xbdf3d457	-0.11905735
7	0x3f35d5ec	0.71029544
8	0xbebb5bce	-0.3659348
9	0x3f22bf0d	0.6357277
10	0xbe992430	-0.2991042
11	0x3dca130f	0.098669164
12	0xbd83e1b3	-0.06439533
13	0x3dd38e2d	0.10329852
14	0xbd9f7923	-0.07786777
15	0xbe0e4f3e	-0.13897416
16	0x3db6cb8d	0.08925543
17	0x3e929453	0.28628787
18	0x3f00e04a	0.5034224
19	0xbd06d132	-0.032914348
20	0xbdac4a9c	-0.08412668
21	0xbd5705c6	-0.05249574
22	0xbdc50cc7	-0.09621578
23	0x3ec4293f	0.38312718
24	0x3e0b9f64	0.13635021
25	0x3f41ca75	0.7569955
26	0x3ddac624	0.106823236
27	0x3c6545d3	0.013993698
28	0x3f1db18b	0.61599034
29	0x3dbfc549	0.09363801
30	0x3dabfa6a	0.08397372
31	0xbebc40af	-0.367681
32	0xbd128131	-0.035767738
33	0x3e7a0d72	0.24419191
34	0xbba0cc15	-0.004907141
35	0xbd705275	-0.058672387
36	0xbdab2dfa	-0.08358379
37	0x3deae339	0.114691205
38	0x3df13469	0.117775746
39	0xbd61b740	-0.0551064
40	0xbcf89e0c	-0.0303488
41	0x3e94bf91	0.29052404
42	0xbd3d1d13	-0.046170305
43	0x3f336412	0.7007457
44	0xbe00cca2	-0.12578061
45	0x3d8a3524	0.06748417
46	0xbe02288b	-0.12710778
47	0xbd8a2e4f	-0.06747114
48	0x3f0ee509	0.5581823
49	0xbda791e6	-0.08182125
50	0xbcbc244c	-0.022966526
51	0xbd8464f7	-0.0646457
52	0xbd812f95	-0.06307904
53	0xbdb029e7	-0.08601742
54	0xbdca29fd	-0.0987129
55	0xbdb47241	-0.08810855
56	0x3e0ade2c	0.13561314
57	0xbd88773b	-0.066633664
58	0xbdf0da88	-0.117604315
59	0x3dc7106b	0.09719928
60	0x3d60bad9	0.05486569
61	0x3dc73a1d	0.09727881
62	0xbe100c16	-0.1406711
63	0xbe09d8e5	-0.13461645
64	0xbdcd9084	-0.1003733
65	0xbd98941d	-0.07450125
66	0xb9a347a1	-0.0003114315
67	0x3d7a9086	0.061172985
68	0x3da99160	0.08279681
69	0xbdf91cee	-0.12163721
70	0x3d670434	0.056400493
71	0xbda77efc	-0.08178517
72	0x3d052631	0.032507125
73	0x3d35de87	0.04440167
74	0x3cb96688	0.022631899
75	0x3d4cf220	0.050035596
76	0xbbe7639c	-0.007061435
77	0x3dbf35f9	0.09336466
78	0x3cf19fcb	0.02949514
79	0x3dfdbe3e	0.123898014
80	0x3cfb21ba	0.03065573
81	0xbd9952d6	-0.07486503
82	0x3dba0026	0.090820596
83	0x3bfb0e12	0.0076615894
84	0x3e0bf498	0.13667524
85	0xbc801f38	-0.015639886
86	0x3e0f4855	0.13992436
87	0xbda91353	-0.08255639
88	0x3d919036	0.07107584
89	0xbdd810eb	-0.10550102
90	0x3dc6d764	0.09709051
91	0x3cd24c5b	0.025671175
92	0x3da46f4e	0.08029042
93	0xbdf96c81	-0.121788986
94	0xbe100e36	-0.14067921
95	0x3d8b8e1d	0.06814215
96	0xbd6e50dc	-0.058182582
97	0x3d65699b	0.056008916
98	0xbdabd5b3	-0.08390369
99	0xbd331205	-0.043718357
100	0x3a26160d	0.0006335683
101	0x3dae6ad8	0.085164726
102	0x3da38f3e	0.07986306
103	0xbc4ef936	-0.012632659
104	0xbd23d840	-0.040001154
105	0xbb20bbf6	-0.0024526096
106	0x3d9546c6	0.072888896
107	0xbdf57b87	-0.119864516
108	0xbd310053	-0.0432132
109	0xbe0b9a02	-0.13632968
110	0x3ca73a67	0.02041359
111	0xbc8908aa	-0.016727764
112	0x3da41310	0.080114484
113	0x3de760ab	0.11297735
114	0xbdf7a4e4	-0.12091997
115	0xbd802e02	-0.06258775
116	0xbcba3e69	-0.022734838
117	0xbab8d797	-0.0014102337
118	0xbd043a1b	-0.032281976
119	0xbdb61ab0	-0.08891809
120	0xbd5fd380	-0.05464506
121	0xbb6eaf14	-0.0036420273
122	0x3de8ea23	0.11372783
123	0xbd13a070	-0.036041677
124	0x3dbf4522	0.09339358
125	0xbdea1f8a	-0.11431797
126	0x3bcf3bd2	0.00632427
127	0xbde20511	-0.110361226
128	0xbe07e3d7	-0.13270508
129	0x3c659fd7	0.01401516
130	0xbd849e7d	-0.06475542
131	0x3dd53afc	0.10411641
132	0x3de4c49f	0.11170315
133	0xbe102366	-0.14076003
134	0xbc2179f6	-0.009855738
135	0xbcc5ebab	-0.024160227
136	0xbda51526	-0.08060674
137	0xbdca3427	-0.098732285
138	0xbd752181	-0.059846405
139	0x3d7fbf49	0.062438283
140	0x3d09ba65	0.033625025
141	0x3dae50f9	0.08511538
142	0xbc0a3057	-0.008434377
143	0x3d966d7d	0.07345102
144	0x3ce00872	0.027347777
145	0xbcfca018	-0.030838057
146	0xbc0774cd	-0.008267594
147	0xbe03b56f	-0.1286218
148	0xbb54d885	-0.0032477689
149	0xbd3e4bee	-0.04645913
150	0xbd41da62	-0.047327407
151	0xbd98e3e9	-0.074653454
152	0xbd47cff4	-0.048782304
153	0xbdfa689e	-0.122269854
154	0xbc1cb063	-0.009563538
155	0xbcc16a7d	-0.023610348
156	0xbd189044	-0.037246957
157	0x3dd6d6a4	0.10490158
158	0x3d9dcf82	0.077055946
159	0x3cb4dc89	0.022077816
160	0xbd8f3ffd	-0.06994627
161	0x3c93c3eb	0.018037757
162	0xbdc74806	-0.09730534
163	0x3da53a58	0.08067769
164	0x3de9f20c	0.1142312
165	0xbd1fa477	-0.038975205
166	0x3ddf5d80	0.109065056
167	0x3deb3c20	0.11486077
168	0xbcd7eec7	-0.026358975
169	0xbd571856	-0.052513443
170	0x3be9e026	0.0071373163
171	0x3cbf7455	0.023370901
172	0xbe060d3a	-0.13090983
173	0xbcda9a63	-0.026684945
174	0xbd517134	-0.05113335
175	0x3d9cb035	0.07650796
176	0xbb850668	-0.0040596016
177	0x3dbe8ef4	0.0930461
178	0x3ddd0a70	0.107930064
179	0xbd3589b6	-0.044320785
180	0x3cf96078	0.030441508
181	0xbcf562dd	-0.029954368
182	0xbd7c7140	-0.06163144
183	0xbdc53fdd	-0.096313216
184	0x3b56772b	0.0032724838
185	0x3ccda8c2	0.025104884
186	0xbd2f0b90	-0.042735636
187	0x3cc4be3a	0.024016488
188	0x3db4ff21	0.088377245
189	0x3d717bce	0.05895596
190	0x3d6edf13	0.05831821
191	0x3cb34160	0.02188176
192	0xbddea51b	-0.10871335
193	0xbdd3cf6e	-0.103422984
194	0xbdd6c8b7	-0.10487502
195	0x3dbe53cc	0.09293327
196	0xbdff190b	-0.124559484
197	0xbdd83b7c	-0.10558221
198	0x3d9a2860	0.07527232
199	0x3d869f28	0.065733254
200	0xbe08e592	-0.13368824
201	0x3da75a8b	0.081715666
202	0xbd042cb9	-0.032269213
203	0x3cf9996d	0.030468667
204	0xbdb56f54	-0.08859125
205	0xbcafdd23	-0.02146775
206	0x3d00bea3	0.031431805
207	0x3ddcd720	0.10783219
208	0x3dafa1b7	0.085757665
209	0xbd9d7ecc	-0.076902
210	0xbdbdfad3	-0.092763565
211	0xbc0d003f	-0.008606016
212	0x3d35cbea	0.04438392
213	0x3d9ecde3	0.077541135
214	0xbe104f1e	-0.14092681
215	0xbc3d582c	-0.011556666
216	0x3ba3dff1	0.005001061
217	0xbd874354	-0.06604639
218	0x3de47155	0.11154429
219	0xbd19c3c1	-0.0375402
220	0xbe0a1113	-0.13483076
221	0xbdacee9f	-0.08443951
222	0x3b949541	0.004534394
223	0xbdd788cf	-0.10524141
224	0x3d044f5a	0.032302238
225	0x3e0ce07c	0.13757509
226	0x3bbdb461	0.005789325
227	0xbd0eb41c	-0.034839734
228	0x3e086e7e	0.133234
229	0x3dd5d116	0.104402706
230	0x3dc07712	0.09397711
231	0x3c2fc29f	0.010727554
232	0x3bd3da87	0.0064652595
233	0xbde09ddb	-0.109676085
234	0x3c6bdc6b	0.014395813
235	0x3e0cdaf9	0.13755406
236	0x3bf4fab8	0.007476177
237	0xbe013b2f	-0.12620233
238	0x3d9ef7e3	0.077621244
239	0x3e01f752	0.12692001
240	0x3df2cf66	0.11855964
241	0x3bda90f0	0.00667011
242	0x3cd9a4df	0.026567874
243	0x3cbb7c0b	0.022886297
244	0xbd6d6967	-0.057961848
245	0xbca90a95	-0.020634929
246	0x3dec4867	0.11537247
247	0x3c6c6465	0.014428233
248	0x3e087c8b	0.1332876
249	0xbdc05599	-0.093913265
250	0xbca9509f	-0.020668326
251	0xbefad10e	-0.4898762
252	0x3cbfd28a	0.023415823
253	0x3f23b7b6	0.63952196
254	0x3ec5d52e	0.38639206
255	0x3dd1fae9	0.102529354

hidden_layer_list.0.bias f4 [30]
0	0x3b6e48ef	0.003635939
1	0xbd3b621c	-0.04574786
2	0xbde807e8	-0.11329633
3	0xbe1cc0bc	-0.15307897
4	0xbd9cf4c5	-0.076638736
5	0x3dc73f3b	0.09728857
6	0x3e854538	0.26029372
7	0x3e6d3ed8	0.23168504
8	0x3e0b6102	0.13611224
9	0x3e93c150	0.28858423
10	0xbbc39f49	-0.005969916
11	0x3e212612	0.15737179
12	0xbdfcaed7	-0.123380356
13	0xbd879f31	-0.0662216
14	0xbe08d2f7	-0.13361727
15	0xbdc796d9	-0.09745569
16	0xbd9892af	-0.07449853
17	0xbcc9ca50	-0.024632603
18	0x3e5fb0c0	0.21844769
19	0x3dca6415	0.098823704
20	0x3e671e99	0.22570266
21	0x3dc38fd1	0.09548915
22	0x3e50ca08	0.20389569
23	0xbd9b49e6	-0.075824544
24	0xbe0f68a2	-0.14004758
25	0x3c531df1	0.012885557
26	0x3e911d6f	0.2834277
27	0xbb919b91	-0.004443594
28	0x3d98b653	0.074566506
29	0x3e005576	0.12532601

output_layer.weight f4 [4, 30]
0	0x3e3b2ed6	0.18279585
1	0xbe30ac28	-0.17253172
2	0xbd9a7ddf	-0.07543539
3	0xbbb822d6	-0.005619387
4	0x3e33fedb	0.17577688
5	0x3eb80e1b	0.35948262
6	0xbe9b3da1	-0.30320457
7	0xbf2bf373	-0.6716835
8	0x3e842c37	0.25814983
9	0xbd1dfa12	-0.038568564
10	0xbdd9b6de	-0.10630582
11	0xbdacbbea	-0.08434279
12	0x3dd965bf	0.1061511
13	0x3de835bb	0.11338373
14	0x3e0c2f20	0.13689852
15	0xbd17d83c	-0.03707145
16	0xbd8bcedf	-0.06826567
17	0xbd869581	-0.06571484
18	0x3e4f7e48	0.20263016
19	0xbe3cda3b	-0.18442623
20	0x3e7ffadb	0.24998038
21	0xb7483f4c	-1.1935666e-05
22	0xbe63c0d1	-0.22241522
23	0x3e1d8774	0.15383703
24	0xbd85760b	-0.065166555
25	0xbd9a3eb9	-0.07531495
26	0xbec0ce21	-0.37657264
27	0x3e2f90d9	0.17145099
28	0x3ea8d660	0.32976055
29	0xbea4cc48	-0.32187104
30	0x3e7b1fe1	0.2452388
31	0xbd7f5c20	-0.062343717
32	0x3cd38c7a	0.02582382
33	0xbdaa1455	-0.08304659
34	0x3d3ceecd	0.046126176
35	0x3de00edc	0.10940334
36	0xbfa1e904	-1.2649236
37	0xbf62538d	-0.8840874
38	0x3ec00e9b	0.37511143
39	0xbf810154	-1.007853
40	0xbe041032	-0.12896803
41	0x3e9fd008	0.31213403
42	0x3e35b6be	0.17745492
43	0xbe349890	-0.17636323
44	0x3e126f1e	0.143002
45	0x3e11c196	0.14234003
46	0x3e27b582	0.16377833
47	0xbfd270a2	-1.6440623
48	0x3e9632ad	0.29335538
49	0x3ea396f5	0.3195111
50	0x3e3f87d6	0.18704161
51	0x3e459d45	0.19298275
52	0xbfb74a2b	-1.4319509
53	0xbd8e15f2	-0.069377795
54	0x3d1bc4e5	0.03802957
55	0x3da06fc9	0.07833821
56	0xbfa79d68	-1.3094912
57	0x3f0d7f2d	0.5527218
58	0x3eae9302	0.34096533
59	0x3e91f25e	0.28505224
60	0xbe10efc8	-0.1415397
61	0xbd5a545f	-0.05330312
62	0x3df96406	0.12177281
63	0x3d9be526	0.07612066
64	0xbcafff3f	-0.021484016
65	0xbe9bcf30	-0.3043151
66	0x3d8fbe6a	0.070187405
67	0x3ec9e413	0.3943182
68	0xbe57ed40	-0.21086597
69	0x3e15a2f0	0.14612937
70	0xbcf91a0f	-0.030407934
71	0xbf21576e	-0.6302403
72	0x3e0155b2	0.12630346
73	0xbd0a9fb8	-0.033843726
74	0xbe27254e	-0.16322824
75	0xbe2aa5b0	-0.16664767
76	0xbf033cb5	-0.51264507
77	0xbe35065a	-0.17678204
78	0x3d31e3fa	0.043430306
79	0x3ea049f2	0.31306416
80	0xbd0a845b	-0.03381763
81	0xbe3c2b20	-0.18375826
82	0x3dba7763	0.091048025
83	0xbdbf3c26	-0.09337644
84	0x3e12ca52	0.14334992
85	0xbc0889bc	-0.00833362
86	0x3e1cfd79	0.15331067
87	0xbf442e36	-0.7663301
88	0xbf63e5a2	-0.89022267
89	0x3eb4e3cd	0.35330048
90	0xbf873896	-1.0564144
91	0xbcec1f41	-0.028823497
92	0x3e110810	0.14163232
93	0xbe0224f3	-0.12709408
94	0x3c9e014f	0.019287733
95	0xbf831cd6	-1.0243175
96	0x3ece5b17	0.4030387
97	0x3e62b24f	0.22138332
98	0xbf5e4d65	-0.86836845
99	0x3ed4f9fd	0.41596976
100	0xbdf96998	-0.121783435
101	0xbe9aa9cf	-0.3020768
102	0xbcc54b0c	-0.024083637
103	0xbe12216d	-0.14270563
104	0xbe094edd	-0.1340899
105	0xbd7271d2	-0.05919058
106	0xbe5a1c30	-0.21299815
107	0x3ec78959	0.38971975
108	0xbf2d3aa0	-0.6766758
109	0xbf600a40	-0.8751564
110	0xbf760e7e	-0.96115863
111	0xbf923736	-1.1423099
112	0x3f11e337	0.5698733
113	0x3e2a381b	0.16622965
114	0xbe13ab9c	-0.14420933
115	0xbe06a1f2	-0.13147715
116	0x3f266370	0.6499548
117	0xbeb88efe	-0.36046594
118	0xbeb020d9	-0.3440006
119	0xbf34e627	-0.70663685

output_layer.bias f4 [4]
0	0x3cda5ccc	0.026655577
1	0xbd041f89	-0.032256637
2	0x3e6cf06b	0.23138587
3	0x3d9e4fec	0.07730088
