K-Digital Training/김소현 강사님/Pytorch/숙제/language_model/best_model_epoch_11.pth (torch, 14536 bytes, 6 tensors)

input_layer.weight f4 [50, 26]
0.10105143 -0.0865614 -0.038019367 0.09205082 -0.18463096 0.11761423 -0.040346052 0.099772885
0.027263474 -0.024013273 0.05439495 0.009674759 0.07162714 -0.076426655 -0.014298584 -0.017655812
0.028425848 -0.00078344916 0.1714382 0.061029404 -0.073034875 -0.118446566 -0.032872133 -0.08459287
-0.062845126 0.009390355 0.23373103 0.19659403 -0.33966252 0.13758077 -0.013180247 0.07666461
0.23624216 -0.23910381 -0.14146243 -0.018952318 0.33068353 -0.05150434 0.15614054 -0.03144035
0.12134138 -0.024181655 -0.006244649 -0.026709301 -0.12520693 0.053908955 -0.043781847 -0.10138424
-0.13116984 -0.18375702 -0.15393141 -0.078544594 0.038882688 -0.109007366 0.2501624 0.22078982
0.066693574 -0.110201046 0.013055267 -0.019820604 -0.1273797 0.23453386 0.009007646 0.20198211
-0.11686331 -0.0664847 -0.02101293 0.030250065 -0.031700995 -0.08111804 0.13764371 -0.036339793
0.15395962 0.09021571 -0.07132496 0.13649039 -0.05469434 0.091864094 -0.26470384 0.07898392
-0.0438103 -0.14026468 0.058165424 0.07603379 0.029773066 -0.0024472326 -0.18711153 0.07346376
-0.15209442 0.11321483 0.016053608 -0.18344527 0.10931603 0.0010690005 -0.17196755 -0.059105895
0.08328711 0.09890585 -0.14555681 0.02110065 0.30212745 -0.02205787 0.16297333 -0.009658776
-0.26335937 -0.22350049 0.3248051 0.075602785 0.25609484 0.19209735 -0.087855786 0.25531158
0.15833652 -0.119180575 -0.15148437 0.1485551 0.05944097 0.033149388 -0.087602496 -0.20831966
-0.043943085 0.113850035 0.22400776 -0.04897386 0.058609344 0.037256766 -0.09862961 0.061423182
0.049110636 0.058972597 -0.09548266 -0.017393356 0.17340402 0.11068264 0.11762566 0.06728788
0.1873319 -0.0487954 -0.13185604 -0.21389568 -0.15140097 0.022971055 -0.09262419 0.11531659
0.04849559 -0.010233366 0.20373204 0.049414482 0.14338265 0.10284085 -0.0088119395 0.21597767
-0.1276365 0.07401858 -0.22400074 0.00019538315 -0.11457173 -0.08388337 0.13943261 -0.06408703
-0.1465539 0.07545566 0.062790416 0.1270226 -0.101484634 0.042520918 -0.0713962 -0.044062335
-0.15628855 -0.089382075 -0.06006208 0.08386619 0.035828345 0.048443906 0.19574453 0.19114017
0.13376045 0.0062450324 -0.13567145 0.15326665 -0.049041472 -0.01585508 -0.267242 -0.086276464
0.005789146 0.29760548 -0.016524393 0.0029306554 -0.13123542 -0.015731964 0.059059512 0.06685804
-0.19976696 0.022216158 0.09468893 -0.2068475 0.103752404 0.090837404 0.3289942 -0.02269513
0.08142493 -0.07975123 0.19384319 0.078237504 0.1264468 0.14117907 -0.1188397 -0.099868655
0.17079625 0.16734195 -0.06830878 -0.022249598 -0.2987463 0.011623554 0.33179498 0.084272146
0.20208271 -0.2417549 0.060985286 0.21995208 -0.047600966 0.29247898 -0.12974618 -0.04979981
0.036822107 -0.21633264 -0.025308153 0.11321005 0.2043502 0.06737087 -0.055889085 -0.23068671
0.31448644 0.10433692 -0.17079371 -0.04124397 -0.015865061 0.13579784 0.19812554 -0.07014087
-0.25739378 -0.01627763 0.057923 -0.044071954 -0.22407478 0.04778684 -0.22544168 -0.17307433
-0.07280625 0.1357428 0.29910377 -0.026498258 0.045845937 0.12629609 0.019076422 0.035358984
00000000: 0df4 ce3d 1a47 b1bd 32ba 1bbd 2485 bc3d
00000010: e60f 3dbe bbdf f03d e741 25bd ba55 cc3d
00000020: a657 df3c 7cb7 c4bc 3dcd 5e3d e182 1e3c
00000030: 40b1 923d 9485 9cbd 9c44 6abc eca2 90bc
00000040: 53dd e83c 6260 4dba 7f8d 2f3e f8f9 793d
00000050: 4f93 95bd 1d94 f2bd eea4 06bd 073f adbd
00000060: f2b4 80bd 01da 193c 3057 6f3e f24f 493e
00000070: 3fe8 adbe f9e1 0c3e f6f1 57bc 5602 9d3d
00000080: 77e9 713e a1d7 74be 87db 10be e441 9bbc
00000090: 5a4f a93e 37f6 52bd 4ee3 1f3e 99c7 00bd
000000a0: d481 f83d 9b18 c6bc ea9f ccbb 77cd dabc
000000b0: 3f36 00be a3cf 5c3d 9854 33bd 8aa2 cfbd
000000c0: 6351 06be cd2a 3cbe 32a0 1dbe fddb a0bd
000000d0: 7443 1f3d 413f dfbd 4915 803e ba16 623e
000000e0: a496 883d 16b1 e1bd c2e5 553c d25e a2bc
000000f0: d36f 02be a529 703e ce94 133c 66d4 4e3e
00000100: 0856 efbd 2129 88bd 4f23 acbc fcce f73c
00000110: e7d8 01bd 3721 a6bd 79f2 0c3e 09d9 14bd
00000120: 97a7 1d3e 04c3 b83d d212 92bd 23c4 0b3e
00000130: 2c07 60bd 3e23 bc3d 4387 87be 52c2 a13d
00000140: 6e72 33bd 8ba1 0fbe de3e 6e3d 9bb7 9b3d
00000150: a5e6 f33c c061 20bb 2a9a 3fbe 2b74 963d
00000160: a4be 1bbe 2ddd e73d db82 833c 14d9 3bbe
00000170: 15e1 df3d b41d 8c3a 4318 30be 0619 72bd
00000180: 6f92 aa3d 268f ca3d d80c 15be 45db ac3c
00000190: 73b0 9a3e b5b2 b4bc 7be2 263e d83f 1ebc
000001a0: 0ad7 86be 50dd 64be db4c a63e a2d5 9a3d
000001b0: dd1e 833e 2bb5 443e bced b3bd 33b8 823e
000001c0: f822 223e f214 f4bd b81e 1bbe d41e 183e
000001d0: 6078 733d a7c7 073d f068 b3bd c051 55be
000001e0: aafd 33bd 352a e93d 4a62 653e d098 48bd
000001f0: 5a10 703d 8d9a 183d 52fe c9bd e096 7b3d
00000200: 3c28 493d 408d 713d 6a8c c3bd 837c 8ebc
00000210: d390 313e 94ad e23d b9e5 f03d 3ace 893d
00000220: efd3 3f3e afdd 47bd 4505 07be 7807 5bbe
00000230: db08 1bbe cb2d bc3c c0b1 bdbd 1b2b ec3d
00000240: 50a3 463d d9a9 27bc 229f 503e d766 4a3d
00000250: e7d2 123e 399e d23d f45f 10bc 4029 5d3e
00000260: 25b3 02be 0e97 973d 7360 65be c4df 4c39
00000270: 95a4 eabd 0bcb abbd 6cc7 0e3e 1040 83bd
00000280: 3a12 16be 7f88 9a3d 4398 803d 3612 023e
00000290: 2dd7 cfbd 6a2a 2e3d 2c38 92bd b57a 34bd
000002a0: 1b0a 20be f30d b7bd a803 76bd 09c2 ab3d
000002b0: bec0 123d 1e6d 463d 4171 483e 40ba 433e
000002c0: 80f8 083e 21a3 cc3b 75ed 0abe eff1 1c3e
000002d0: b6df 48bd 83e2 81bc f2d3 88be b7b1 b0bd
000002e0: e0b2 bd3b bf5f 983e 2a5e 87bc 3d10 403b
000002f0: 9462 06be 52e0 80bc 63e8 713d deec 883d
00000300: b68f 4cbe a9fe b53c 45ec c13d d5cf 53be
00000310: 247c d43d f608 ba3d ee71 a83e 23eb b9bc
00000320: 1dc2 a63d 9d54 a3bd d47e 463e fc3a a03d
00000330: 457b 013e 3f91 103e 3b62 f3bd f087 ccbd
00000340: 36e5 2e3e b05b 2b3e 79e5 8bbd ca44 b6bc
00000350: 46f5 98be b870 3e3c 08e1 a93e e096 ac3d
00000360: c5ee 4e3e 998e 77be b5cb 793d 1e3b 613e
00000370: 3bf9 42bd cebf 953e 2fdc 04be e3fa 4bbd
00000380: c7d2 163d 4e86 5dbe 0b53 cfbc acda e73d
00000390: 2e41 513e bdf9 893d f4eb 64bd 2339 6cbe
000003a0: 5e04 a13e 98ae d53d 8ce4 2ebe 70ef 28bd
000003b0: 72f7 81bc 970e 0b3e 6ce1 4a3e 04a6 8fbd
000003c0: 1ec9 83be aa58 85bc ab40 6d3d cb84 34bd
000003d0: dc73 65be 22bc 433d 2fda 66be 663a 31be
000003e0: 711b 95bd 2900 0b3e 2124 993e e012 d9bc
000003f0: f3c8 3b3d c353 013e 2846 9c3c 95d4 103d

input_layer.bias f4 [50]
-0.036175195 0.0067923786 0.06547468 0.08149826 0.036104355 0.081245296 -0.08414486 0.07862324
-0.010345754 0.11898116 -0.03182717 -0.16699465 0.014006091 0.14088282 0.015704032 0.008752785
0.0006949134 0.12376954 0.024375992 -0.1751982 -0.1398631 0.01159248 -0.023421794 0.1786359
-0.04610242 0.12880307 -0.16539778 -0.18639162 -0.009376054 -0.1241764 -0.05719216 0.031843126
-0.17011534 0.13158998 -0.11902199 0.13457948 0.073908344 -0.036779467 -0.17163089 0.02073544
-0.1095619 0.16734003 -0.16498291 -0.015303004 -0.10808349 -0.12613353 -0.10228828 -0.01944308
0.031076578 0.04094332
00000000: 712c 14bd 9a92 de3b 9717 863d 8fe8 a63d
00000010: 29e2 133d ef63 a63d 2454 acbd 3905 a13d
00000020: 3d81 29bc 65ac f33d 355d 02bd a500 2bbe
00000030: ce79 653c 9643 103e bea5 803c d767 0f3c
00000040: d92a 363a e27a fd3d 29b0 c73c 2867 33be
00000050: 4638 0fbe 63ee 3d3c 10df bfbc 54ec 363e
00000060: e4d5 3cbd f4e4 033e 095e 29be 72dd 3ebe
00000070: 059e 19bc 3250 febd 5442 6abd f06d 023d
00000080: b732 2ebe 86bf 063e cdc1 f3bd 34cf 093e
00000090: 425d 973d 11a6 16bd 02c0 2fbe 5fdd a93c
000000a0: fd61 e0bd 2f5b 2b3e 48f1 28be 73b9 7abc
000000b0: e05a ddbd 2629 01be 857c d1bd 1847 9fbc
000000c0: 4f94 fe3c 2fb4 273d

hidden_layer_list.0.weight f4 [30, 50]
0.072266154 -0.057764754 -0.0877458 -0.0297973 0.13327004 -0.017277831 -0.11905735 0.11096757
0.03441024 0.024544893 0.024274614 0.098669164 -0.06439533 0.10307017 0.13599043 -0.036465827
0.08925543 0.07802473 0.13243866 -0.032914348 -0.08412668 -0.05249574 -0.09621578 0.0048517263
0.13635021 0.13719808 0.106823236 0.013993698 0.003070044 0.09363801 0.08397372 -0.014034024
-0.035767738 0.0559196 -0.004907141 -0.09935392 -0.06651852 0.114691205 0.117775746 -0.0551064
-0.0303488 -0.07009171 -0.046170305 0.12891386 -0.12578061 0.06748417 -0.12710778 -0.06747114
-0.028798454 0.009799412 -0.022966526 -0.0646457 -0.06307904 -0.08601742 -0.0987129 -0.08810855
0.13561314 -0.066633664 -0.117604315 0.09719928 0.05486569 0.09727881 -0.1406711 -0.13461645
-0.1003733 -0.07450125 -0.0003114315 0.061172985 0.08279681 -0.12163721 0.056400493 -0.08178517
0.032507125 0.04440167 0.022631899 0.050035596 -0.007061435 0.09336466 0.02949514 0.123898014
0.03065573 -0.07486503 0.090820596 0.0076615894 0.13667524 -0.015639886 0.13992436 -0.08255639
0.07107584 -0.10550102 0.09709051 0.025671175 0.08029042 -0.121788986 -0.14067921 0.06814215
-0.058182582 0.056008916 -0.08390369 -0.043718357 0.0006335683 0.085164726 0.07986306 -0.012632659
-0.040001154 -0.0024526096 0.072888896 -0.119864516 -0.0432132 -0.13632968 0.02041359 -0.016727764
0.080114484 0.11297735 -0.12091997 -0.06258775 -0.022734838 -0.0014102337 -0.032281976 -0.08891809
-0.05464506 -0.0036420273 0.11372783 -0.036041677 0.09339358 -0.11431797 0.00632427 -0.110361226
-0.13270508 0.01401516 -0.06475542 0.10411641 0.11170315 -0.14076003 -0.009855738 -0.024160227
-0.08060674 -0.098732285 -0.059846405 0.062438283 0.033625025 0.08511538 -0.008434377 0.07345102
0.027347777 -0.030838057 -0.008267594 -0.1286218 -0.0032477689 -0.04645913 -0.047327407 -0.056801565
-0.030919554 -0.10440822 0.008298883 -0.005747414 -0.037246957 0.122763894 0.09491022 0.03994016
-0.05208865 0.018037757 -0.09730534 0.09854045 0.1320917 -0.021114796 0.109065056 0.13272375
-0.008497378 -0.052513443 0.0071373163 0.023370901 -0.13090983 -0.008822128 -0.05113335 0.094369866
-0.0040596016 0.0930461 0.12579237 -0.044320785 0.030441508 -0.012097528 -0.06163144 -0.07845076
0.0032724838 0.042967502 -0.024873301 0.024016488 0.088377245 0.05895596 0.05831821 0.03974455
-0.10871335 -0.085560635 -0.10487502 0.09293327 -0.124559484 -0.10558221 0.09313471 0.08359516
-0.13368824 0.081715666 -0.032269213 0.030468667 -0.08859125 -0.02146775 0.031431805 0.10783219
0.085757665 -0.076902 -0.092763565 -0.008606016 0.04438392 0.077541135 -0.14092681 -0.011556666
0.005001061 -0.06604639 0.11154429 -0.0375402 -0.13483076 -0.08443951 0.004534394 -0.10524141
0.032302238 0.13757509 0.005789325 -0.034839734 0.133234 0.104402706 0.09397711 0.010727554
0.0064652595 -0.109676085 0.014395813 0.13755406 0.007476177 -0.12620233 0.077621244 0.12692001
0.11855964 0.00667011 0.026567874 0.022886297 -0.057961848 -0.020634929 0.11537247 0.014428233
0.1332876 -0.093913265 -0.020668326 -0.14215086 -0.08529142 0.19389234 0.12899624 -0.049195174
00000000: 4700 943d bc9a 6cbd 12b4 b3bd 7819 f4bc
00000010: f177 083e 3d8a 8dbc 57d4 f3bd f742 e33d
00000020: c0f1 0c3d 5f12 c93c 8edb c63c 0f13 ca3d
00000030: b3e1 83bd 7416 d33d 1341 0b3e 315d 15bd
00000040: 8dcb b63d 6ecb 9f3d 009e 073e 32d1 06bd
00000050: 9c4a acbd c605 57bd c70c c5bd 3bfb 9e3b
00000060: 649f 0b3e a77d 0c3e 24c6 da3d d345 653c
00000070: cb32 493b 49c5 bf3d 6afa ab3d f7ee 65bc
00000080: 3181 12bd f30b 653d 15cc a0bb 117a cbbd
00000090: dd3a 88bd 39e3 ea3d 6934 f13d 40b7 61bd
000000a0: 0c9e f8bc 3e8c 8fbd 131d 3dbd ff01 043e
000000b0: a2cc 00be 2435 8a3d 8b28 02be 4f2e 8abd
000000c0: bcea ebbc b78d 203c 4c24 bcbc f764 84bd
000000d0: 952f 81bd e729 b0bd fd29 cabd 4172 b4bd
000000e0: 2cde 0a3e 3b77 88bd 88da f0bd 6b10 c73d
000000f0: d9ba 603d 1d3a c73d 160c 10be e5d8 09be
00000100: 8490 cdbd 1d94 98bd a147 a3b9 8690 7a3d
00000110: 6091 a93d ee1c f9bd 3404 673d fc7e a7bd
00000120: 3126 053d 87de 353d 8866 b93c 20f2 4c3d
00000130: 9c63 e7bb f935 bf3d cb9f f13c 3ebe fd3d
00000140: ba21 fb3c d652 99bd 2600 ba3d 120e fb3b
00000150: 98f4 0b3e 381f 80bc 5548 0f3e 5313 a9bd
00000160: 3690 913d eb10 d8bd 64d7 c63d 5b4c d23c
00000170: 4e6f a43d 816c f9bd 360e 10be 1d8e 8b3d
00000180: dc50 6ebd 9b69 653d b3d5 abbd 0512 33bd
00000190: 0d16 263a d86a ae3d 3e8f a33d 36f9 4ebc
000001a0: 40d8 23bd f6bb 20bb c646 953d 877b f5bd
000001b0: 5300 31bd 029a 0bbe 673a a73c aa08 89bc
000001c0: 1013 a43d ab60 e73d e4a4 f7bd 022e 80bd
000001d0: 693e babc 97d7 b8ba 1b3a 04bd b01a b6bd
000001e0: 80d3 5fbd 14af 6ebb 23ea e83d 70a0 13bd
000001f0: 2245 bf3d 8a1f eabd d23b cf3b 1105 e2bd
00000200: d7e3 07be d79f 653c 7d9e 84bd fc3a d53d
00000210: 9fc4 e43d 6623 10be f679 21bc abeb c5bc
00000220: 2615 a5bd 2734 cabd 8121 75bd 49bf 7f3d
00000230: 65ba 093d f950 ae3d 5730 0abc 7d6d 963d
00000240: 7208 e03c 18a0 fcbc cd74 07bc 6fb5 03be
00000250: 85d8 54bb ee4b 3ebd 62da 41bd c2a8 68bd
00000260: 014b fdbc fad3 d5bd 0af8 073c ce54 bcbb
00000270: 4490 18bd a36b fb3d 4a60 c23d 4b98 233d
00000280: e95a 55bd ebc3 933c 0648 c7bd 93cf c93d
00000290: 0c43 073e f0f8 acbc 805d df3d bce8 073e
000002a0: 9638 0bbc 5618 57bd 26e0 e93b 5574 bf3c
000002b0: 3a0d 06be b08a 10bc 3471 51bd fd44 c13d
000002c0: 6806 85bb f48e be3d b7cf 003e b689 35bd
000002d0: 7860 f93c b634 46bc 4071 7cbd cbaa a0bd
000002e0: 2b77 563b b1fe 2f3d 18c3 cbbc 3abe c43c
000002f0: 21ff b43d ce7b 713d 13df 6e3d 2ecb 223d
00000300: 1ba5 debd 6a3a afbd b7c8 d6bd cc53 be3d
00000310: 0b19 ffbd 7c3b d8bd 69bd be3d f033 ab3d
00000320: 92e5 08be 8b5a a73d b92c 04bd 6d99 f93c
00000330: 546f b5bd 23dd afbc a3be 003d 20d7 dc3d
00000340: b7a1 af3d cc7e 9dbd d3fa bdbd 3f00 0dbc
00000350: eacb 353d e3cd 9e3d 1e4f 10be 2c58 3dbc
00000360: f1df a33b 5443 87bd 5571 e43d c1c3 19bd
00000370: 1311 0abe 9fee acbd 4195 943b cf88 d7bd
00000380: 5a4f 043d 7ce0 0c3e 61b4 bd3b 1cb4 0ebd
00000390: 7e6e 083e 16d1 d53d 1277 c03d 9fc2 2f3c
000003a0: 87da d33b db9d e0bd 6bdc 6b3c f9da 0c3e
000003b0: b8fa f43b 2f3b 01be e3f7 9e3d 52f7 013e
000003c0: 66cf f23d f090 da3b dfa4 d93c 0b7c bb3c
000003d0: 6769 6dbd 950a a9bc 6748 ec3d 6564 6c3c
000003e0: 8b7c 083e 9955 c0bd 9f50 a9bc ff8f 11be
000003f0: 45ad aebd b78b 463e 9717 043e e180 49bd

hidden_layer_list.0.bias f4 [30]
-0.10145113 -0.04574786 -0.11329633 -0.13521579 -0.076638736 0.012075359 0.08307641 0.06687453
0.05744328 0.12058759 -0.005969916 0.14029506 -0.123380356 -0.0662216 -0.1136697 -0.09745569
-0.10522752 -0.13398266 0.13292718 0.03144026 0.080888145 -0.026750002 0.054028254 -0.075824544
-0.14004758 0.012885557 0.11688355 -0.021489317 0.043490883 0.06405691
00000000: 9cc5 cfbd 1c62 3bbd e807 e8bd 0276 0abe
00000010: c5f4 9cbd bad7 453c f723 aa3d 83f5 883d
00000020: a549 6b3d a0f6 f63d 499f c3bb 82a9 0f3e
00000030: d7ae fcbd 319f 87bd a9cb e8bd d996 c7bd
00000040: 8781 d7bd c032 09be 101e 083e 81c7 003d
00000050: afa8 a53d d222 dbbc bb4c 5d3d e649 9bbd
00000060: a268 0fbe f11d 533c a560 ef3d 5d0a b0bc
00000070: 7f23 323d 4530 833d

output_layer.weight f4 [4, 30]
0.13281788 -0.17253172 -0.07543539 0.012117015 0.17577688 0.24363542 -0.16694658 -0.24818553
0.20541069 -0.021989811 -0.10630582 -0.078152806 0.1061511 0.11338373 0.1536591 -0.03707145
-0.054891866 -0.008553855 0.17163159 -0.14471222 0.14547646 -0.07102303 -0.12255472 0.15383703
-0.065166555 -0.07531495 -0.19563162 0.12506723 0.18516237 -0.18195535 0.14369822 -0.062343717
0.02582382 -0.100812584 0.046126176 -0.10160023 -0.15473707 -0.17644832 0.15722577 0.032366943
-0.12896803 0.043453358 0.17745492 -0.17636323 0.15934913 0.14234003 0.010034954 -0.09269167
0.104158536 0.11769463 -0.026183445 -0.03502422 -0.25657532 -0.069377795 0.03802957 0.07833821
-0.19171003 0.22869411 0.08408208 0.0672342 -0.090556346 -0.05330312 0.12177281 0.0933917
-0.021484016 -0.18464987 -0.1490924 0.080192976 -0.14337073 -0.023252672 -0.030407934 -0.18250675
0.12630346 -0.033843726 -0.17975086 -0.16664767 -0.14548504 -0.07159138 -0.022082184 0.061333116
-0.046463244 -0.23957531 -0.11189806 -0.09337644 0.14334992 -0.00833362 -0.07559326 -0.1361995
-0.17381345 0.027048789 -0.015550284 -0.028823497 0.14163232 -0.11046026 0.019287733 -0.20447975
0.07732791 -0.055404827 -0.13949941 0.102892295 -0.121783435 -0.10863148 -0.024083637 -0.14270563
-0.11762012 -0.05919058 -0.02142769 -0.039254915 -0.018545045 -0.21386547 -0.11249526 -0.2870095
0.21318576 0.16622965 -0.14420933 -0.13147715 0.31953877 0.037299957 0.036263384 -0.12843141
00000000: 6901 083e 28ac 30be df7d 9abd 7286 463c
00000010: dbfe 333e 907b 793e 0bf4 2abe 5924 7ebe
00000020: 2e57 523e fa23 b4bc deb6 d9bd 940e a0bd
00000030: bf65 d93d bb35 e83d d058 1d3e 3cd8 17bd
00000040: 4bd6 60bd 7825 0cbc 31c0 2f3e 712f 14be
00000050: c8f7 143e 8674 91bd f8fd fabd 7487 1d3e
00000060: 0b76 85bd b93e 9abd a853 48be a011 003e
00000070: 349b 3d3e 8152 3abe a025 133e 205c 7fbd
00000080: 7a8c d33c d476 cebd cdee 3c3d c813 d0bd
00000090: 6573 1ebe deae 34be cbff 203e 3393 043d
000000a0: 3210 04be 26fc 313d beb6 353e 9098 34be
000000b0: 6b2c 233e 96c1 113e a669 243c 21d5 bdbd
000000c0: 1251 d53d e209 f13d aa7e d6bc 8e75 0fbd
000000d0: d75d 83be f215 8ebd e5c4 1b3d c96f a03d
000000e0: a24f 44be ca2e 6a3e 3a33 ac3d 16b2 893d
000000f0: 9b75 b9bd 5f54 5abd 0664 f93d 2644 bf3d
00000100: 3fff afbc db14 3dbe aeab 18be 373c a43d
00000110: c7cf 12be 637c bebc 0f1a f9bc 0de3 3abe
00000120: b255 013e b89f 0abd 9c10 38be b0a5 2abe
00000130: 08fa 14be 809e 92bd b2e5 b4bc 6f38 7b3d
00000140: 3e50 3ebd 3b53 75be cf2a e5bd 263c bfbd
00000150: 52ca 123e bc89 08bc a4d0 9abd e277 0bbe
00000160: 27fc 31be 6c95 dd3c 9ec6 7ebc 411f ecbc
00000170: 1008 113e fd38 e2bd 4f01 9e3c 2463 51be
00000180: 185e 9e3d 2cf0 62bd efd8 0ebe 32b9 d23d
00000190: 9869 f9bd 2e7a debd 0c4b c5bc 6d21 12be
000001a0: d1e2 f0bd d271 72bd 1f89 afbc c3c9 20bd
000001b0: c7eb 97bc 8dff 5abe ea63 e6bd e9f2 92be
000001c0: 5e4d 5a3e 1b38 2a3e 9cab 13be f2a1 06be
000001d0: 969a a33e d7c7 183d ea88 143d 8683 03be

output_layer.bias f4 [4]
0.053700097 -0.0022689917 0.13736184 0.11029997
00000000: a2f4 5b3d 5db3 14bb 95a8 0c3e f3e4 e13d
