K-Digital Training/김소현 강사님/Pytorch/숙제/language_model/best_model_epoch_16.pth (torch, 14536 bytes, 6 tensors)

input_layer.weight f4 [50, 26]
000000 0d f4 ce 3d 1a 47 b1 bd 32 ba 1b bd 24 85 bc 3d
       0.10105143 -0.0865614 -0.038019367 0.09205082
000010 e6 0f 3d be bb df f0 3d e7 41 25 bd ba 55 cc 3d
       -0.18463096 0.11761423 -0.040346052 0.099772885
000020 a6 57 df 3c 7c b7 c4 bc 3d cd 5e 3d e1 82 1e 3c
       0.027263474 -0.024013273 0.05439495 0.009674759
000030 40 b1 92 3d 94 85 9c bd 9c 44 6a bc ec a2 90 bc
       0.07162714 -0.076426655 -0.014298584 -0.017655812
000040 53 dd e8 3c 62 60 4d ba 7f 8d 2f 3e f8 f9 79 3d
       0.028425848 -0.00078344916 0.1714382 0.061029404
000050 4f 93 95 bd 1d 94 f2 bd ee a4 06 bd 07 3f ad bd
       -0.073034875 -0.118446566 -0.032872133 -0.08459287
000060 f2 b4 80 bd 01 da 19 3c a5 88 a5 3e 8d 25 83 3e
       -0.062845126 0.009390355 0.32330814 0.25614586
000070 14 fe dc be 2d d9 eb 3d b9 68 ad bd 2d e8 24 bc
       -0.43162596 0.11516032 -0.0846724 -0.010065121
000080 ed 76 ae 3e e9 86 93 be 88 9a ea bd 3a 38 e0 3a
       0.34075108 -0.28813866 -0.11455256 0.00171066
000090 59 1c e4 3e 23 ea 78 bd 6b 53 55 3e 9a 77 b6 3c
       0.44552878 -0.060770165 0.20832603 0.022273827
0000a0 5d a1 bb 3d fa c5 82 3c 2f cf d0 bd 60 7d 8d bd
       0.09161637 0.015963543 -0.10195767 -0.06908679
0000b0 60 03 12 be ca aa 7f 3c a9 7e d0 bc 38 08 51 be
       -0.142591 0.015604684 -0.025451021 -0.20413291
0000c0 71 0e 2b be f6 0d 92 be a4 d3 b4 bd 6c 67 af bc
       -0.16704728 -0.28526276 -0.0882943 -0.02141162
0000d0 a6 90 e1 3c 38 ab ec bd 1e 7d 98 3e ab b2 89 3e
       0.027534794 -0.11556095 0.29782957 0.26894125
0000e0 ba ab f9 3d 79 76 95 bd ac d1 4d bc 60 74 f2 bc
       0.12190957 -0.072979875 -0.012562197 -0.029596508
0000f0 d2 e9 d9 bd 56 33 96 3e 1d a7 0d bd dd 19 73 3e
       -0.10640301 0.2933604 -0.0345832 0.23740335
000100 1a 57 cc bd b3 df 6c bd 60 9d df ba 43 ca 60 3d
       -0.09977551 -0.057830524 -0.0017060451 0.05488039
000110 e4 fb 10 3d f6 37 08 bd 05 df 32 3e c8 b7 8d bb
       0.03539647 -0.033256494 0.17467888 -0.004324887
000120 a8 33 4b 3e d0 17 18 3e 18 bf d9 bd 1d a8 47 3e
       0.19843924 0.14852834 -0.10632151 0.19497724
000130 e9 28 c4 bd 5f e1 c0 3d a0 61 aa be ce de 4f 3d
       -0.095781155 0.09417986 -0.33277607 0.050749592
000140 2d b2 44 3d 88 3f de bd d8 2a 01 3e ea b2 22 3e
       0.048021484 -0.108519614 0.12614 0.15888563
000150 2a a3 5b bd 4c 9d 7b 3d bf 09 45 be de 1a 4f 3d
       -0.053622402 0.061429307 -0.19241999 0.050562732
000160 f8 2f 7a be 2d 8d 0b 3e f6 4b 69 bc 3c 0e 5a be
       -0.24432361 0.13628073 -0.014239302 -0.21294492
000170 06 76 1f 3e 1f 15 ac bc c1 87 af bd 44 4e 2f bc
       0.15572366 -0.021006165 -0.08570815 -0.010699812
000180 51 83 e7 3d 53 8a 1b 3e 8f 66 1d be 39 1b f5 3d
       0.113043435 0.15189485 -0.15371154 0.11968083
000190 b8 0f ba 3e be f7 84 3d 1f 03 15 3e de f3 9b bd
       0.36340117 0.064925656 0.14551972 -0.07614873
0001a0 89 66 ad be e1 b3 87 be 43 2d da 3e d2 9a 01 3e
       -0.3386729 -0.26504424 0.42612657 0.12656716
0001b0 a5 96 b1 3e 69 dd 95 3e d1 41 30 be b8 04 a5 3e
       0.34685245 0.29270485 -0.17212607 0.32230163
0001c0 40 87 1e 3e 77 33 e5 bd 26 21 89 be ce 41 37 3e
       0.15481281 -0.11191457 -0.26783103 0.17896196
0001d0 5a de d8 3c 5b 47 07 ba b9 12 2b bd 35 1a 67 be
       0.026473213 -0.0005160474 -0.041765902 -0.22568591
0001e0 cc e3 69 3d 69 ce 37 3e 3b eb 86 3e 41 93 2f 3c
       0.05710201 0.17949833 0.26351342 0.01071626
0001f0 6e 48 88 3d ff 95 1a 3e 69 42 30 bd 27 d3 29 3e
       0.0665444 0.15096281 -0.043032084 0.16584454
000200 d9 b0 2c bb e6 25 ba 3a 6b 82 b0 bd 60 d3 36 bd
       -0.0026350527 0.0014201968 -0.08618625 -0.044635177
000210 e1 10 6f 3e 33 05 08 3e 02 59 24 3e f3 81 b4 3d
       0.23346283 0.13283233 0.16049579 0.08813848
000220 26 c4 64 3e a0 a4 78 bd f9 c7 da bd fe 15 75 be
       0.2234045 -0.060703874 -0.10682673 -0.2393417
000230 8a 21 56 be 24 4f a5 3d 3b 67 8a bd ee eb 20 3e
       -0.20911232 0.080717355 -0.06757971 0.15715
000240 19 72 c4 3d 1a a3 bb 3c 68 e6 90 3e 52 ff ab 3d
       0.09592075 0.022904921 0.28300786 0.08398308
000250 98 84 44 3e 86 6b 0b 3e 08 7f 0e 3d 87 11 91 3e
       0.19191206 0.13615236 0.034789115 0.28333685
000260 66 38 15 be 47 b9 14 3e 69 cd 63 be 77 82 75 3d
       -0.14572296 0.14523803 -0.22246327 0.059938874
000270 95 a4 ea bd 0b cb ab bd 6c c7 0e 3e 10 40 83 bd
       -0.11457173 -0.08388337 0.13943261 -0.06408703
000280 3a 12 16 be 7f 88 9a 3d 43 98 80 3d 36 12 02 3e
       -0.1465539 0.07545566 0.062790416 0.1270226
000290 2d d7 cf bd 6a 2a 2e 3d 2c 38 92 bd b5 7a 34 bd
       -0.101484634 0.042520918 -0.0713962 -0.044062335
0002a0 1b 0a 20 be f3 0d b7 bd a8 03 76 bd 09 c2 ab 3d
       -0.15628855 -0.089382075 -0.06006208 0.08386619
0002b0 be c0 12 3d 1e 6d 46 3d 41 71 48 3e 40 ba 43 3e
       0.035828345 0.048443906 0.19574453 0.19114017
0002c0 80 f8 08 3e 21 a3 cc 3b 75 ed 0a be ef f1 1c 3e
       0.13376045 0.0062450324 -0.13567145 0.15326665
0002d0 b6 df 48 bd 83 e2 81 bc f6 66 a9 be 0a e3 f5 bd
       -0.049041472 -0.01585508 -0.33086365 -0.12006195
0002e0 f3 c9 c8 3d b3 f0 b4 3e 05 11 96 3d f8 51 d2 3d
       0.09804144 0.3533989 0.07327465 0.102695405
0002f0 e4 c4 50 be 0e f6 57 3d c9 8d 6d 3d d3 3a d0 3d
       -0.20387608 0.05272489 0.057996545 0.1016747
000300 b0 21 9a be 4a 84 4a 3d 64 fc 88 3d 11 31 72 be
       -0.30103827 0.049442567 0.06688765 -0.2365153
000310 42 1a 0d 3e 03 66 a0 3d 12 d7 d7 3e f9 0d 30 3d
       0.13779548 0.07831957 0.42156273 0.042982075
000320 f6 fb ef 3d ce ef bb bc 8a 18 57 3e 65 fc 3b 3e
       0.117179796 -0.022941496 0.21005455 0.18358
000330 c4 e6 2f 3e 29 a0 6f 3e bd 5c 30 be 89 5b 1f be
       0.17177874 0.2340094 -0.17222877 -0.15562262
000340 b7 fb 82 3e fe 41 65 3e 9b d1 21 be 63 5f 7b bd
       0.25582668 0.22388455 -0.15802614 -0.061370265
000350 65 91 c2 be 29 61 ab bd dc c0 d9 3e cb b8 e8 3c
       -0.38001552 -0.08368141 0.42529953 0.028408429
000360 4f 05 68 3e d7 0b 82 be cb b0 35 3e 68 e6 5f 3e
       0.22658275 -0.25399658 0.17743222 0.21865237
000370 ed 9f ee 3b 62 c3 b2 3e 0d 24 17 be c1 bc 9f bb
       0.007282248 0.3491469 -0.14759846 -0.004874796
000380 76 7b 57 bd 2f 24 89 be 0d 2c 20 bd b7 19 9a 3d
       -0.052607976 -0.26785418 -0.03910451 0.07524436
000390 eb 60 63 3e 0d 10 11 bd 85 69 b4 bd b9 0c a5 be
       0.2220494 -0.035415698 -0.08809189 -0.3223627
0003a0 17 38 c3 3e 6b f4 39 3e fa 25 83 be d8 74 d1 bd
       0.3812873 0.18159644 -0.2561491 -0.10227364
0003b0 13 b5 9d 3d a7 10 2b 3e 59 3a 8d 3e 7c 46 c8 3c
       0.07700553 0.16705571 0.27583578 0.024447672
0003c0 d9 73 b7 be 6e 41 fd 3c 12 43 1d 3d 62 dd 4f bd
       -0.35830572 0.030914988 0.03839404 -0.050748236
0003d0 7d f7 aa be b3 72 85 3d ea ac 8a be f7 4c 62 be
       -0.33391944 0.06516018 -0.27085048 -0.22099672
0003e0 61 f1 25 bd 4a 86 d6 3d 9a 2a c6 3e 81 d8 b9 3c
       -0.0405134 0.10474832 0.38704377 0.022686245
0003f0 68 66 91 3d 34 71 2c 3e 67 52 5c 3c fa dd 0c 3e
       0.070996106 0.16840059 0.013447381 0.13756552

input_layer.bias f4 [50]
000000 71 2c 14 bd 0a b5 8d 3c ed 47 b9 3d dc 86 bd 3d
       -0.036175195 0.01729824 0.09046922 0.09254238
000010 9b 48 47 3d 6c 32 ee 3d 24 54 ac bd 7e 3d ba 3d
       0.048653226 0.11630711 -0.08414486 0.0909376
000020 86 f5 81 3b a7 ed e8 3d 68 73 42 bc a5 00 2b be
       0.0039660363 0.113734536 -0.011868335 -0.16699465
000030 ce 79 65 3c c0 c3 34 3e 01 9f 2d 3d aa 3d af 3c
       0.014006091 0.17652798 0.042387966 0.021391708
000040 d9 2a 36 3a 60 52 37 3e b8 57 2c 3d 28 67 33 be
       0.0006949134 0.17902517 0.042075843 -0.1751982
000050 46 38 0f be 63 ee 3d 3c 10 df bf bc 97 e8 34 3e
       -0.1398631 0.01159248 -0.023421794 0.17666851
000060 e4 d5 3c bd b4 32 13 3e 09 5e 29 be 72 dd 3e be
       -0.04610242 0.1437481 -0.16539778 -0.18639162
000070 39 93 ae 3a 32 50 fe bd 54 42 6a bd 84 dc 35 3d
       0.0013319022 -0.1241764 -0.05719216 0.044399753
000080 b7 32 2e be c0 11 17 3e cd c1 f3 bd 69 ec 0b 3e
       -0.17011534 0.14752865 -0.11902199 0.13664402
000090 36 da ba 3d 11 a6 16 bd 02 c0 2f be 5f dd a9 3c
       0.09123652 -0.036779467 -0.17163089 0.02073544
0000a0 fd 61 e0 bd 0f 92 32 3e 48 f1 28 be 01 7c 60 bb
       -0.1095619 0.1743853 -0.16498291 -0.00342536
0000b0 e0 5a dd bd 26 29 01 be 85 7c d1 bd 18 47 9f bc
       -0.10808349 -0.12613353 -0.10228828 -0.01944308
0000c0 35 5e 28 3d 64 94 86 3d
       0.041105468 0.06571272

hidden_layer_list.0.weight f4 [30, 50]
000000 47 00 94 3d bc 9a 6c bd 12 b4 b3 bd 78 19 f4 bc
       0.072266154 -0.057764754 -0.0877458 -0.0297973
000010 f1 77 08 3e 3d 8a 8d bc 57 d4 f3 bd f7 42 e3 3d
       0.13327004 -0.017277831 -0.11905735 0.11096757
000020 c0 f1 0c 3d 5f 12 c9 3c 8e db c6 3c 0f 13 ca 3d
       0.03441024 0.024544893 0.024274614 0.098669164
000030 b3 e1 83 bd 74 16 d3 3d 13 41 0b 3e 31 5d 15 bd
       -0.06439533 0.10307017 0.13599043 -0.036465827
000040 8d cb b6 3d 6e cb 9f 3d 00 9e 07 3e 32 d1 06 bd
       0.08925543 0.07802473 0.13243866 -0.032914348
000050 9c 4a ac bd c6 05 57 bd c7 0c c5 bd 3b fb 9e 3b
       -0.08412668 -0.05249574 -0.09621578 0.0048517263
000060 64 9f 0b 3e a7 7d 0c 3e 24 c6 da 3d d3 45 65 3c
       0.13635021 0.13719808 0.106823236 0.013993698
000070 cb 32 49 3b 49 c5 bf 3d 6a fa ab 3d f7 ee 65 bc
       0.003070044 0.09363801 0.08397372 -0.014034024
000080 31 81 12 bd f3 0b 65 3d 15 cc a0 bb 11 7a cb bd
       -0.035767738 0.0559196 -0.004907141 -0.09935392
000090 dd 3a 88 bd 39 e3 ea 3d 69 34 f1 3d 40 b7 61 bd
       -0.06651852 0.114691205 0.117775746 -0.0551064
0000a0 0c 9e f8 bc 3e 8c 8f bd 13 1d 3d bd ff 01 04 3e
       -0.0303488 -0.07009171 -0.046170305 0.12891386
0000b0 a2 cc 00 be 24 35 8a 3d 8b 28 02 be 4f 2e 8a bd
       -0.12578061 0.06748417 -0.12710778 -0.06747114
0000c0 bc ea eb bc b7 8d 20 3c 4c 24 bc bc f7 64 84 bd
       -0.028798454 0.009799412 -0.022966526 -0.0646457
0000d0 95 2f 81 bd e7 29 b0 bd fd 29 ca bd 41 72 b4 bd
       -0.06307904 -0.08601742 -0.0987129 -0.08810855
0000e0 2c de 0a 3e 3b 77 88 bd 88 da f0 bd 6b 10 c7 3d
       0.13561314 -0.066633664 -0.117604315 0.09719928
0000f0 d9 ba 60 3d 1d 3a c7 3d 16 0c 10 be e5 d8 09 be
       0.05486569 0.09727881 -0.1406711 -0.13461645
000100 84 90 cd bd 1d 94 98 bd a1 47 a3 b9 86 90 7a 3d
       -0.1003733 -0.07450125 -0.0003114315 0.061172985
000110 60 91 a9 3d ee 1c f9 bd 34 04 67 3d fc 7e a7 bd
       0.08279681 -0.12163721 0.056400493 -0.08178517
000120 31 26 05 3d 87 de 35 3d 88 66 b9 3c 20 f2 4c 3d
       0.032507125 0.04440167 0.022631899 0.050035596
000130 9c 63 e7 bb f9 35 bf 3d cb 9f f1 3c 3e be fd 3d
       -0.007061435 0.09336466 0.02949514 0.123898014
000140 ba 21 fb 3c d6 52 99 bd 26 00 ba 3d 12 0e fb 3b
       0.03065573 -0.07486503 0.090820596 0.0076615894
000150 98 f4 0b 3e 38 1f 80 bc 55 48 0f 3e 53 13 a9 bd
       0.13667524 -0.015639886 0.13992436 -0.08255639
000160 36 90 91 3d eb 10 d8 bd 64 d7 c6 3d 5b 4c d2 3c
       0.07107584 -0.10550102 0.09709051 0.025671175
000170 4e 6f a4 3d 81 6c f9 bd 36 0e 10 be 1d 8e 8b 3d
       0.08029042 -0.121788986 -0.14067921 0.06814215
000180 dc 50 6e bd 9b 69 65 3d b3 d5 ab bd 05 12 33 bd
       -0.058182582 0.056008916 -0.08390369 -0.043718357
000190 0d 16 26 3a d8 6a ae 3d 3e 8f a3 3d 36 f9 4e bc
       0.0006335683 0.085164726 0.07986306 -0.012632659
0001a0 40 d8 23 bd f6 bb 20 bb c6 46 95 3d 87 7b f5 bd
       -0.040001154 -0.0024526096 0.072888896 -0.119864516
0001b0 53 00 31 bd 02 9a 0b be 67 3a a7 3c aa 08 89 bc
       -0.0432132 -0.13632968 0.02041359 -0.016727764
0001c0 10 13 a4 3d ab 60 e7 3d e4 a4 f7 bd 02 2e 80 bd
       0.080114484 0.11297735 -0.12091997 -0.06258775
0001d0 69 3e ba bc 97 d7 b8 ba 1b 3a 04 bd b0 1a b6 bd
       -0.022734838 -0.0014102337 -0.032281976 -0.08891809
0001e0 80 d3 5f bd 14 af 6e bb 23 ea e8 3d 70 a0 13 bd
       -0.05464506 -0.0036420273 0.11372783 -0.036041677
0001f0 22 45 bf 3d 8a 1f ea bd d2 3b cf 3b 11 05 e2 bd
       0.09339358 -0.11431797 0.00632427 -0.110361226
000200 d7 e3 07 be d7 9f 65 3c 7d 9e 84 bd fc 3a d5 3d
       -0.13270508 0.01401516 -0.06475542 0.10411641
000210 9f c4 e4 3d 66 23 10 be f6 79 21 bc ab eb c5 bc
       0.11170315 -0.14076003 -0.009855738 -0.024160227
000220 26 15 a5 bd 27 34 ca bd 81 21 75 bd 49 bf 7f 3d
       -0.08060674 -0.098732285 -0.059846405 0.062438283
000230 65 ba 09 3d f9 50 ae 3d 57 30 0a bc 7d 6d 96 3d
       0.033625025 0.08511538 -0.008434377 0.07345102
000240 72 08 e0 3c 18 a0 fc bc cd 74 07 bc 6f b5 03 be
       0.027347777 -0.030838057 -0.008267594 -0.1286218
000250 85 d8 54 bb ee 4b 3e bd 62 da 41 bd c2 a8 68 bd
       -0.0032477689 -0.04645913 -0.047327407 -0.056801565
000260 01 4b fd bc fa d3 d5 bd 0a f8 07 3c ce 54 bc bb
       -0.030919554 -0.10440822 0.008298883 -0.005747414
000270 44 90 18 bd a3 6b fb 3d 4a 60 c2 3d 4b 98 23 3d
       -0.037246957 0.122763894 0.09491022 0.03994016
000280 e9 5a 55 bd eb c3 93 3c 06 48 c7 bd 93 cf c9 3d
       -0.05208865 0.018037757 -0.09730534 0.09854045
000290 0c 43 07 3e f0 f8 ac bc 80 5d df 3d bc e8 07 3e
       0.1320917 -0.021114796 0.109065056 0.13272375
0002a0 96 38 0b bc 56 18 57 bd 26 e0 e9 3b 55 74 bf 3c
       -0.008497378 -0.052513443 0.0071373163 0.023370901
0002b0 3a 0d 06 be b0 8a 10 bc 34 71 51 bd fd 44 c1 3d
       -0.13090983 -0.008822128 -0.05113335 0.094369866
0002c0 68 06 85 bb f4 8e be 3d b7 cf 00 3e b6 89 35 bd
       -0.0040596016 0.0930461 0.12579237 -0.044320785
0002d0 78 60 f9 3c b6 34 46 bc 40 71 7c bd cb aa a0 bd
       0.030441508 -0.012097528 -0.06163144 -0.07845076
0002e0 2b 77 56 3b b1 fe 2f 3d 18 c3 cb bc 3a be c4 3c
       0.0032724838 0.042967502 -0.024873301 0.024016488
0002f0 21 ff b4 3d ce 7b 71 3d 13 df 6e 3d 2e cb 22 3d
       0.088377245 0.05895596 0.05831821 0.03974455
000300 1b a5 de bd 6a 3a af bd b7 c8 d6 bd cc 53 be 3d
       -0.10871335 -0.085560635 -0.10487502 0.09293327
000310 0b 19 ff bd 7c 3b d8 bd 69 bd be 3d f0 33 ab 3d
       -0.124559484 -0.10558221 0.09313471 0.08359516
000320 92 e5 08 be 8b 5a a7 3d b9 2c 04 bd 6d 99 f9 3c
       -0.13368824 0.081715666 -0.032269213 0.030468667
000330 54 6f b5 bd 23 dd af bc a3 be 00 3d 20 d7 dc 3d
       -0.08859125 -0.02146775 0.031431805 0.10783219
000340 b7 a1 af 3d cc 7e 9d bd d3 fa bd bd 3f 00 0d bc
       0.085757665 -0.076902 -0.092763565 -0.008606016
000350 ea cb 35 3d e3 cd 9e 3d 1e 4f 10 be 2c 58 3d bc
       0.04438392 0.077541135 -0.14092681 -0.011556666
000360 f1 df a3 3b 54 43 87 bd 55 71 e4 3d c1 c3 19 bd
       0.005001061 -0.06604639 0.11154429 -0.0375402
000370 13 11 0a be 9f ee ac bd 41 95 94 3b cf 88 d7 bd
       -0.13483076 -0.08443951 0.004534394 -0.10524141
000380 5a 4f 04 3d 7c e0 0c 3e 61 b4 bd 3b 1c b4 0e bd
       0.032302238 0.13757509 0.005789325 -0.034839734
000390 7e 6e 08 3e 16 d1 d5 3d 12 77 c0 3d 9f c2 2f 3c
       0.133234 0.104402706 0.09397711 0.010727554
0003a0 87 da d3 3b db 9d e0 bd 6b dc 6b 3c f9 da 0c 3e
       0.0064652595 -0.109676085 0.014395813 0.13755406
0003b0 b8 fa f4 3b 2f 3b 01 be e3 f7 9e 3d 52 f7 01 3e
       0.007476177 -0.12620233 0.077621244 0.12692001
0003c0 66 cf f2 3d f0 90 da 3b df a4 d9 3c 0b 7c bb 3c
       0.11855964 0.00667011 0.026567874 0.022886297
0003d0 67 69 6d bd 95 0a a9 bc 67 48 ec 3d 65 64 6c 3c
       -0.057961848 -0.020634929 0.11537247 0.014428233
0003e0 8b 7c 08 3e 99 55 c0 bd 9f 50 a9 bc 21 81 7d be
       0.1332876 -0.093913265 -0.020668326 -0.2475629
0003f0 9d 87 75 bd 40 df 8b 3e c5 af 40 3e bf c5 81 bc
       -0.059943784 0.27318764 0.18817051 -0.015841363

hidden_layer_list.0.bias f4 [30]
000000 9c c5 cf bd 1c 62 3b bd e8 07 e8 bd 02 76 0a be
       -0.10145113 -0.04574786 -0.11329633 -0.13521579
000010 c5 f4 9c bd e3 89 03 3d f6 86 f3 3d 98 41 cb 3d
       -0.076638736 0.03211392 0.11890976 0.099246204
000020 a1 cc 84 3d 20 7b 06 3e 49 9f c3 bb 9d 97 0b 3e
       0.06484342 0.13132906 -0.005969916 0.13632055
000030 d7 ae fc bd 31 9f 87 bd a9 cb e8 bd d9 96 c7 bd
       -0.123380356 -0.0662216 -0.1136697 -0.09745569
000040 87 81 d7 bd c0 32 09 be 92 e1 06 3e 85 09 2c 3d
       -0.10522752 -0.13398266 0.13171986 0.042001266
000050 de 29 e2 3d aa 57 f9 b9 e1 19 b6 3d e6 49 9b bd
       0.11043142 -0.00047558296 0.08891655 -0.075824544
000060 a2 68 0f be f1 1d 53 3c c2 c1 1e 3e e5 2a 56 bc
       -0.14004758 0.012885557 0.155036 -0.01307175
000070 8d 5f 50 3d 0f 00 8b 3d
       0.050872374 0.067871206

output_layer.weight f4 [4, 30]
000000 69 01 08 3e 28 ac 30 be df 7d 9a bd 72 86 46 3c
       0.13281788 -0.17253172 -0.07543539 0.012117015
000010 db fe 33 3e 60 8d 9a 3e 6a 02 82 be e0 52 c8 be
       0.17577688 0.30185986 -0.25392467 -0.3912573
000020 cb 6a 79 3e 98 3a 85 bd de b6 d9 bd b3 4d 62 bd
       0.24357145 -0.065053165 -0.10630582 -0.05524988
000030 bf 65 d9 3d bb 35 e8 3d d0 58 1d 3e 3c d8 17 bd
       0.1061511 0.11338373 0.1536591 -0.03707145
000040 4b d6 60 bd 78 25 0c bc 4e 7b 4a 3e ee a9 f6 bd
       -0.054891866 -0.008553855 0.197736 -0.1204413
000050 d7 e0 56 3e 74 3b 4b bc 65 af 7d be 74 87 1d 3e
       0.20984207 -0.012404311 -0.24773939 0.15383703
000060 0b 76 85 bd b9 3e 9a bd e0 7e a4 be e9 99 35 3e
       -0.065166555 -0.07531495 -0.32128048 0.17734493
000070 70 6c 7c 3e c6 91 39 be a0 25 13 3e 20 5c 7f bd
       0.2465074 -0.18122014 0.14369822 -0.062343717
000080 7a 8c d3 3c d4 76 ce bd cd ee 3c 3d c9 24 18 bd
       0.02582382 -0.100812584 0.046126176 -0.037144456
000090 0b f6 71 be f9 2d a0 be 74 52 4f 3e 52 47 59 bc
       -0.23629014 -0.31285074 0.20246297 -0.013261633
0000a0 32 10 04 be 8d d5 92 3d be b6 35 3e 90 98 34 be
       -0.12896803 0.07169638 0.17745492 -0.17636323
0000b0 6b 2c 23 3e 96 c1 11 3e a6 69 24 3c 21 d5 bd bd
       0.15934913 0.14234003 0.010034954 -0.09269167
0000c0 34 3d 0c 3e ed 3e 1f 3e 7c 74 2a 3d 7d ae 0b 3d
       0.13695222 0.15551348 0.041614994 0.034101952
0000d0 07 f9 c6 be f2 15 8e bd e5 c4 1b 3d c9 6f a0 3d
       -0.38861868 -0.069377795 0.03802957 0.07833821
0000e0 33 8f a3 be f2 a7 95 3e 12 03 12 3e 71 1e b1 3d
       -0.3194519 0.29229695 0.14258984 0.08648384
0000f0 9b 75 b9 bd 5f 54 5a bd 06 64 f9 3d 26 44 bf 3d
       -0.090556346 -0.05330312 0.12177281 0.0933917
000100 3f ff af bc 59 f8 82 be 31 97 d2 bd 9d 0a 1f 3e
       -0.021484016 -0.255801 -0.10282744 0.15531392
000110 3c dd 36 be 40 83 ef 3a 0f 1a f9 bc f4 64 4a be
       -0.17857832 0.0018273368 -0.030407934 -0.19765073
000120 b2 55 01 3e b8 9f 0a bd 9c 10 38 be b0 a5 2a be
       0.12630346 -0.033843726 -0.17975086 -0.16664767
000130 08 fa 14 be 80 9e 92 bd 7e 6b 27 bd 3a 72 3b 3d
       -0.14548504 -0.07159138 -0.040873997 0.04576323
000140 e8 d9 f3 bd 2a 3a 9b be e3 81 5f bd 26 3c bf bd
       -0.11906797 -0.30317813 -0.05456723 -0.09337644
000150 52 ca 12 3e bc 89 08 bc 0e bc 52 bc 69 99 55 be
       0.14334992 -0.00833362 -0.012862219 -0.20859303
000160 ab af 7f be 9f 6f f0 3c 9e c6 7e bc 41 1f ec bc
       -0.24969356 0.0293501 -0.015550284 -0.028823497
000170 10 08 11 3e fd 38 e2 bd 4f 01 9e 3c 10 bd a7 be
       0.14163232 -0.11046026 0.019287733 -0.3276143
000180 e7 77 1c 3e 81 2b 33 3d d1 0d 65 be 7d 78 1c 3e
       0.15280114 0.04374266 -0.22368552 0.15280338
000190 98 69 f9 bd 46 de 20 be 0c 4b c5 bc 6d 21 12 be
       -0.121783435 -0.1570979 -0.024083637 -0.14270563
0001a0 d1 e2 f0 bd d2 71 72 bd 1f 89 af bc c3 c9 20 bd
       -0.11762012 -0.05919058 -0.02142769 -0.039254915
0001b0 53 f9 98 bd d0 e0 8f be a2 5a 7b be ba 0f dc be
       -0.0746943 -0.28101206 -0.24546292 -0.42980748
0001c0 bb 21 9d 3e 1b 38 2a 3e 9c ab 13 be f2 a1 06 be
       0.30689797 0.16622965 -0.14420933 -0.13147715
0001d0 eb b1 d1 3e 13 4d 9a bd fc 2a 8d bd df e7 1e be
       0.40956053 -0.07534232 -0.06892964 -0.1551814

output_layer.bias f4 [4]
000000 09 ef 42 3d 89 fb 54 bb 23 20 13 3e a2 83 e3 3d
       0.047591243 -0.003249856 0.14367728 0.11109091
