K-Digital Training/김소현 강사님/Pytorch/숙제/language_model/best_model_epoch_88.pth (torch, 14536 bytes, 6 tensors)

input_layer.weight f4 [50, 26]
00000000: 0df4 ce3d 1a47 b1bd 32ba 1bbd 2485 bc3d
00000010: e60f 3dbe bbdf f03d e741 25bd ba55 cc3d
00000020: a657 df3c 7cb7 c4bc 3dcd 5e3d e182 1e3c
00000030: 40b1 923d 9485 9cbd 9c44 6abc eca2 90bc
00000040: 53dd e83c 6260 4dba 7f8d 2f3e f8f9 793d
00000050: 4f93 95bd 1d94 f2bd eea4 06bd 073f adbd
00000060: f2b4 80bd 01da 193c 7400 193f 8496 f23e
00000070: cf5b 21bf 00f4 02be d50e e4be 9eed a3bd
00000080: 51b7 663f 86fd 07be 3d85 21bd f4ef ddbe
00000090: f0a5 203f a488 0fbe b993 9b3e 07ab 713e
000000a0: 3d61 8c3e 9e91 0d3d 2c2c 75bf 5117 51be
000000b0: e508 1ebe 8942 693c 2c2a abbe 1846 eebe
000000c0: c55b 613e 9535 73bf eb8f 0c3f d479 053f
000000d0: 0d58 8a3e c779 8a3e 8fda 983d 6f98 733f
000000e0: 3b9b 193f b020 d8bd 1a02 8abe 1f55 bdbd
000000f0: 82c9 3d3e 102b 943f c912 343f 8878 bc3e
00000100: ac6c 833e 05ef 983c d0e2 a4be f129 cb3e
00000110: 0da1 d63e 45ba d63e 53da 9b3e 3b2d 333e
00000120: 8199 623f 177e d13d 8f2e 23bf d04b cd3e
00000130: 5613 3dbf 0ef7 0bbf fac9 17bf d02d 1bbe
00000140: 39ba e93e 519c 05bd 26ed d93e c2fd f13e
00000150: 20a8 d9be edba 483e 11d5 74be fe2b 36bb
00000160: de8a 3cbf cfb5 9b3e 26bb 24be 6396 a4be
00000170: e117 933e 4065 7dbd 6391 273f 3b84 a63d
00000180: 967c 5d3e 8300 843e 5e7d cfbd 2359 f73e
00000190: 1193 d33e 8d35 453f 051a b6bd 7756 ecbe
000001a0: 657b f9be 1f8d a1be d724 0e3f 8e06 0a3f
000001b0: b9c0 4d3f 9b13 bf3e f076 2abf c4b9 653e
000001c0: 8dd3 3d3e 5460 043f 59a2 3cbe 0319 983e
000001d0: a15f 7e3d 1d76 10be b23a 83be 56c2 f6bd
000001e0: b47c 673f 09d2 d83e 75c4 a63e 21c5 a93d
000001f0: b413 083f 3c00 c23e ff59 d2be 45d3 4b3f
00000200: 2b45 24bf 4061 20bf 63f0 923e a87d 0d3f
00000210: e71a 4c3e 24cb 483f 747c 203f ecf9 293f
00000220: b693 653e f44c 3b3f e550 8c3e cd9c c53e
00000230: fa9f e93e 3cd1 573e a37a 9f3e f15f b23e
00000240: dfb6 023e 34d3 b73e f967 15be 2009 153f
00000250: 1b9d b63e b5b0 233f 4d84 063f d2c9 6e3e
00000260: 0e48 f23e 5878 89bd 2c6b 9abe 0e63 39bf
00000270: 95a4 eabd 0bcb abbd 6cc7 0e3e 1040 83bd
00000280: 3a12 16be 7f88 9a3d 4398 803d 3612 023e
00000290: 2dd7 cfbd 6a2a 2e3d 2c38 92bd b57a 34bd
000002a0: 1b0a 20be f30d b7bd a803 76bd 09c2 ab3d
000002b0: bec0 123d 1e6d 463d 4171 483e 40ba 433e
000002c0: 80f8 083e 21a3 cc3b 75ed 0abe eff1 1c3e
000002d0: b6df 48bd 83e2 81bc a375 efbe 7310 3dbe
000002e0: d473 473e f2a2 4c3f b43f 093f ee17 c63d
000002f0: 2ee7 34bf e326 32be 8e5e c73d 0c8c 4f3f
00000300: a554 3abe 9a50 363e efb6 023e 0489 bdbe
00000310: 7b29 06be 5b57 583e 492b ab3f b45f 993e
00000320: 1b89 3e3e 2824 593c a6cc 3c3f 80cc d13e
00000330: de6c b5be 04c9 603f 981b 63bf 080b 42bf
00000340: ec0b 003f f0cf d33e cc72 87be 9550 cbbe
00000350: 9cc7 45bf dfef 7dbd cf42 7b3f 219b 963e
00000360: f47a 903e 4559 5bbf b4c5 633e a018 253e
00000370: 3eea 823d b2f5 113f c871 113e 349e 57bc
00000380: 4c7c 71bf a64d e2be b74d 18bd aff2 dd3d
00000390: aa11 39be 68f2 80be b5a9 eb3e 1b48 75bf
000003a0: 9a1e 8d3f a8d8 403f d1e1 d5be e189 4bbe
000003b0: 5055 583e 4a05 203f 36f7 463f 0d9b 093d
000003c0: ea0c 6cbf 3d32 5abe d9eb 943d 267c 263f
000003d0: 5663 72be 3733 5e3e b9d3 5abe 5a8c bbbe
000003e0: 21e7 9dbe e358 763e 382b b23f cfff 943e
000003f0: 7f38 1c3e 3e35 583e 5f4d 123f 05e8 ce3e
0.10105143 -0.0865614 -0.038019367 0.09205082 -0.18463096 0.11761423 -0.040346052 0.099772885
0.027263474 -0.024013273 0.05439495 0.009674759 0.07162714 -0.076426655 -0.014298584 -0.017655812
0.028425848 -0.00078344916 0.1714382 0.061029404 -0.073034875 -0.118446566 -0.032872133 -0.08459287
-0.062845126 0.009390355 0.59766316 0.4738046 -0.63030714 -0.12788391 -0.44542566 -0.08004306
0.9012347 -0.13280305 -0.039433707 -0.43347132 0.627532 -0.14016968 0.3038614 0.23600398
0.27417937 0.0345627 -0.95770526 -0.20419051 -0.1543308 0.014237055 -0.33430612 -0.46537852
0.22007664 -0.95003635 0.549071 0.5213902 0.27020302 0.27046034 0.07463562 0.9515447
0.6000249 -0.1055311 -0.26954728 -0.09244751 0.185339 1.1575642 0.70341164 0.36810708
0.25668848 0.01866866 -0.32204294 0.39680436 0.41919747 0.41938987 0.30440006 0.17497723
0.8851548 0.10229128 -0.6374292 0.40096903 -0.7385763 -0.5467385 -0.59292567 -0.15154195
0.4564989 -0.032619778 0.42563742 0.47263914 -0.42511082 0.19602557 -0.23909403 -0.0027797217
-0.73649395 0.30412146 -0.16087016 -0.32145986 0.28729156 -0.061864138 0.6545622 0.0813069
0.21629557 0.2578164 -0.10131334 0.48310193 0.4132314 0.77034837 -0.088916816 -0.46159717
-0.48726955 -0.3155298 0.55524963 0.5391625 0.80372196 0.37319645 -0.66587734 0.22434145
0.18537731 0.51709485 -0.18421306 0.29706582 0.062102918 -0.14107557 -0.25630718 -0.120487854
0.90424657 0.42347744 0.3257176 0.082895525 0.53155065 0.37890804 -0.41084287 0.79619247
-0.6416804 -0.6264839 0.28699026 0.5526986 0.19932137 0.7843497 0.626899 0.66396976
0.22419629 0.73164296 0.27405468 0.38596192 0.45629865 0.2107591 0.31148252 0.34838822
0.12765072 0.35903323 -0.14590444 0.5821705 0.35666737 0.6394151 0.52545625 0.23319176
0.47320598 -0.06712407 -0.3015989 -0.7241677 -0.11457173 -0.08388337 0.13943261 -0.06408703
-0.1465539 0.07545566 0.062790416 0.1270226 -0.101484634 0.042520918 -0.0713962 -0.044062335
-0.15628855 -0.089382075 -0.06006208 0.08386619 0.035828345 0.048443906 0.19574453 0.19114017
0.13376045 0.0062450324 -0.13567145 0.15326665 -0.049041472 -0.01585508 -0.46769437 -0.18463306
0.19477779 0.79936135 0.5361283 0.09672533 -0.7066525 -0.17397647 0.09734832 0.8107307
-0.18196352 0.17804185 0.12765096 -0.37018597 -0.13101761 0.21127073 1.3372585 0.29955828
0.18606989 0.013253249 0.7374977 0.40976334 -0.35434622 0.87806726 -0.8871398 -0.7579808
0.5001819 0.4136958 -0.2645477 -0.39709917 -0.77257705 -0.061996337 0.98148817 0.2941523
0.28218806 -0.8568309 0.22243387 0.16122675 0.063923344 0.57015526 0.1420356 -0.013160277
-0.94330287 -0.44199866 -0.03718349 0.10837304 -0.18073145 -0.2518494 0.46027914 -0.9581315
1.1024964 0.7533059 -0.41773847 -0.19876815 0.21126294 0.6250807 0.77720964 0.033595134
-0.92207205 -0.21308227 0.07271547 0.65033185 -0.23670706 0.21699224 -0.21369828 -0.36630517
-0.308404 0.24057345 1.3919439 0.29101416 0.15255927 0.2111406 0.5714931 0.40411392

input_layer.bias f4 [50]
00000000: 712c 14bd bcbd 863d 29d7 a93e 048f db3d
00000010: 6847 c23d ffd6 013f 2454 acbd a373 093e
00000020: c7a8 683d 559a 223e 3db9 253d a500 2bbe
00000030: ce79 653c 9ebb b03e a11c 003e 899c f23d
00000040: d92a 363a 1e5b f23e 2e76 d03d 2867 33be
00000050: 4638 0fbe 63ee 3d3c 10df bfbc 817f 583e
00000060: e4d5 3cbd 2d22 3c3e 095e 29be 72dd 3ebe
00000070: 33a6 2c3d 3250 febd 5442 6abd c279 c33d
00000080: b732 2ebe f78f 943e cdc1 f3bd 66ba b13e
00000090: 0272 683e 11a6 16bd 02c0 2fbe 5fdd a93c
000000a0: fd61 e0bd b275 653e 48f1 28be 64ba 0d3d
000000b0: e05a ddbd 2629 01be 857c d1bd 1847 9fbc
000000c0: dbe6 9e3d cd98 333e
-0.036175195 0.06579158 0.33171967 0.107206374 0.09486276 0.50718683 -0.08414486 0.13423018
0.056801584 0.15879185 0.04045986 -0.16699465 0.014006091 0.3451814 0.12510921 0.11846263
0.0006949134 0.47335142 0.10178791 -0.1751982 -0.1398631 0.01159248 -0.023421794 0.21142389
-0.04610242 0.18372412 -0.16539778 -0.18639162 0.042150687 -0.1241764 -0.05719216 0.09544708
-0.17011534 0.29016086 -0.11902199 0.34712523 0.2269974 -0.036779467 -0.17163089 0.02073544
-0.1095619 0.22408178 -0.16498291 0.034601584 -0.10808349 -0.12613353 -0.10228828 -0.01944308
0.07758876 0.17538758

hidden_layer_list.0.weight f4 [30, 50]
00000000: 4700 943d 65d7 9ebe 6d8f f53d e40f 0e3f
00000010: 67a6 253f da6a 083e 57d4 f3bd f34e 2a3f
00000020: 90a6 aebe d676 173f 5460 8dbe 0f13 ca3d
00000030: b3e1 83bd 417c db3d 8d98 72bd 244a 05be
00000040: 8dcb b63d 9f5e 8d3e 62f1 f83e 32d1 06bd
00000050: 9c4a acbd c605 57bd c70c c5bd c99a b73e
00000060: 649f 0b3e ea99 363f 24c6 da3d d345 653c
00000070: a261 123f 49c5 bf3d 6afa ab3d 071e b0be
00000080: 3181 12bd 9148 763e 15cc a0bb a33f 68bd
00000090: 9ea3 a1bd 39e3 ea3d 6934 f13d 40b7 61bd
000000a0: 0c9e f8bc 42a8 893e 131d 3dbd dcf0 283f
000000b0: a2cc 00be 2435 8a3d 8b28 02be 4f2e 8abd
000000c0: 0de9 033f 66ae 96bd 4c24 bcbc f764 84bd
000000d0: 952f 81bd e729 b0bd fd29 cabd 4172 b4bd
000000e0: 2cde 0a3e 3b77 88bd 88da f0bd 6b10 c73d
000000f0: d9ba 603d 1d3a c73d 160c 10be e5d8 09be
00000100: 8490 cdbd 1d94 98bd a147 a3b9 8690 7a3d
00000110: 6091 a93d ee1c f9bd 3404 673d fc7e a7bd
00000120: 3126 053d 87de 353d 8866 b93c 20f2 4c3d
00000130: 9c63 e7bb f935 bf3d cb9f f13c 3ebe fd3d
00000140: ba21 fb3c d652 99bd 2600 ba3d 120e fb3b
00000150: 98f4 0b3e 381f 80bc 5548 0f3e 5313 a9bd
00000160: 3690 913d eb10 d8bd 64d7 c63d 5b4c d23c
00000170: 4e6f a43d 816c f9bd 360e 10be 1d8e 8b3d
00000180: dc50 6ebd 9b69 653d b3d5 abbd 0512 33bd
00000190: 0d16 263a d86a ae3d 3e8f a33d 36f9 4ebc
000001a0: 40d8 23bd f6bb 20bb c646 953d 877b f5bd
000001b0: 5300 31bd 029a 0bbe 673a a73c aa08 89bc
000001c0: 1013 a43d ab60 e73d e4a4 f7bd 022e 80bd
000001d0: 693e babc 97d7 b8ba 1b3a 04bd b01a b6bd
000001e0: 80d3 5fbd 14af 6ebb 23ea e83d 70a0 13bd
000001f0: 2245 bf3d 8a1f eabd d23b cf3b 1105 e2bd
00000200: d7e3 07be d79f 653c 7d9e 84bd fc3a d53d
00000210: 9fc4 e43d 6623 10be f679 21bc abeb c5bc
00000220: 2615 a5bd 2734 cabd 8121 75bd 49bf 7f3d
00000230: 65ba 093d f950 ae3d 5730 0abc 7d6d 963d
00000240: 7208 e03c 18a0 fcbc cd74 07bc 6fb5 03be
00000250: 85d8 54bb ee4b 3ebd 62da 41bd e9e3 98bd
00000260: f4cf 47bd 9e68 fabd 63b0 1cbc 7d6a c1bc
00000270: 4490 18bd a4d6 d63d 82cf 9d3d 89dc b43c
00000280: fd3f 8fbd ebc3 933c 0648 c7bd 583a a53d
00000290: 0cf2 e93d 77a4 1fbd 805d df3d 203c eb3d
000002a0: c7ee d7bc 5618 57bd 26e0 e93b 5574 bf3c
000002b0: 3a0d 06be 639a dabc 3471 51bd 35b0 9c3d
000002c0: 6806 85bb f48e be3d 700a dd3d b689 35bd
000002d0: 7860 f93c dd62 f5bc 4071 7cbd dd3f c5bd
000002e0: 2b77 563b c2a8 cd3c 900b 2fbd 3abe c43c
000002f0: 21ff b43d ce7b 713d 13df 6e3d 6041 b33c
00000300: 1ba5 debd 6ecf d3bd b7c8 d6bd cc53 be3d
00000310: 0b19 ffbd 7c3b d8bd 6028 9a3d 289f 863d
00000320: 92e5 08be 8b5a a73d b92c 04bd 6d99 f93c
00000330: 546f b5bd 23dd afbc a3be 003d 20d7 dc3d
00000340: b7a1 af3d cc7e 9dbd d3fa bdbd 3f00 0dbc
00000350: eacb 353d e3cd 9e3d 1e4f 10be 2c58 3dbc
00000360: f1df a33b 5443 87bd 5571 e43d c1c3 19bd
00000370: 1311 0abe 9fee acbd 4195 943b cf88 d7bd
00000380: 5a4f 043d 7ce0 0c3e 61b4 bd3b 1cb4 0ebd
00000390: 7e6e 083e 16d1 d53d 1277 c03d 9fc2 2f3c
000003a0: 87da d33b db9d e0bd 6bdc 6b3c f9da 0c3e
000003b0: b8fa f43b 2f3b 01be e3f7 9e3d 52f7 013e
000003c0: 66cf f23d f090 da3b dfa4 d93c 0b7c bb3c
000003d0: 6769 6dbd 950a a9bc 6748 ec3d 6564 6c3c
000003e0: 8b7c 083e 9955 c0bd 9f50 a9bc 9a45 f1be
000003f0: 886f b63c 471c 1c3f 88f1 bf3e 1c05 cb3d
0.072266154 -0.31023708 0.11990247 0.55493 0.64707035 0.1332201 -0.11905735 0.66526717
-0.34111452 0.59165704 -0.27612555 0.098669164 -0.06439533 0.10717059 -0.059227515 -0.13016564
0.08925543 0.27611253 0.4862166 -0.032914348 -0.08412668 -0.05249574 -0.09621578 0.3586028
0.13635021 0.71328604 0.106823236 0.013993698 0.57180226 0.09363801 0.08397372 -0.3439791
-0.035767738 0.2405112 -0.004907141 -0.056701314 -0.078925356 0.114691205 0.117775746 -0.0551064
-0.0303488 0.26886183 -0.046170305 0.6599252 -0.12578061 0.06748417 -0.12710778 -0.06747114
0.5152748 -0.073574826 -0.022966526 -0.0646457 -0.06307904 -0.08601742 -0.0987129 -0.08810855
0.13561314 -0.066633664 -0.117604315 0.09719928 0.05486569 0.09727881 -0.1406711 -0.13461645
-0.1003733 -0.07450125 -0.0003114315 0.061172985 0.08279681 -0.12163721 0.056400493 -0.08178517
0.032507125 0.04440167 0.022631899 0.050035596 -0.007061435 0.09336466 0.02949514 0.123898014
0.03065573 -0.07486503 0.090820596 0.0076615894 0.13667524 -0.015639886 0.13992436 -0.08255639
0.07107584 -0.10550102 0.09709051 0.025671175 0.08029042 -0.121788986 -0.14067921 0.06814215
-0.058182582 0.056008916 -0.08390369 -0.043718357 0.0006335683 0.085164726 0.07986306 -0.012632659
-0.040001154 -0.0024526096 0.072888896 -0.119864516 -0.0432132 -0.13632968 0.02041359 -0.016727764
0.080114484 0.11297735 -0.12091997 -0.06258775 -0.022734838 -0.0014102337 -0.032281976 -0.08891809
-0.05464506 -0.0036420273 0.11372783 -0.036041677 0.09339358 -0.11431797 0.00632427 -0.110361226
-0.13270508 0.01401516 -0.06475542 0.10411641 0.11170315 -0.14076003 -0.009855738 -0.024160227
-0.08060674 -0.098732285 -0.059846405 0.062438283 0.033625025 0.08511538 -0.008434377 0.07345102
0.027347777 -0.030838057 -0.008267594 -0.1286218 -0.0032477689 -0.04645913 -0.047327407 -0.074653454
-0.048782304 -0.122269854 -0.009563538 -0.023610348 -0.037246957 0.10490158 0.077055946 0.022077816
-0.06994627 0.018037757 -0.09730534 0.08067769 0.1142312 -0.038975205 0.109065056 0.11486077
-0.026358975 -0.052513443 0.0071373163 0.023370901 -0.13090983 -0.026684945 -0.05113335 0.07650796
-0.0040596016 0.0930461 0.107930064 -0.044320785 0.030441508 -0.029954368 -0.06163144 -0.096313216
0.0032724838 0.025104884 -0.042735636 0.024016488 0.088377245 0.05895596 0.05831821 0.02188176
-0.10871335 -0.103422984 -0.10487502 0.09293327 -0.124559484 -0.10558221 0.07527232 0.065733254
-0.13368824 0.081715666 -0.032269213 0.030468667 -0.08859125 -0.02146775 0.031431805 0.10783219
0.085757665 -0.076902 -0.092763565 -0.008606016 0.04438392 0.077541135 -0.14092681 -0.011556666
0.005001061 -0.06604639 0.11154429 -0.0375402 -0.13483076 -0.08443951 0.004534394 -0.10524141
0.032302238 0.13757509 0.005789325 -0.034839734 0.133234 0.104402706 0.09397711 0.010727554
0.0064652595 -0.109676085 0.014395813 0.13755406 0.007476177 -0.12620233 0.077621244 0.12692001
0.11855964 0.00667011 0.026567874 0.022886297 -0.057961848 -0.020634929 0.11537247 0.014428233
0.1332876 -0.093913265 -0.020668326 -0.47123414 0.02226998 0.6098065 0.3748896 0.09913084

hidden_layer_list.0.bias f4 [30]
00000000: 8a22 043b 1c62 3bbd e807 e8bd bcc0 1cbe
00000010: c5f4 9cbd d3f7 c63d 8edb 823e 16dd 693e
00000020: 0f49 093e 1bc0 913e 499f c3bb 5b5f 1c3e
00000030: d7ae fcbd 319f 87bd 356b 08be d996 c7bd
00000040: ae55 babd 1f80 dfbc 279b 5d3e 95d2 c43d
00000050: d0ee 653e 92bd bf3d 8908 4d3e e649 9bbd
00000060: a268 0fbe f11d 533c ebef 8e3e be12 05bc
00000070: d564 943d c385 f93d
0.0020162188 -0.04574786 -0.11329633 -0.15307897 -0.076638736 0.097152375 0.25558132 0.22838244
0.13406776 0.28466877 -0.005969916 0.1527075 -0.123380356 -0.0662216 -0.13322146 -0.09745569
-0.09098373 -0.027282773 0.21641217 0.09610478 0.22454381 0.093623295 0.20022787 -0.075824544
-0.14004758 0.012885557 0.27917418 -0.008122144 0.07245795 0.12183716

output_layer.weight f4 [4, 30]
00000000: 8b46 3c3e 28ac 30be df7d 9abd d622 b8bb
00000010: dbfe 333e fb2b b73e 76dd 9dbe cca5 29bf
00000020: bae3 843e c93b 3fbd deb6 d9bd 9eba a3bd
00000030: bf65 d93d bb35 e83d 213b 0c3e 3cd8 17bd
00000040: bae7 70bd 14f4 acbd ae1c 523e fd32 35be
00000050: c95c 803e d3e0 2b3b 0d4b 6ebe 7487 1d3e
00000060: 0b76 85bd b93e 9abd 6caa c2be 81f9 313e
00000070: 8d42 a63e 543b 9ebe d751 703e 205c 7fbd
00000080: 7a8c d33c 5514 aabd cdee 3c3d 4063 d23d
00000090: b2ec 99bf 0956 5cbf 08ef ba3e c2c0 71bf
000000a0: 3210 04be eebc 953e beb6 353e 9098 34be
000000b0: 1e6f 123e 96c1 113e c64f 8c3d 2b5c c9bf
000000c0: 653f 913e e4fe 9d3e 0fc9 373e dd4d 3c3e
000000d0: aeaf afbf f215 8ebd e5c4 1b3d c96f a03d
000000e0: 8a04 a0bf 9105 093f 6019 a83e a956 8a3e
000000f0: 9a73 0cbe 5f54 5abd 0664 f93d 26e5 9b3d
00000100: 3fff afbc 874c 97be 6097 713d 984e c23e
00000110: c6c0 52be 5a15 0b3e 0f1a f9bc 4ab0 12bf
00000120: b255 013e b89f 0abd a829 27be b0a5 2abe
00000130: a9d6 94be d1a0 3cbe a286 313d e770 9a3e
00000140: 06b4 01bd 8ab0 3cbe 2772 a93d 263c bfbd
00000150: 52ca 123e bc89 08bc a5ed 113e 5606 35bf
00000160: 308d 53bf 3d11 ab3e 3103 81bf 411f ecbc
00000170: 1008 113e f324 02be 4f01 9e3c 6ffe 7cbf
00000180: c211 c93e 983a 5d3e e348 52bf d813 cf3e
00000190: 9869 f9bd 027b 9abe 0c4b c5bc 6d21 12be
000001a0: de4b 09be d271 72bd 47a4 b6bd a066 bf3e
000001b0: 2460 23bf 95c9 57bf 6bd2 6dbf 89b7 8dbf
000001c0: 1b15 0f3f 1b38 2a3e 9cab 13be f2a1 06be
000001d0: 82ec 233f 40c4 b7be 5cd8 aebe 2457 2bbf
0.18386285 -0.17253172 -0.07543539 -0.005619387 0.17577688 0.35775742 -0.30833024 -0.6626861
0.25954992 -0.046687875 -0.10630582 -0.07994579 0.1061511 0.11338373 0.13694431 -0.03707145
-0.05881474 -0.08444992 0.20518753 -0.17695232 0.2507079 0.0026226535 -0.23270817 0.15383703
-0.065166555 -0.07531495 -0.38020647 0.17380334 0.3247265 -0.3090464 0.2346872 -0.062343717
0.02582382 -0.08304659 0.046126176 0.10272837 -1.2025359 -0.8606878 0.3651049 -0.9443475
-0.12896803 0.29245704 0.17745492 -0.17636323 0.143002 0.14234003 0.06851153 -1.5731252
0.2836868 0.3085853 0.17947792 0.18389077 -1.3725488 -0.069377795 0.03802957 0.07833821
-1.2501385 0.5352412 0.3283186 0.2701924 -0.13715973 -0.05330312 0.12177281 0.07612066
-0.021484016 -0.29550573 0.058982253 0.37950587 -0.2058135 0.13582364 -0.030407934 -0.57300246
0.12630346 -0.033843726 -0.16324484 -0.16664767 -0.29070023 -0.18420722 0.043341286 0.30164263
-0.031665824 -0.1842672 0.08273726 -0.09337644 0.14334992 -0.00833362 0.1425081 -0.7071279
-0.8263731 0.3341159 -1.0079099 -0.028823497 0.14163232 -0.12709408 0.019287733 -0.98825735
0.3927136 0.21604383 -0.82142466 0.40444827 -0.121783435 -0.30171973 -0.024083637 -0.14270563
-0.13407847 -0.05919058 -0.08918052 0.37382984 -0.63818574 -0.84291965 -0.928992 -1.1071635
0.5589158 0.16622965 -0.14420933 -0.13147715 0.6403276 -0.35891914 -0.34149444 -0.6692984

output_layer.bias f4 [4]
00000000: 6b14 e73c 3a69 05bd 83a1 6a3e 76c8 9f3d
0.028207978 -0.032571055 0.22913174 0.07801907
