K-Digital Training/김소현 강사님/Pytorch/숙제/language_model/best_model_epoch_23.pth (torch, 14536 bytes, 6 tensors)

input_layer.weight f4 [50, 26]
00000000: 0df4 ce3d 1a47 b1bd 32ba 1bbd 2485 bc3d
00000010: e60f 3dbe bbdf f03d e741 25bd ba55 cc3d
00000020: a657 df3c 7cb7 c4bc 3dcd 5e3d e182 1e3c
00000030: 40b1 923d 9485 9cbd 9c44 6abc eca2 90bc
00000040: 53dd e83c 6260 4dba 7f8d 2f3e f8f9 793d
00000050: 4f93 95bd 1d94 f2bd eea4 06bd 073f adbd
00000060: f2b4 80bd 01da 193c 56b7 d63e fa44 a43e
00000070: 2e20 07bf c42d b13d 3a56 26be 3750 d1bd
00000080: f9d9 ea3e 8761 afbe 961b aabd b567 533c
00000090: 585b 113f 4435 8dbd 55d3 863e 3d11 a73d
000000a0: 7848 8b3d 3f8d 773d b76b 52be 7a65 e5bd
000000b0: 81bc 1dbe 4ad6 bbbc c121 83bc cb5c 9ebe
000000c0: 5b65 4bbe 2e67 cbbe ce6c 23bc 6659 6d3d
000000d0: 2b3c 883d cb9f aabd f117 b73e 4c36 b33e
000000e0: a308 4d3e 381c e6bc 7d9d 03bb 7b81 12bd
000000f0: 5990 47bd c74d cd3e 8596 b3bb a7f6 9b3e
00000100: 3fd8 1cbd 00a1 f7bb 0d71 083d 48e4 f63d
00000110: 9010 033e 0d75 273d 1e28 753e 866a 563d
00000120: 112f 933e 8f10 643e a59a 20be ea0b 8d3e
00000130: 1a4d 0abe 6cb1 cb3d 9254 cfbe 021d 673c
00000140: f1ce 163e 986f 9fbd b13a 4d3e 6a7a 803e
00000150: 9fc7 0ebe 7de4 073e 9154 4fbe 1a1e db3c
00000160: 4f67 b1be 44ad 253e c8c9 48bd e03b 7abe
00000170: d6e9 4e3e 5334 3dbd 7de0 453c 10b8 133d
00000180: 6640 0f3e e96d 543e 50b3 22be d57f 653e
00000190: 8742 dd3e 8fb4 303e 0aea ee3d aeb0 22be
000001a0: 6012 d3be 3cd6 9cbe e3f1 063f db01 383e
000001b0: 3773 e13e 6580 c93e 8dc9 86be c267 c83e
000001c0: e94a 193e d11a bdbd 23b2 c1be ab20 583e
000001d0: 14b5 71bb 9a62 08bd 56be 35bb 12b6 76be
000001e0: 5a01 2b3e 452a 773e 4fc9 983e d8db 8f3d
000001f0: 0832 b23d 45af 863e 8cfb 193c bba3 8f3e
00000200: cfc4 7dbd 19ca 98bd e8d0 c1bc e280 f8bc
00000210: 293d ac3e 73fe 453e de50 793e 6a46 1e3e
00000220: b1bf a33e 4b27 e3bc 5edb 1abd 5dd3 82be
00000230: 2f74 76be 0c7b 413e 70cf 3f3b b966 813e
00000240: be5d 473e fcdd c53d eed1 c63e 057e 213e
00000250: a097 8f3e 21b5 623e 88bf fe3d d342 c83e
00000260: 0bdd f6bd 7b45 803e a602 2dbe 66c1 063e
00000270: 95a4 eabd 0bcb abbd 6cc7 0e3e 1040 83bd
00000280: 3a12 16be 7f88 9a3d 4398 803d 3612 023e
00000290: 2dd7 cfbd 6a2a 2e3d 2c38 92bd b57a 34bd
000002a0: 1b0a 20be f30d b7bd a803 76bd 09c2 ab3d
000002b0: bec0 123d 1e6d 463d 4171 483e 40ba 433e
000002c0: 80f8 083e 21a3 cc3b 75ed 0abe eff1 1c3e
000002d0: b6df 48bd 83e2 81bc 5703 cbbe 141a 1dbe
000002e0: 07f2 473e a452 d53e 2e42 2f3e 4729 523e
000002f0: 7269 94be b45d fa3d eb29 6f3d 9368 1b3e
00000300: 4aaa cdbe d3e8 a73d f157 333d 43bb 87be
00000310: 733c 2f3e d093 8f3d 2dde 073f f7e9 e13d
00000320: a56d 1d3e 29b3 193d a669 773e a654 963e
00000330: 1ab1 603e 3747 b03e b43f 70be 53cf 6dbe
00000340: 0b43 b13e a26f 913e b299 7fbe 7a83 d5bd
00000350: 3aea eebe 3155 37be c791 083f 0ae4 dabc
00000360: 6ac2 813e fcdd 8dbe 79cb 973e 592d 5a3e
00000370: 6fa6 793d 3908 d13e 8d97 26be 1195 183d
00000380: b0a8 1ebe 7050 a3be fbc6 56bd 5a08 143d
00000390: fb0f 663e 9fb0 0ebe fb4a e6bd 7f47 dbbe
000003a0: 2b05 ec3e 0fe4 883e ddf6 acbe 58b2 1fbe
000003b0: d1e4 413e 872f 633e 5a8e c13e c829 0b3e
000003c0: b820 ecbe 9a2e cc3d 7603 f33c c58d 08bd
000003d0: d030 e7be 33f3 cd3d 6f1b 9cbe 6cdc 83be
000003e0: d937 3439 c0f4 b13d 1d7b 023f 498e b53d
000003f0: 66d4 de3d 0a8f 6b3e d39a 173d ad21 863e
0.10105143 -0.0865614 -0.038019367 0.09205082 -0.18463096 0.11761423 -0.040346052 0.099772885
0.027263474 -0.024013273 0.05439495 0.009674759 0.07162714 -0.076426655 -0.014298584 -0.017655812
0.028425848 -0.00078344916 0.1714382 0.061029404 -0.073034875 -0.118446566 -0.032872133 -0.08459287
-0.062845126 0.009390355 0.4193675 0.32083875 -0.5278348 0.08651307 -0.1624383 -0.10220378
0.45869425 -0.34254095 -0.08306043 0.012903144 0.56780005 -0.06894925 0.2633311 0.08157585
0.06800932 0.060437437 -0.20548902 -0.11200996 -0.1540394 -0.02292933 -0.016007306 -0.3093017
-0.19862883 -0.39727157 -0.0099746715 0.057946585 0.06652101 -0.08331259 0.35760453 0.35002363
0.20022826 -0.028089628 -0.0020082884 -0.035768013 -0.048721645 0.40098402 -0.00548059 0.30461618
-0.038292166 -0.0075570345 0.03331094 0.1205526 0.12799287 0.040883113 0.23941085 0.052347682
0.28746846 0.22271942 -0.15683992 0.27548152 -0.13505974 0.0994595 -0.4049421 0.014106037
0.1472738 -0.07784957 0.2004192 0.25093395 -0.13943337 0.13270755 -0.20247103 0.026747752
-0.3464913 0.16179377 -0.04902056 -0.24436903 0.20206389 -0.04619248 0.012077448 0.036064208
0.1398941 0.20745052 -0.15888715 0.22412045 0.4321482 0.17256378 0.11665733 -0.1588771
-0.41224957 -0.30632198 0.5271284 0.17969458 0.44033214 0.3935577 -0.26325646 0.3914166
0.14969982 -0.092336304 -0.3783122 0.21106212 -0.0036881613 -0.03329716 -0.0027731857 -0.24092892
0.16699734 0.24137218 0.29841086 0.07024354 0.08700949 0.26305595 0.009398352 0.28054604
-0.06195527 -0.07460422 -0.023659185 -0.030334894 0.33640411 0.19335346 0.24347255 0.15456548
0.31982186 -0.027728697 -0.03780686 -0.25551882 -0.24067758 0.18894595 0.002926793 0.25273684
0.19469354 0.09661481 0.3883204 0.15770729 0.28045368 0.22139408 0.124388754 0.39113483
-0.12053879 0.2505301 -0.16895542 0.13159713 -0.11457173 -0.08388337 0.13943261 -0.06408703
-0.1465539 0.07545566 0.062790416 0.1270226 -0.101484634 0.042520918 -0.0713962 -0.044062335
-0.15628855 -0.089382075 -0.06006208 0.08386619 0.035828345 0.048443906 0.19574453 0.19114017
0.13376045 0.0062450324 -0.13567145 0.15326665 -0.049041472 -0.01585508 -0.39650986 -0.1534198
0.1952592 0.41664612 0.1711509 0.20523559 -0.28986698 0.12224904 0.058389585 0.1517661
-0.40168983 0.081987046 0.04378504 -0.26510057 0.17112903 0.07010615 0.5307339 0.110309534
0.15373857 0.037524376 0.24161395 0.29361457 0.21942559 0.34429333 -0.23461801 -0.23223619
0.34621462 0.28405482 -0.24960974 -0.10425468 -0.46663076 -0.17903592 0.5334744 -0.026720066
0.2534364 -0.27708423 0.29647425 0.21306361 0.06094974 0.40826586 -0.1626875 0.037251536
-0.15494037 -0.31897306 -0.052435856 0.036140777 0.22467034 -0.13934563 -0.1124477 -0.42827985
0.46097693 0.26736495 -0.33782092 -0.15595376 0.18934943 0.22186099 0.37803918 0.13590157
-0.46118712 0.09969826 0.029664736 -0.033338327 -0.45154428 0.10056152 -0.3048968 -0.25754106
0.00017186943 0.086892605 0.50969106 0.08865029 0.108803555 0.23003784 0.037012886 0.26197568

input_layer.bias f4 [50]
00000000: 712c 14bd b352 f73c 64a6 1a3e 70d5 d03d
00000010: e7cb 7d3d b2b1 4e3e 2454 acbd d9d9 dc3d
00000020: c585 873c 586e 003e 7af0 b93b a500 2bbe
00000030: ce79 653c cb40 623e 3acd 8d3d e17e 453d
00000040: d92a 363a 9a3c 7f3e 0280 603d 2867 33be
00000050: 4638 0fbe 63ee 3d3c 10df bfbc 1b41 383e
00000060: e4d5 3cbd b3b3 1e3e 095e 29be 72dd 3ebe
00000070: 9826 823c 3250 febd 5442 6abd ff92 783d
00000080: b732 2ebe e020 2e3e cdc1 f3bd 9ccd 3e3e
00000090: b0e2 003e 11a6 16bd 02c0 2fbe 5fdd a93c
000000a0: fd61 e0bd 3137 393e 48f1 28be a41a 3c3c
000000b0: e05a ddbd 2629 01be 857c d1bd 1847 9fbc
000000c0: 14a9 5b3d 3492 c93d
-0.036175195 0.030190801 0.15102535 0.1019696 0.061962035 0.20184973 -0.08414486 0.10783739
0.016543278 0.12542093 0.005674419 -0.16699465 0.014006091 0.22095029 0.069239095 0.048216704
0.0006949134 0.24925461 0.054809578 -0.1751982 -0.1398631 0.01159248 -0.023421794 0.17993586
-0.04610242 0.15498237 -0.16539778 -0.18639162 0.015887544 -0.1241764 -0.05719216 0.06068706
-0.17011534 0.17004728 -0.11902199 0.18633121 0.12586474 -0.036779467 -0.17163089 0.02073544
-0.1095619 0.1808746 -0.16498291 0.011480961 -0.10808349 -0.12613353 -0.10228828 -0.01944308
0.053628042 0.09842339

hidden_layer_list.0.weight f4 [30, 50]
00000000: 4700 943d bc9a 6cbd 12b4 b3bd 7819 f4bc
00000010: f177 083e 3d8a 8dbc 57d4 f3bd f742 e33d
00000020: c0f1 0c3d 5f12 c93c 8edb c63c 0f13 ca3d
00000030: b3e1 83bd 7416 d33d 1341 0b3e 315d 15bd
00000040: 8dcb b63d 6ecb 9f3d 009e 073e 32d1 06bd
00000050: 9c4a acbd c605 57bd c70c c5bd 3bfb 9e3b
00000060: 649f 0b3e a77d 0c3e 24c6 da3d d345 653c
00000070: cb32 493b 49c5 bf3d 6afa ab3d f7ee 65bc
00000080: 3181 12bd f30b 653d 15cc a0bb 117a cbbd
00000090: dd3a 88bd 39e3 ea3d 6934 f13d 40b7 61bd
000000a0: 0c9e f8bc 3e8c 8fbd 131d 3dbd ff01 043e
000000b0: a2cc 00be 2435 8a3d 8b28 02be 4f2e 8abd
000000c0: bcea ebbc b78d 203c 4c24 bcbc f764 84bd
000000d0: 952f 81bd e729 b0bd fd29 cabd 4172 b4bd
000000e0: 2cde 0a3e 3b77 88bd 88da f0bd 6b10 c73d
000000f0: d9ba 603d 1d3a c73d 160c 10be e5d8 09be
00000100: 8490 cdbd 1d94 98bd a147 a3b9 8690 7a3d
00000110: 6091 a93d ee1c f9bd 3404 673d fc7e a7bd
00000120: 3126 053d 87de 353d 8866 b93c 20f2 4c3d
00000130: 9c63 e7bb f935 bf3d cb9f f13c 3ebe fd3d
00000140: ba21 fb3c d652 99bd 2600 ba3d 120e fb3b
00000150: 98f4 0b3e 381f 80bc 5548 0f3e 5313 a9bd
00000160: 3690 913d eb10 d8bd 64d7 c63d 5b4c d23c
00000170: 4e6f a43d 816c f9bd 360e 10be 1d8e 8b3d
00000180: dc50 6ebd 9b69 653d b3d5 abbd 0512 33bd
00000190: 0d16 263a d86a ae3d 3e8f a33d 36f9 4ebc
000001a0: 40d8 23bd f6bb 20bb c646 953d 877b f5bd
000001b0: 5300 31bd 029a 0bbe 673a a73c aa08 89bc
000001c0: 1013 a43d ab60 e73d e4a4 f7bd 022e 80bd
000001d0: 693e babc 97d7 b8ba 1b3a 04bd b01a b6bd
000001e0: 80d3 5fbd 14af 6ebb 23ea e83d 70a0 13bd
000001f0: 2245 bf3d 8a1f eabd d23b cf3b 1105 e2bd
00000200: d7e3 07be d79f 653c 7d9e 84bd fc3a d53d
00000210: 9fc4 e43d 6623 10be f679 21bc abeb c5bc
00000220: 2615 a5bd 2734 cabd 8121 75bd 49bf 7f3d
00000230: 65ba 093d f950 ae3d 5730 0abc 7d6d 963d
00000240: 7208 e03c 18a0 fcbc cd74 07bc 6fb5 03be
00000250: 85d8 54bb ee4b 3ebd 62da 41bd c2a8 68bd
00000260: 014b fdbc fad3 d5bd 0af8 073c ce54 bcbb
00000270: 4490 18bd a36b fb3d 4a60 c23d 4b98 233d
00000280: e95a 55bd ebc3 933c 0648 c7bd 93cf c93d
00000290: 0c43 073e f0f8 acbc 805d df3d bce8 073e
000002a0: 9638 0bbc 5618 57bd 26e0 e93b 5574 bf3c
000002b0: 3a0d 06be b08a 10bc 3471 51bd fd44 c13d
000002c0: 6806 85bb f48e be3d b7cf 003e b689 35bd
000002d0: 7860 f93c b634 46bc 4071 7cbd cbaa a0bd
000002e0: 2b77 563b b1fe 2f3d 18c3 cbbc 3abe c43c
000002f0: 21ff b43d ce7b 713d 13df 6e3d 2ecb 223d
00000300: 1ba5 debd 6a3a afbd b7c8 d6bd cc53 be3d
00000310: 0b19 ffbd 7c3b d8bd 69bd be3d f033 ab3d
00000320: 92e5 08be 8b5a a73d b92c 04bd 6d99 f93c
00000330: 546f b5bd 23dd afbc a3be 003d 20d7 dc3d
00000340: b7a1 af3d cc7e 9dbd d3fa bdbd 3f00 0dbc
00000350: eacb 353d e3cd 9e3d 1e4f 10be 2c58 3dbc
00000360: f1df a33b 5443 87bd 5571 e43d c1c3 19bd
00000370: 1311 0abe 9fee acbd 4195 943b cf88 d7bd
00000380: 5a4f 043d 7ce0 0c3e 61b4 bd3b 1cb4 0ebd
00000390: 7e6e 083e 16d1 d53d 1277 c03d 9fc2 2f3c
000003a0: 87da d33b db9d e0bd 6bdc 6b3c f9da 0c3e
000003b0: b8fa f43b 2f3b 01be e3f7 9e3d 52f7 013e
000003c0: 66cf f23d f090 da3b dfa4 d93c 0b7c bb3c
000003d0: 6769 6dbd 950a a9bc 6748 ec3d 6564 6c3c
000003e0: 8b7c 083e 9955 c0bd 9f50 a9bc e10e b9be
000003f0: f587 0dbd d5f3 b63e 91c0 803e 1b3a 863c
0.072266154 -0.057764754 -0.0877458 -0.0297973 0.13327004 -0.017277831 -0.11905735 0.11096757
0.03441024 0.024544893 0.024274614 0.098669164 -0.06439533 0.10307017 0.13599043 -0.036465827
0.08925543 0.07802473 0.13243866 -0.032914348 -0.08412668 -0.05249574 -0.09621578 0.0048517263
0.13635021 0.13719808 0.106823236 0.013993698 0.003070044 0.09363801 0.08397372 -0.014034024
-0.035767738 0.0559196 -0.004907141 -0.09935392 -0.06651852 0.114691205 0.117775746 -0.0551064
-0.0303488 -0.07009171 -0.046170305 0.12891386 -0.12578061 0.06748417 -0.12710778 -0.06747114
-0.028798454 0.009799412 -0.022966526 -0.0646457 -0.06307904 -0.08601742 -0.0987129 -0.08810855
0.13561314 -0.066633664 -0.117604315 0.09719928 0.05486569 0.09727881 -0.1406711 -0.13461645
-0.1003733 -0.07450125 -0.0003114315 0.061172985 0.08279681 -0.12163721 0.056400493 -0.08178517
0.032507125 0.04440167 0.022631899 0.050035596 -0.007061435 0.09336466 0.02949514 0.123898014
0.03065573 -0.07486503 0.090820596 0.0076615894 0.13667524 -0.015639886 0.13992436 -0.08255639
0.07107584 -0.10550102 0.09709051 0.025671175 0.08029042 -0.121788986 -0.14067921 0.06814215
-0.058182582 0.056008916 -0.08390369 -0.043718357 0.0006335683 0.085164726 0.07986306 -0.012632659
-0.040001154 -0.0024526096 0.072888896 -0.119864516 -0.0432132 -0.13632968 0.02041359 -0.016727764
0.080114484 0.11297735 -0.12091997 -0.06258775 -0.022734838 -0.0014102337 -0.032281976 -0.08891809
-0.05464506 -0.0036420273 0.11372783 -0.036041677 0.09339358 -0.11431797 0.00632427 -0.110361226
-0.13270508 0.01401516 -0.06475542 0.10411641 0.11170315 -0.14076003 -0.009855738 -0.024160227
-0.08060674 -0.098732285 -0.059846405 0.062438283 0.033625025 0.08511538 -0.008434377 0.07345102
0.027347777 -0.030838057 -0.008267594 -0.1286218 -0.0032477689 -0.04645913 -0.047327407 -0.056801565
-0.030919554 -0.10440822 0.008298883 -0.005747414 -0.037246957 0.122763894 0.09491022 0.03994016
-0.05208865 0.018037757 -0.09730534 0.09854045 0.1320917 -0.021114796 0.109065056 0.13272375
-0.008497378 -0.052513443 0.0071373163 0.023370901 -0.13090983 -0.008822128 -0.05113335 0.094369866
-0.0040596016 0.0930461 0.12579237 -0.044320785 0.030441508 -0.012097528 -0.06163144 -0.07845076
0.0032724838 0.042967502 -0.024873301 0.024016488 0.088377245 0.05895596 0.05831821 0.03974455
-0.10871335 -0.085560635 -0.10487502 0.09293327 -0.124559484 -0.10558221 0.09313471 0.08359516
-0.13368824 0.081715666 -0.032269213 0.030468667 -0.08859125 -0.02146775 0.031431805 0.10783219
0.085757665 -0.076902 -0.092763565 -0.008606016 0.04438392 0.077541135 -0.14092681 -0.011556666
0.005001061 -0.06604639 0.11154429 -0.0375402 -0.13483076 -0.08443951 0.004534394 -0.10524141
0.032302238 0.13757509 0.005789325 -0.034839734 0.133234 0.104402706 0.09397711 0.010727554
0.0064652595 -0.109676085 0.014395813 0.13755406 0.007476177 -0.12620233 0.077621244 0.12692001
0.11855964 0.00667011 0.026567874 0.022886297 -0.057961848 -0.020634929 0.11537247 0.014428233
0.1332876 -0.093913265 -0.020668326 -0.36144164 -0.034553487 0.35732904 0.25146917 0.016385129

hidden_layer_list.0.bias f4 [30]
00000000: 9cc5 cfbd 1c62 3bbd e807 e8bd 0276 0abe
00000010: c5f4 9cbd 1c4a 413d 2d36 233e cb09 143e
00000020: 4325 9b3d 0604 313e 499f c3bb 0172 0c3e
00000030: d7ae fcbd 319f 87bd 5528 05be d996 c7bd
00000040: 8781 d7bd c032 09be f727 123e 4cfa 763d
00000050: eaa4 143e 9625 b33c 3cf7 003e e649 9bbd
00000060: a268 0fbe f11d 533c 2b6a 443e 6de9 1bbc
00000070: 1af4 723d 2619 a43d
-0.10145113 -0.04574786 -0.11329633 -0.13521579 -0.076638736 0.047189817 0.15938635 0.1445686
0.075754665 0.17286691 -0.005969916 0.13715364 -0.123380356 -0.0662216 -0.13003667 -0.09745569
-0.10522752 -0.13398266 0.14273058 0.060297295 0.14516035 0.021868508 0.12594312 -0.075824544
-0.14004758 0.012885557 0.19181125 -0.009516102 0.059314825 0.08012609

output_layer.weight f4 [4, 30]
00000000: 6901 083e 28ac 30be df7d 9abd 7286 463c
00000010: dbfe 333e bc2b af3e 593b c7be 80f2 0dbf
00000020: 138e 8c3e 51b3 2abe deb6 d9bd 3968 edbc
00000030: bf65 d93d bb35 e83d c59e 0c3e 3cd8 17bd
00000040: 4bd6 60bd 7825 0cbc 5207 663e 9783 dbbd
00000050: f8fd 803e 092b b43c 0bf9 c7be 7487 1d3e
00000060: 0b76 85bd b93e 9abd 6790 ebbe b0eb 5c3e
00000070: 75e2 973e e7cf 3cbe a025 133e 205c 7fbd
00000080: 7a8c d33c d476 cebd cdee 3c3d c40a a63c
00000090: 265e c1be ad84 f6be 6a92 803e c2f0 edbd
000000a0: 3210 04be c72a e63d beb6 353e 9098 34be
000000b0: 7f72 123e 96c1 113e a669 243c 21d5 bdbd
000000c0: 11e0 383e dbf9 493e 8b96 cd3d 4e76 b73d
000000d0: 834b 0dbf f215 8ebd e5c4 1b3d c96f a03d
000000e0: 25e3 f0be 66f0 b53e 8c05 4f3e 7d0e f33d
000000f0: 9b75 b9bd 5f54 5abd 0664 f93d 2644 bf3d
00000100: 3fff afbc 3f13 a3be 986c c7bc 3fe1 7c3e
00000110: d3e0 61be 1cc2 873d 0f1a f9bc 7349 69be
00000120: b255 013e b89f 0abd fc4f 27be b0a5 2abe
00000130: 08fa 14be 809e 92bd 0f82 8cbd 70ba 793d
00000140: 68c9 31be 2766 adbe 369a bd3c 263c bfbd
00000150: 52ca 123e bc89 08bc c496 853d 738c 92be
00000160: d5f0 aebe a76e 5a3d 9ec6 7ebc 411f ecbc
00000170: 1008 113e fd38 e2bd 4f01 9e3c 2af6 edbe
00000180: 4491 6d3e d116 013e 7998 a6be f8c3 663e
00000190: 9869 f9bd c6f5 69be 0c4b c5bc 6d21 12be
000001a0: 8030 09be d271 72bd 1f89 afbc c3c9 20bd
000001b0: a956 23be 8327 c8be 24c7 cdbe 906c 14bf
000001c0: 6071 c73e 1b38 2a3e 9cab 13be f2a1 06be
000001d0: 1046 f93e 09af 57be 7247 50be 37e8 64be
0.13281788 -0.17253172 -0.07543539 0.012117015 0.17577688 0.34213054 -0.38912466 -0.5544815
0.27452144 -0.16669966 -0.10630582 -0.028980361 0.1061511 0.11338373 0.13732441 -0.03707145
-0.054891866 -0.008553855 0.2246373 -0.10718458 0.25193763 0.021993177 -0.39057192 0.15383703
-0.065166555 -0.07531495 -0.46008608 0.21574283 0.2966496 -0.18438683 0.14369822 -0.062343717
0.02582382 -0.100812584 0.046126176 0.020268805 -0.37767142 -0.481481 0.25111705 -0.116181865
-0.12896803 0.11238628 0.17745492 -0.17636323 0.1430149 0.14234003 0.010034954 -0.09269167
0.18054225 0.19724219 0.100384794 0.08958112 -0.55193347 -0.069377795 0.03802957 0.07833821
-0.47048298 0.35534972 0.2021696 0.11867998 -0.090556346 -0.05330312 0.12177281 0.0933917
-0.021484016 -0.3185062 -0.024343774 0.246953 -0.2205842 0.0662882 -0.030407934 -0.22781925
0.12630346 -0.033843726 -0.16339105 -0.16664767 -0.14548504 -0.07159138 -0.06860744 0.060968816
-0.17361987 -0.33867 0.023144823 -0.09337644 0.14334992 -0.00833362 0.06522897 -0.2862278
-0.34168115 0.053328183 -0.015550284 -0.028823497 0.14163232 -0.11046026 0.019287733 -0.4647687
0.23199946 0.1260636 -0.32538202 0.22535694 -0.121783435 -0.22847661 -0.024083637 -0.14270563
-0.13397408 -0.05919058 -0.02142769 -0.039254915 -0.15951027 -0.39092645 -0.40190995 -0.57978153
0.38953686 0.16622965 -0.14420933 -0.13147715 0.48686266 -0.21062864 -0.20339754 -0.22354208

output_layer.bias f4 [4]
00000000: f84e 0e3d 93cc 1fbc 58fe 2c3e ccf0 d83d
0.03474328 -0.009753364 0.168939 0.10592803
