K-Digital Training/김소현 강사님/Pytorch/숙제/language_model/best_model_epoch_72.pth (torch, 14536 bytes, 6 tensors)

input_layer.weight f4 [50, 26]
00000000: 0df4 ce3d 1a47 b1bd 32ba 1bbd 2485 bc3d
00000010: e60f 3dbe bbdf f03d e741 25bd ba55 cc3d
00000020: a657 df3c 7cb7 c4bc 3dcd 5e3d e182 1e3c
00000030: 40b1 923d 9485 9cbd 9c44 6abc eca2 90bc
00000040: 53dd e83c 6260 4dba 7f8d 2f3e f8f9 793d
00000050: 4f93 95bd 1d94 f2bd eea4 06bd 073f adbd
00000060: f2b4 80bd 01da 193c 517f 113f 60af d93e
00000070: 6379 1cbf b7d5 ccbd e37b cfbe 0aa7 d9bd
00000080: 4638 553f 2016 52be 72d4 21bd b31f bdbe
00000090: 1372 1b3f ec38 e0bd d694 9a3e e21a 633e
000000a0: 3f38 6f3e 7e99 483d 15da 4abf 9006 4cbe
000000b0: 3b2d 18be 2853 81bb 6282 88be 3d77 dfbe
000000c0: 6c35 db3d 09b6 56bf f5c2 df3e aceb ec3e
000000d0: 5990 7d3e 0844 653e e5e6 1d3e ec5b 5d3f
000000e0: 3081 0a3f 3469 a2bd 2b19 74be ebe7 bebd
000000f0: 4013 1f3e 7527 863f d3b1 173f efb2 bf3e
00000100: 1220 5c3e caa3 bd3c 52f7 7abe 731d b93e
00000110: 0305 c03e a246 bc3e fea2 a03e e4c1 223e
00000120: ff8a 493f 5263 173e 5cd0 0fbf 1779 c43e
00000130: 22e8 22bf 47ef d9be 8c54 0ebf f216 ddbd
00000140: 22c5 c23e 7007 2bbd 2cfd c13e 8094 dc3e
00000150: ca0c bbbe 1116 443e ade5 72be 2311 a33c
00000160: ba17 22bf 281d 833e b69d 0ebe 89cb a0be
00000170: de8a 863e faf7 85bd 11d7 fc3e 9263 9c3d
00000180: 6845 463e 8c77 803e 6748 f8bd a14e d93e
00000190: a094 de3e 2de7 203f a05a 34bd 80ff d4be
000001a0: ff48 f2be dff8 96be 6818 0e3f eba6 fc3e
000001b0: 868e 413f 08ca cc3e 00af 1bbf 146c 913e
000001c0: 1926 353e a603 dd3e c21c 5ebe 8c94 8c3e
000001d0: 43fc 4c3d 0225 04be 2250 51be 5a0d 12be
000001e0: 2fb2 413f 423c d03e 0c89 a53e f62a c03d
000001f0: 5612 e73e cc4e b93e 4eb6 9abe 34d8 323f
00000200: 0eba 07bf ddb3 0cbf d939 843e 5089 ec3e
00000210: 4aa8 6d3e 9efd 373f 77c8 153f 3638 0d3f
00000220: d029 723e 7ee9 103f cd34 7c3e b64e 9e3e
00000230: 4d9b b03e fbf1 7c3e eb8c 903e 6ad3 b73e
00000240: 917d 0a3e 5c9b b03e 2db8 e93c 8f4a 073f
00000250: 2384 bd3e 0b25 103f dc05 fe3e aa72 8d3e
00000260: 1e45 a33e 89bc b03c e703 96be 4257 0abf
00000270: 95a4 eabd 0bcb abbd 6cc7 0e3e 1040 83bd
00000280: 3a12 16be 7f88 9a3d 4398 803d 3612 023e
00000290: 2dd7 cfbd 6a2a 2e3d 2c38 92bd b57a 34bd
000002a0: 1b0a 20be f30d b7bd a803 76bd 09c2 ab3d
000002b0: bec0 123d 1e6d 463d 4171 483e 40ba 433e
000002c0: 80f8 083e 21a3 cc3b 75ed 0abe eff1 1c3e
000002d0: b6df 48bd 83e2 81bc 7bb0 e9be 134b 22be
000002e0: 1f28 4d3e b9b0 403f 249e fc3e d9aa 0f3e
000002f0: 7539 26bf 74a0 b9bd 7a48 b23d 1239 383f
00000300: 99b4 61be 3729 1d3e 8dd7 e33d 3301 b9be
00000310: 7be6 94bd 7574 3d3e b2e4 973f 7d4b 913e
00000320: ce15 3b3e 46c9 013d 6770 263f 8108 ca3e
00000330: 0a6a 65be d9fc 483f 8841 44bf 1019 31bf
00000340: 3397 f53e 82e1 bd3e fdb6 86be 16a4 b8be
00000350: 5827 3cbf a7d0 dcbd fa36 6b3f e1a3 4e3e
00000360: d98f 923e 7684 46bf c13b 703e 6e60 403e
00000370: 225a 933d 40ed 0e3f 15dd b03d ede3 fa3b
00000380: d884 48bf 2e4f debe d93a 0cbd 9859 ac3d
00000390: 92c9 cbbd 901e 6ebe fa07 a73e 99eb 5bbf
000003a0: 4d13 7b3f 9a40 323f 098e cfbe 11cd 2fbe
000003b0: 50ec 5c3e 1dec 123f 1de0 3a3f 5cee 9c3d
000003c0: 07ac 5bbf c5c7 02be 3683 7a3d 6c20 0d3f
000003d0: 98e4 8ebe ccc9 423e 4514 6dbe c699 b6be
000003e0: ab0f 7dbe ed35 593e e2d1 9d3f b6d4 8b3e
000003f0: 0d06 183e 65a3 6a3e 2a55 f43e 9e44 c63e
0.10105143 -0.0865614 -0.038019367 0.09205082 -0.18463096 0.11761423 -0.040346052 0.099772885
0.027263474 -0.024013273 0.05439495 0.009674759 0.07162714 -0.076426655 -0.014298584 -0.017655812
0.028425848 -0.00078344916 0.1714382 0.061029404 -0.073034875 -0.118446566 -0.032872133 -0.08459287
-0.062845126 0.009390355 0.56834894 0.42516613 -0.6112272 -0.100017 -0.40524206 -0.10627563
0.8328899 -0.20516253 -0.039509244 -0.36938247 0.6072094 -0.10948357 0.30191678 0.22178224
0.233613 0.048974507 -0.79239017 -0.19924378 -0.14861004 -0.0039466806 -0.26661974 -0.4364566
0.10703549 -0.83871514 0.43703428 0.46273553 0.24762096 0.22389233 0.1542011 0.86468387
0.54103374 -0.07930222 -0.23837726 -0.093215786 0.15534687 1.0480791 0.59255713 0.37441203
0.21496609 0.02314939 -0.24508408 0.3615528 0.37503824 0.3677264 0.31374353 0.15894276
0.78727716 0.14783981 -0.56177306 0.38373634 -0.63635457 -0.42565367 -0.5559776 -0.10795392
0.38041025 -0.04175514 0.37888467 0.43082047 -0.36533195 0.19149043 -0.23720427 0.019905632
-0.63317454 0.25608182 -0.1392735 -0.31405285 0.26277822 -0.065414384 0.49382833 0.07636179
0.19362414 0.25091207 -0.12123185 0.42442802 0.43472767 0.62852746 -0.04403174 -0.4160118
-0.47321317 -0.2948675 0.5550599 0.49346098 0.756081 0.39997888 -0.60813904 0.2840277
0.17690314 0.43166846 -0.21690658 0.27457082 0.050045263 -0.12904742 -0.20440724 -0.14262906
0.7566251 0.40670973 0.3233112 0.09383194 0.45131177 0.3619293 -0.30217212 0.6986115
-0.5301827 -0.5496195 0.25825384 0.4619851 0.23208728 0.71871364 0.5850901 0.55163896
0.23648763 0.5660628 0.24629517 0.30919427 0.34493485 0.24701683 0.28232512 0.35903484
0.13524462 0.3449353 0.028530205 0.5284814 0.37014875 0.56306523 0.49613845 0.27626544
0.3188867 0.021574276 -0.29299852 -0.54039395 -0.11457173 -0.08388337 0.13943261 -0.06408703
-0.1465539 0.07545566 0.062790416 0.1270226 -0.101484634 0.042520918 -0.0713962 -0.044062335
-0.15628855 -0.089382075 -0.06006208 0.08386619 0.035828345 0.048443906 0.19574453 0.19114017
0.13376045 0.0062450324 -0.13567145 0.15326665 -0.049041472 -0.01585508 -0.45642456 -0.15848951
0.20034836 0.7526966 0.49339402 0.14030017 -0.6493142 -0.09063807 0.0870523 0.7196208
-0.22041549 0.15347753 0.111250974 -0.36133727 -0.07270523 0.18501456 1.1866667 0.28377905
0.18270037 0.03168609 0.6501526 0.39459613 -0.22403732 0.78510815 -0.7666249 -0.6917887
0.47966918 0.3708611 -0.26311484 -0.36062688 -0.73497534 -0.10781985 0.9188076 0.20179702
0.28625372 -0.7754587 0.23460294 0.18786785 0.07194926 0.55830765 0.08635918 0.0076565654
-0.78327703 -0.43419784 -0.03423581 0.08415526 -0.09950556 -0.23253846 0.32623273 -0.8590637
0.98076326 0.69629824 -0.40538052 -0.1716807 0.21574521 0.5739153 0.7299822 0.07662651
-0.8580937 -0.12771519 0.06116029 0.55127597 -0.27908778 0.19022292 -0.23152263 -0.35664195
-0.24713008 0.21211977 1.2329676 0.27310723 0.14846058 0.22913893 0.47721225 0.38724226

input_layer.bias f4 [50]
00000000: 712c 14bd 8508 753d 2748 a03e 12cf d23d
00000010: cadc c03d c04b f23e 2454 acbd 678e 093e
00000020: 1790 513d 9fe4 213e 3911 153d a500 2bbe
00000030: ce79 653c f884 ab3e f1fb f63d 7092 e53d
00000040: d92a 363a 767b e73e a52f c33d 2867 33be
00000050: 4638 0fbe 63ee 3d3c 10df bfbc ade3 543e
00000060: e4d5 3cbd 1d80 383e 095e 29be 72dd 3ebe
00000070: a0b7 2e3d 3250 febd 5442 6abd 32b7 b83d
00000080: b732 2ebe 5803 8d3e cdc1 f3bd 677d ab3e
00000090: 95de 5e3e 11a6 16bd 02c0 2fbe 5fdd a93c
000000a0: fd61 e0bd 4c38 603e 48f1 28be 1112 103d
000000b0: e05a ddbd 2629 01be 857c d1bd 1847 9fbc
000000c0: f33d a03d 29bf 2b3e
-0.036175195 0.059822578 0.31305048 0.10293402 0.09417112 0.47323418 -0.08414486 0.13433228
0.051162805 0.15809868 0.036393378 -0.16699465 0.014006091 0.33499885 0.12059773 0.11209571
0.0006949134 0.4521138 0.09530572 -0.1751982 -0.1398631 0.01159248 -0.023421794 0.20789976
-0.04610242 0.18017621 -0.16539778 -0.18639162 0.042655587 -0.1241764 -0.05719216 0.09019317
-0.17011534 0.27541614 -0.11902199 0.33494112 0.21764596 -0.036779467 -0.17163089 0.02073544
-0.1095619 0.21896476 -0.16498291 0.03517348 -0.10808349 -0.12613353 -0.10228828 -0.01944308
0.07824316 0.1677214

hidden_layer_list.0.weight f4 [30, 50]
00000000: 4700 943d 3b59 8ebe 0c36 bc3d 2a16 e63e
00000010: 7cb8 103f af07 f13d 57d4 f3bd 4bc5 123f
00000020: 9317 95be 2826 003f 3779 6cbe 0f13 ca3d
00000030: b3e1 83bd 4483 e73d e61b b9bc ca7c e9bd
00000040: 8dcb b63d 9fb1 813e f963 e53e 32d1 06bd
00000050: 9c4a acbd c605 57bd c70c c5bd b302 9d3e
00000060: 649f 0b3e 3388 1f3f 24c6 da3d d345 653c
00000070: 435b f63e 49c5 bf3d 6afa ab3d 68ef 97be
00000080: 3181 12bd 7d89 6b3e 15cc a0bb 11c8 60bd
00000090: 6e2f 92bd 39e3 ea3d 6934 f13d 40b7 61bd
000000a0: 0c9e f8bc f1a0 633e 131d 3dbd ba41 133f
000000b0: a2cc 00be 2435 8a3d 8b28 02be 4f2e 8abd
000000c0: b8e0 da3e 6969 6fbd 4c24 bcbc f764 84bd
000000d0: 952f 81bd e729 b0bd fd29 cabd 4172 b4bd
000000e0: 2cde 0a3e 3b77 88bd 88da f0bd 6b10 c73d
000000f0: d9ba 603d 1d3a c73d 160c 10be e5d8 09be
00000100: 8490 cdbd 1d94 98bd a147 a3b9 8690 7a3d
00000110: 6091 a93d ee1c f9bd 3404 673d fc7e a7bd
00000120: 3126 053d 87de 353d 8866 b93c 20f2 4c3d
00000130: 9c63 e7bb f935 bf3d cb9f f13c 3ebe fd3d
00000140: ba21 fb3c d652 99bd 2600 ba3d 120e fb3b
00000150: 98f4 0b3e 381f 80bc 5548 0f3e 5313 a9bd
00000160: 3690 913d eb10 d8bd 64d7 c63d 5b4c d23c
00000170: 4e6f a43d 816c f9bd 360e 10be 1d8e 8b3d
00000180: dc50 6ebd 9b69 653d b3d5 abbd 0512 33bd
00000190: 0d16 263a d86a ae3d 3e8f a33d 36f9 4ebc
000001a0: 40d8 23bd f6bb 20bb c646 953d 877b f5bd
000001b0: 5300 31bd 029a 0bbe 673a a73c aa08 89bc
000001c0: 1013 a43d ab60 e73d e4a4 f7bd 022e 80bd
000001d0: 693e babc 97d7 b8ba 1b3a 04bd b01a b6bd
000001e0: 80d3 5fbd 14af 6ebb 23ea e83d 70a0 13bd
000001f0: 2245 bf3d 8a1f eabd d23b cf3b 1105 e2bd
00000200: d7e3 07be d79f 653c 7d9e 84bd fc3a d53d
00000210: 9fc4 e43d 6623 10be f679 21bc abeb c5bc
00000220: 2615 a5bd 2734 cabd 8121 75bd 49bf 7f3d
00000230: 65ba 093d f950 ae3d 5730 0abc 7d6d 963d
00000240: 7208 e03c 18a0 fcbc cd74 07bc 6fb5 03be
00000250: 85d8 54bb ee4b 3ebd 62da 41bd e9e3 98bd
00000260: f4cf 47bd 9e68 fabd 63b0 1cbc 7d6a c1bc
00000270: 4490 18bd a4d6 d63d 82cf 9d3d 89dc b43c
00000280: fd3f 8fbd ebc3 933c 0648 c7bd 583a a53d
00000290: 0cf2 e93d 77a4 1fbd 805d df3d 203c eb3d
000002a0: c7ee d7bc 5618 57bd 26e0 e93b 5574 bf3c
000002b0: 3a0d 06be 639a dabc 3471 51bd 35b0 9c3d
000002c0: 6806 85bb f48e be3d 700a dd3d b689 35bd
000002d0: 7860 f93c dd62 f5bc 4071 7cbd dd3f c5bd
000002e0: 2b77 563b c2a8 cd3c 900b 2fbd 3abe c43c
000002f0: 21ff b43d ce7b 713d 13df 6e3d 6041 b33c
00000300: 1ba5 debd 6ecf d3bd b7c8 d6bd cc53 be3d
00000310: 0b19 ffbd 7c3b d8bd 6028 9a3d 289f 863d
00000320: 92e5 08be 8b5a a73d b92c 04bd 6d99 f93c
00000330: 546f b5bd 23dd afbc a3be 003d 20d7 dc3d
00000340: b7a1 af3d cc7e 9dbd d3fa bdbd 3f00 0dbc
00000350: eacb 353d e3cd 9e3d 1e4f 10be 2c58 3dbc
00000360: f1df a33b 5443 87bd 5571 e43d c1c3 19bd
00000370: 1311 0abe 9fee acbd 4195 943b cf88 d7bd
00000380: 5a4f 043d 7ce0 0c3e 61b4 bd3b 1cb4 0ebd
00000390: 7e6e 083e 16d1 d53d 1277 c03d 9fc2 2f3c
000003a0: 87da d33b db9d e0bd 6bdc 6b3c f9da 0c3e
000003b0: b8fa f43b 2f3b 01be e3f7 9e3d 52f7 013e
000003c0: 66cf f23d f090 da3b dfa4 d93c 0b7c bb3c
000003d0: 6769 6dbd 950a a9bc 6748 ec3d 6564 6c3c
000003e0: 8b7c 083e 9955 c0bd 9f50 a9bc 34d6 dfbe
000003f0: 1c76 a83c 5be4 0e3f 91bf b53e 063a bd3d
0.072266154 -0.27802452 0.09189996 0.44938785 0.565315 0.11769044 -0.11905735 0.57332295
-0.29119548 0.5005822 -0.23093115 0.098669164 -0.06439533 0.11304334 -0.02259631 -0.11400755
0.08925543 0.25330827 0.44802836 -0.032914348 -0.08412668 -0.05249574 -0.09621578 0.30666122
0.13635021 0.623172 0.106823236 0.013993698 0.48116502 0.09363801 0.08397372 -0.2967484
-0.035767738 0.23001666 -0.004907141 -0.0548783 -0.07137953 0.114691205 0.117775746 -0.0551064
-0.0303488 0.22229363 -0.046170305 0.57522166 -0.12578061 0.06748417 -0.12710778 -0.06747114
0.42749572 -0.058450136 -0.022966526 -0.0646457 -0.06307904 -0.08601742 -0.0987129 -0.08810855
0.13561314 -0.066633664 -0.117604315 0.09719928 0.05486569 0.09727881 -0.1406711 -0.13461645
-0.1003733 -0.07450125 -0.0003114315 0.061172985 0.08279681 -0.12163721 0.056400493 -0.08178517
0.032507125 0.04440167 0.022631899 0.050035596 -0.007061435 0.09336466 0.02949514 0.123898014
0.03065573 -0.07486503 0.090820596 0.0076615894 0.13667524 -0.015639886 0.13992436 -0.08255639
0.07107584 -0.10550102 0.09709051 0.025671175 0.08029042 -0.121788986 -0.14067921 0.06814215
-0.058182582 0.056008916 -0.08390369 -0.043718357 0.0006335683 0.085164726 0.07986306 -0.012632659
-0.040001154 -0.0024526096 0.072888896 -0.119864516 -0.0432132 -0.13632968 0.02041359 -0.016727764
0.080114484 0.11297735 -0.12091997 -0.06258775 -0.022734838 -0.0014102337 -0.032281976 -0.08891809
-0.05464506 -0.0036420273 0.11372783 -0.036041677 0.09339358 -0.11431797 0.00632427 -0.110361226
-0.13270508 0.01401516 -0.06475542 0.10411641 0.11170315 -0.14076003 -0.009855738 -0.024160227
-0.08060674 -0.098732285 -0.059846405 0.062438283 0.033625025 0.08511538 -0.008434377 0.07345102
0.027347777 -0.030838057 -0.008267594 -0.1286218 -0.0032477689 -0.04645913 -0.047327407 -0.074653454
-0.048782304 -0.122269854 -0.009563538 -0.023610348 -0.037246957 0.10490158 0.077055946 0.022077816
-0.06994627 0.018037757 -0.09730534 0.08067769 0.1142312 -0.038975205 0.109065056 0.11486077
-0.026358975 -0.052513443 0.0071373163 0.023370901 -0.13090983 -0.026684945 -0.05113335 0.07650796
-0.0040596016 0.0930461 0.107930064 -0.044320785 0.030441508 -0.029954368 -0.06163144 -0.096313216
0.0032724838 0.025104884 -0.042735636 0.024016488 0.088377245 0.05895596 0.05831821 0.02188176
-0.10871335 -0.103422984 -0.10487502 0.09293327 -0.124559484 -0.10558221 0.07527232 0.065733254
-0.13368824 0.081715666 -0.032269213 0.030468667 -0.08859125 -0.02146775 0.031431805 0.10783219
0.085757665 -0.076902 -0.092763565 -0.008606016 0.04438392 0.077541135 -0.14092681 -0.011556666
0.005001061 -0.06604639 0.11154429 -0.0375402 -0.13483076 -0.08443951 0.004534394 -0.10524141
0.032302238 0.13757509 0.005789325 -0.034839734 0.133234 0.104402706 0.09397711 0.010727554
0.0064652595 -0.109676085 0.014395813 0.13755406 0.007476177 -0.12620233 0.077621244 0.12692001
0.11855964 0.00667011 0.026567874 0.022886297 -0.057961848 -0.020634929 0.11537247 0.014428233
0.1332876 -0.093913265 -0.020668326 -0.43718112 0.020564131 0.5581719 0.35497716 0.09239583

hidden_layer_list.0.bias f4 [30]
00000000: 5c1f 70bb 1c62 3bbd e807 e8bd bcc0 1cbe
00000010: c5f4 9cbd a624 c53d f86e 793e 543e 653e
00000020: 3ca3 023e 2add 8c3e 499f c3bb 195f 103e
00000030: d7ae fcbd 319f 87bd b02b 05be d996 c7bd
00000040: 8781 d7bd 101a 09bd 5db9 573e 8745 b93d
00000050: 4e66 623e e128 b53d 937c 453e e649 9bbd
00000060: a268 0fbe f11d 533c 09d4 883e 5d16 6fbc
00000070: c1ff 893d a924 eb3d
-0.0036639785 -0.04574786 -0.11329633 -0.15307897 -0.076638736 0.09626131 0.24358737 0.22387058
0.12757581 0.27512485 -0.005969916 0.14098777 -0.123380356 -0.0662216 -0.13004947 -0.09745569
-0.10522752 -0.03347212 0.21066804 0.090464644 0.22109339 0.08845688 0.19285803 -0.075824544
-0.14004758 0.012885557 0.2672427 -0.014592734 0.06738234 0.11481602

output_layer.weight f4 [4, 30]
00000000: 5ab1 423e 28ac 30be df7d 9abd d622 b8bb
00000010: dbfe 333e 5d63 b73e 3792 aebe b9e8 27bf
00000020: a987 883e 78ae afbd deb6 d9bd dc6c 81bd
00000030: bf65 d93d bb35 e83d 6d9b 0c3e 3cd8 17bd
00000040: 4bd6 60bd 33c3 17be 15f0 5a3e 395b 23be
00000050: 44cd 823e 58ff 363c 9af4 8cbe 7487 1d3e
00000060: 0b76 85bd b93e 9abd f2ab d1be fbc3 3e3e
00000070: 5f22 a53e a9dc 8fbe e528 573e 205c 7fbd
00000080: 7a8c d33c 5514 aabd cdee 3c3d a644 b13d
00000090: 8f19 87bf 6a74 4fbf 35de ae3e ed55 4bbf
000000a0: 3210 04be 54a7 7e3e beb6 353e 9098 34be
000000b0: 276f 123e 96c1 113e a669 243c 906b b3bf
000000c0: 5ba9 853e 98e6 903e ef28 253e 1d57 263e
000000d0: 6cd6 9dbf f215 8ebd e5c4 1b3d c96f a03d
000000e0: ac22 8ebf 58c7 fd3e 933c 993e 1494 713e
000000f0: e627 03be 5f54 5abd 0664 f93d 26e5 9b3d
00000100: 3fff afbc 433f 8fbe fd70 233d c5a6 b53e
00000110: ddf7 48be c91f f23d 0f1a f9bc 29ba efbe
00000120: b255 013e b89f 0abd a14c 27be b0a5 2abe
00000130: 08fa 14be b67d 49be 5aa4 323d 795f 903e
00000140: e976 e0bc 8118 3dbe 923a 8d3d 263c bfbd
00000150: 52ca 123e bc89 08bc 9276 fe3d de06 18bf
00000160: 27e9 33bf d730 9a3e b371 69bf 411f ecbc
00000170: 1008 113e f324 02be 4f01 9e3c f497 6abf
00000180: ce89 be3e ed85 523e e6e4 3abf 2658 c33e
00000190: 9869 f9bd 2cf7 99be 0c4b c5bc 6d21 12be
000001a0: db33 09be d271 72bd 1f89 afbc a0ae ae3e
000001b0: 733e 10bf 83df 47bf 4d92 5dbf aced 84bf
000001c0: d17f 093f 1b38 2a3e 9cab 13be f2a1 06be
000001d0: ff03 1f3f d251 b5be d087 abbe 7237 19bf
0.19012967 -0.17253172 -0.07543539 -0.005619387 0.17577688 0.35817996 -0.34095928 -0.6558948
0.26666 -0.08578199 -0.10630582 -0.063195914 0.1061511 0.11338373 0.13731165 -0.03707145
-0.054891866 -0.14820556 0.21380647 -0.15952767 0.2554723 0.011169277 -0.27530366 0.15383703
-0.065166555 -0.07531495 -0.40951496 0.18629448 0.32252786 -0.28098038 0.21011694 -0.062343717
0.02582382 -0.08304659 0.046126176 0.08655672 -1.0554675 -0.8103701 0.34153906 -0.7942799
-0.12896803 0.24868518 0.17745492 -0.17636323 0.14300214 0.14234003 0.010034954 -1.40172
0.2610577 0.2830093 0.16128896 0.16244169 -1.2331061 -0.069377795 0.03802957 0.07833821
-1.1104331 0.4956615 0.29929027 0.23591644 -0.12808189 -0.05330312 0.12177281 0.07612066
-0.021484016 -0.27977952 0.039902676 0.35478798 -0.19625802 0.11822469 -0.030407934 -0.46821716
0.12630346 -0.033843726 -0.16337825 -0.16664767 -0.14548504 -0.19676861 0.04361377 0.2819784
-0.02740045 -0.18466379 0.06895937 -0.09337644 0.14334992 -0.00833362 0.12424959 -0.5938548
-0.7027764 0.30115387 -0.91189116 -0.028823497 0.14163232 -0.12709408 0.019287733 -0.9163811
0.37214512 0.20558901 -0.7300552 0.3815319 -0.121783435 -0.3007139 -0.024083637 -0.14270563
-0.13398688 -0.05919058 -0.02142769 0.34117603 -0.5634529 -0.78075427 -0.8655136 -1.0385032
0.5371066 0.16622965 -0.14420933 -0.13147715 0.6211547 -0.35413986 -0.33502054 -0.5985023

output_layer.bias f4 [4]
00000000: 7ce1 fd3c b8dc 09bd 09cf 663e 9d3d a33d
0.030991308 -0.03365776 0.22539915 0.07970736
