K-Digital Training/김소현 강사님/Pytorch/숙제/language_model/best_model_epoch_115.pth (torch, 14536 bytes, 6 tensors)

input_layer.weight f4 [50, 26]
00000000: 0df4 ce3d 1a47 b1bd 32ba 1bbd 2485 bc3d
00000010: e60f 3dbe bbdf f03d e741 25bd ba55 cc3d
00000020: a657 df3c 7cb7 c4bc 3dcd 5e3d e182 1e3c
00000030: 40b1 923d 9485 9cbd 9c44 6abc eca2 90bc
00000040: 53dd e83c 6260 4dba 7f8d 2f3e f8f9 793d
00000050: 4f93 95bd 1d94 f2bd eea4 06bd 073f adbd
00000060: f2b4 80bd 01da 193c a8dc 223f bd0f 093f
00000070: c0ea 28bf f723 18be ec0b f9be c55b a9bd
00000080: d76a 7b3f c84d abbd 1214 3bbd f6c2 00bf
00000090: 981e 273f bfe7 3bbe c4ed 9d3e 30e8 7f3e
000000a0: 416b 9e3e 1e95 6f3c e2f7 8ebf 9c99 4abe
000000b0: 0289 22be df2b 0a3d d26a cabe 2a7a febe
000000c0: 68bd 9f3e aad4 87bf 8e3c 293f 5a79 1b3f
000000d0: f1ba 943e fd7c a63e 1bda 1bbd 7845 853f
000000e0: d2e2 283f 3c97 15be 7275 99be eb31 b3bd
000000f0: f046 633e 5354 a63f fc57 593f af5b b53e
00000100: e398 9f3e 3f1c 263c e502 d9be c6c5 e03e
00000110: 542a e53e 7b74 f23e 6d8b 8f3e ce7d 423e
00000120: 5bb4 803f 7733 263d 6ff5 3bbf 4cb2 ce3e
00000130: b995 5dbf f662 31bf bac4 24bf b6e2 55be
00000140: 9e5b 0e3f c827 02bd 4052 f43e 2bee 0b3f
00000150: 0b21 00bf f2d3 693e fb18 76be 3597 43bd
00000160: 0510 61bf 8ab2 bc3e 6c10 45be 22fe aabe
00000170: 8867 a93e 18e9 77bd 9cbc 503f 5e22 983d
00000180: 4d58 783e 0e76 873e 187e cbbd 2105 0c3f
00000190: a5b4 d43e 77f4 6f3f cc31 07be 16f9 0abf
000001a0: 5849 02bf 87bb aebe a326 0f3f ccd8 133f
000001b0: e6e6 593f 79c6 bd3e 054e 3bbf 9ad5 403e
000001c0: 1d06 4c3e 36d6 1d3f e589 0ebe 9f21 a73e
000001d0: 6cc9 983d f909 1fbe 30e1 9ebe a1c4 bfbd
000001e0: 01db 843f 505f dc3e bd46 a53e b9f2 913d
000001f0: 19ad 1c3f 9bb4 ca3e 6357 00bf 3b79 633f
00000200: 01db 42bf efc9 3bbf e1f3 9d3e e6b0 273f
00000210: 5501 243e ba9b 583f 9c89 2c3f 8ce7 423f
00000220: 799a 5a3e fcc4 673f 999e 973e 69fb e93e
00000230: 16bb 153f 0de6 293e 1384 b03e bf18 a63e
00000240: 0664 e03d 350c bf3e 84e6 a2be 4a3c 243f
00000250: 7ab3 ac3e 51e0 373f 3fb8 133f b36f 3f3e
00000260: d876 1c3f 1a61 05be 8fcd b5be b512 74bf
00000270: 95a4 eabd 0bcb abbd 6cc7 0e3e 1040 83bd
00000280: 3a12 16be 7f88 9a3d 4398 803d 3612 023e
00000290: 2dd7 cfbd 6a2a 2e3d 2c38 92bd b57a 34bd
000002a0: 1b0a 20be f30d b7bd a803 76bd 09c2 ab3d
000002b0: bec0 123d 1e6d 463d 4171 483e 40ba 433e
000002c0: 80f8 083e 21a3 cc3b 75ed 0abe eff1 1c3e
000002d0: b6df 48bd 83e2 81bc 2881 f8be 0c3a 5dbe
000002e0: b7a3 433e d513 573f 52fa 133f 0068 9d3d
000002f0: 9a6e 45bf 6c7e 71be d5da e93d 0f45 6b3f
00000300: d64b 01be e1d2 553e 988e 153e 8f72 c2be
00000310: 0370 45be 5aad 783e 469e bc3f 419c 9c3e
00000320: af0a 3c3e 9948 bdbb 723d 533f 5871 d93e
00000330: ca95 eebe 9b2e 763f 638d 81bf 9dba 59bf
00000340: c9e8 063f 588f ee3e 7854 8bbe 04ee dabe
00000350: 5559 4fbf 6ab6 30bd 1eb5 863f cff4 ba3e
00000360: 086a 8a3e ef76 73bf 5daf 4d3e 5367 ff3d
00000370: f277 603d f792 143f 2344 493e 7824 25bd
00000380: 56cd 8bbf bd48 e1be 92ce 18bd 9d3f 083e
00000390: 8871 84be a1df 8bbe f1e6 123f b066 86bf
000003a0: a0a3 9c3f 2c21 553f d1c4 dfbe 190e 6cbe
000003b0: fea7 543e 1c41 2b3f 4798 523f 6e12 7d3c
000003c0: 2950 7ebf 4451 8cbe 6b8a b93d 914b 443f
000003d0: 1754 33be 0b01 7f3e 0dc8 46be 4739 c1be
000003e0: 5b40 bfbe 8654 8c3e be62 c43f 07c3 983e
000003f0: 7447 193e 951b 453e 2450 2a3f adcb d63e
0.10105143 -0.0865614 -0.038019367 0.09205082 -0.18463096 0.11761423 -0.040346052 0.099772885
0.027263474 -0.024013273 0.05439495 0.009674759 0.07162714 -0.076426655 -0.014298584 -0.017655812
0.028425848 -0.00078344916 0.1714382 0.061029404 -0.073034875 -0.118446566 -0.032872133 -0.08459287
-0.062845126 0.009390355 0.63617945 0.5353964 -0.659832 -0.1485747 -0.48641908 -0.08269457
0.982099 -0.08364445 -0.045673437 -0.50297487 0.6528106 -0.18350123 0.30845463 0.24990916
0.30941203 0.014622955 -1.1169398 -0.1978516 -0.15872577 0.033733245 -0.39534622 -0.4970258
0.31199193 -1.0611775 0.66108024 0.6073204 0.29048875 0.32517233 -0.0380498 1.0411825
0.659711 -0.14608473 -0.29972416 -0.087497555 0.2219503 1.2994484 0.8489988 0.35421512
0.3117133 0.01013857 -0.4238502 0.4390089 0.44758856 0.47354493 0.2803606 0.18993303
1.005504 0.040576424 -0.73421377 0.40370405 -0.86556584 -0.6929163 -0.6436268 -0.20887265
0.55608547 -0.03177622 0.47719002 0.5466029 -0.5005042 0.22834757 -0.24032967 -0.047751624
-0.8791507 0.36854964 -0.19244546 -0.33397013 0.330868 -0.06052503 0.81537795 0.0742843
0.24252434 0.26457256 -0.0993616 0.54695326 0.4154407 0.937324 -0.1320259 -0.54286325
-0.50893164 -0.34127447 0.5591833 0.5775268 0.8511795 0.37065485 -0.73165923 0.18831483
0.19924207 0.61654985 -0.1391979 0.32642838 0.07460293 -0.15531148 -0.3103118 -0.09363676
1.0379335 0.43041468 0.32280532 0.07126374 0.61201626 0.39590916 -0.5013334 0.8885686
-0.76115423 -0.73355 0.30850127 0.655043 0.16016133 0.8461262 0.67397475 0.7613456
0.21347989 0.9053495 0.29613188 0.45699623 0.58488595 0.16591664 0.34475765 0.32440755
0.10956578 0.37314 -0.31816494 0.64154494 0.3373068 0.71826655 0.5770301 0.18694954
0.6111884 -0.13025323 -0.3550839 -0.95341045 -0.11457173 -0.08388337 0.13943261 -0.06408703
-0.1465539 0.07545566 0.062790416 0.1270226 -0.101484634 0.042520918 -0.0713962 -0.044062335
-0.15628855 -0.089382075 -0.06006208 0.08386619 0.035828345 0.048443906 0.19574453 0.19114017
0.13376045 0.0062450324 -0.13567145 0.15326665 -0.049041472 -0.01585508 -0.48536038 -0.21604174
0.19105421 0.84014636 0.57803833 0.07685852 -0.7712189 -0.23583382 0.11418692 0.9190225
-0.12626585 0.20881225 0.14605176 -0.37978026 -0.1928101 0.24284878 1.4735801 0.30587962
0.1836345 -0.0057764766 0.82515633 0.42469287 -0.46598655 0.96164864 -1.0121273 -0.85050374
0.5269895 0.46593738 -0.27212882 -0.42759717 -0.80995685 -0.043142714 1.0524023 0.365149
0.2703402 -0.95103353 0.20086427 0.124708794 0.05480189 0.5803675 0.19654898 -0.040317982
-1.0922039 -0.44000807 -0.037306376 0.13305517 -0.25867867 -0.27319053 0.5738364 -1.0500088
1.2237434 0.8325374 -0.43704847 -0.23052253 0.20767209 0.66896224 0.82263607 0.0154462885
-0.99341065 -0.2740575 0.09059604 0.76677805 -0.17512546 0.24902742 -0.19412251 -0.37739012
-0.37353787 0.27408236 1.5342634 0.29836294 0.14968663 0.19248803 0.66528535 0.41952267

input_layer.bias f4 [50]
00000000: 712c 14bd 7ddd 913d 4f68 b23e 4f09 e43d
00000010: fc41 c23d 24b8 093f 2454 acbd 4105 093e
00000020: 089c 7b3d 7f7d 223e c5aa 363d a500 2bbe
00000030: ce79 653c 7924 b53e 1646 043e bcc8 fe3d
00000040: d92a 363a 7cde fb3e 5f7d d83d 2867 33be
00000050: 4638 0fbe 63ee 3d3c 10df bfbc aa31 5b3e
00000060: e4d5 3cbd 9b1b 3e3e 095e 29be 72dd 3ebe
00000070: f250 2b3d 3250 febd 5442 6abd 8506 ce3d
00000080: b732 2ebe a0c1 9a3e cdc1 f3bd 93f0 b63e
00000090: a410 713e 11a6 16bd 02c0 2fbe 5fdd a93c
000000a0: fd61 e0bd 473b 693e 48f1 28be 774c 0c3d
000000b0: e05a ddbd 2629 01be 857c d1bd 1847 9fbc
000000c0: 4351 9e3d bf19 3b3e
-0.036175195 0.07122324 0.34845206 0.11134588 0.09485242 0.537966 -0.08414486 0.1338091
0.0614281 0.15868185 0.044596452 -0.16699465 0.014006091 0.3537939 0.1291736 0.12440631
0.0006949134 0.4919318 0.10570788 -0.1751982 -0.1398631 0.01159248 -0.023421794 0.21405664
-0.04610242 0.18565218 -0.16539778 -0.18639162 0.041825242 -0.1241764 -0.05719216 0.10059837
-0.17011534 0.3022585 -0.11902199 0.3573042 0.23541504 -0.036779467 -0.17163089 0.02073544
-0.1095619 0.22776519 -0.16498291 0.03425261 -0.10808349 -0.12613353 -0.10228828 -0.01944308
0.07730343 0.1827154

hidden_layer_list.0.weight f4 [30, 50]
00000000: 4700 943d 3805 b3be b299 193e 2310 2f3f
00000010: 089d 3d3f 5cc3 173e 57d4 f3bd 50ab 453f
00000020: 4185 ccbe 4b0d 323f a537 a9be 0f13 ca3d
00000030: b3e1 83bd a710 c83d 04f2 d3bd e56d 1abe
00000040: 8dcb b63d fa71 993e 8152 063f 32d1 06bd
00000050: 9c4a acbd c605 57bd c70c c5bd fcf1 d43e
00000060: 649f 0b3e e0b7 503f 24c6 da3d d345 653c
00000070: 9827 2d3f 49c5 bf3d 6afa ab3d 18a2 ccbe
00000080: 3181 12bd 4eac 7d3e 15cc a0bb a5f7 7cbd
00000090: 2290 b8bd 39e3 ea3d 6934 f13d 40b7 61bd
000000a0: 0c9e f8bc 5342 a33e 131d 3dbd dc69 413f
000000b0: a2cc 00be 2435 8a3d 8b28 02be 4f2e 8abd
000000c0: 3acf 1d3f 7285 bebd 4c24 bcbc f764 84bd
000000d0: 952f 81bd e729 b0bd fd29 cabd 4172 b4bd
000000e0: 2cde 0a3e 3b77 88bd 88da f0bd 6b10 c73d
000000f0: d9ba 603d 1d3a c73d 160c 10be e5d8 09be
00000100: 8490 cdbd 1d94 98bd a147 a3b9 8690 7a3d
00000110: 6091 a93d ee1c f9bd 3404 673d fc7e a7bd
00000120: 3126 053d 87de 353d 8866 b93c 20f2 4c3d
00000130: 9c63 e7bb f935 bf3d cb9f f13c 3ebe fd3d
00000140: ba21 fb3c d652 99bd 2600 ba3d 120e fb3b
00000150: 98f4 0b3e 381f 80bc 5548 0f3e 5313 a9bd
00000160: 3690 913d eb10 d8bd 64d7 c63d 5b4c d23c
00000170: 4e6f a43d 816c f9bd 360e 10be 1d8e 8b3d
00000180: dc50 6ebd 9b69 653d b3d5 abbd 0512 33bd
00000190: 0d16 263a d86a ae3d 3e8f a33d 36f9 4ebc
000001a0: 40d8 23bd f6bb 20bb c646 953d 877b f5bd
000001b0: 5300 31bd 029a 0bbe 673a a73c aa08 89bc
000001c0: 1013 a43d ab60 e73d e4a4 f7bd 022e 80bd
000001d0: 693e babc 97d7 b8ba 1b3a 04bd b01a b6bd
000001e0: 80d3 5fbd 14af 6ebb 23ea e83d 70a0 13bd
000001f0: 2245 bf3d 8a1f eabd d23b cf3b 1105 e2bd
00000200: d7e3 07be d79f 653c 7d9e 84bd fc3a d53d
00000210: 9fc4 e43d 6623 10be f679 21bc abeb c5bc
00000220: 2615 a5bd 2734 cabd 8121 75bd 49bf 7f3d
00000230: 65ba 093d f950 ae3d 5730 0abc 7d6d 963d
00000240: 7208 e03c 18a0 fcbc cd74 07bc 6fb5 03be
00000250: 85d8 54bb ee4b 3ebd 62da 41bd e9e3 98bd
00000260: f4cf 47bd 9e68 fabd 63b0 1cbc 7d6a c1bc
00000270: 4490 18bd a4d6 d63d 82cf 9d3d 89dc b43c
00000280: fd3f 8fbd ebc3 933c 0648 c7bd 583a a53d
00000290: 0cf2 e93d 77a4 1fbd 805d df3d 203c eb3d
000002a0: c7ee d7bc 5618 57bd 26e0 e93b 5574 bf3c
000002b0: 3a0d 06be 639a dabc 3471 51bd 35b0 9c3d
000002c0: 6806 85bb f48e be3d 700a dd3d b689 35bd
000002d0: 7860 f93c dd62 f5bc 4071 7cbd dd3f c5bd
000002e0: 2b77 563b c2a8 cd3c 900b 2fbd 3abe c43c
000002f0: 21ff b43d ce7b 713d 13df 6e3d 6041 b33c
00000300: 1ba5 debd 6ecf d3bd b7c8 d6bd cc53 be3d
00000310: 0b19 ffbd 7c3b d8bd 6028 9a3d 289f 863d
00000320: 92e5 08be 8b5a a73d b92c 04bd 6d99 f93c
00000330: 546f b5bd 23dd afbc a3be 003d 20d7 dc3d
00000340: b7a1 af3d cc7e 9dbd d3fa bdbd 3f00 0dbc
00000350: eacb 353d e3cd 9e3d 1e4f 10be 2c58 3dbc
00000360: f1df a33b 5443 87bd 5571 e43d c1c3 19bd
00000370: 1311 0abe 9fee acbd 4195 943b cf88 d7bd
00000380: 5a4f 043d 7ce0 0c3e 61b4 bd3b 1cb4 0ebd
00000390: 7e6e 083e 16d1 d53d 1277 c03d 9fc2 2f3c
000003a0: 87da d33b db9d e0bd 6bdc 6b3c f9da 0c3e
000003b0: b8fa f43b 2f3b 01be e3f7 9e3d 52f7 013e
000003c0: 66cf f23d f090 da3b dfa4 d93c 0b7c bb3c
000003d0: 6769 6dbd 950a a9bc 6748 ec3d 6564 6c3c
000003e0: 8b7c 083e 9955 c0bd 9f50 a9bc ab0f 04bf
000003f0: 7d1a cf3c 6f39 2f3f fe98 ce3e bc7e db3d
0.072266154 -0.3496492 0.15000036 0.68384 0.74067736 0.14820617 -0.11905735 0.7721453
-0.39945415 0.69551533 -0.33050266 0.098669164 -0.06439533 0.09768801 -0.10348895 -0.15080984
0.08925543 0.2996977 0.5246964 -0.032914348 -0.08412668 -0.05249574 -0.09621578 0.4159087
0.13635021 0.8153057 0.106823236 0.013993698 0.6763854 0.09363801 0.08397372 -0.39967418
-0.035767738 0.2477276 -0.004907141 -0.06175961 -0.09011866 0.114691205 0.117775746 -0.0551064
-0.0303488 0.3188654 -0.046170305 0.75552154 -0.12578061 0.06748417 -0.12710778 -0.06747114
0.6164433 -0.093027964 -0.022966526 -0.0646457 -0.06307904 -0.08601742 -0.0987129 -0.08810855
0.13561314 -0.066633664 -0.117604315 0.09719928 0.05486569 0.09727881 -0.1406711 -0.13461645
-0.1003733 -0.07450125 -0.0003114315 0.061172985 0.08279681 -0.12163721 0.056400493 -0.08178517
0.032507125 0.04440167 0.022631899 0.050035596 -0.007061435 0.09336466 0.02949514 0.123898014
0.03065573 -0.07486503 0.090820596 0.0076615894 0.13667524 -0.015639886 0.13992436 -0.08255639
0.07107584 -0.10550102 0.09709051 0.025671175 0.08029042 -0.121788986 -0.14067921 0.06814215
-0.058182582 0.056008916 -0.08390369 -0.043718357 0.0006335683 0.085164726 0.07986306 -0.012632659
-0.040001154 -0.0024526096 0.072888896 -0.119864516 -0.0432132 -0.13632968 0.02041359 -0.016727764
0.080114484 0.11297735 -0.12091997 -0.06258775 -0.022734838 -0.0014102337 -0.032281976 -0.08891809
-0.05464506 -0.0036420273 0.11372783 -0.036041677 0.09339358 -0.11431797 0.00632427 -0.110361226
-0.13270508 0.01401516 -0.06475542 0.10411641 0.11170315 -0.14076003 -0.009855738 -0.024160227
-0.08060674 -0.098732285 -0.059846405 0.062438283 0.033625025 0.08511538 -0.008434377 0.07345102
0.027347777 -0.030838057 -0.008267594 -0.1286218 -0.0032477689 -0.04645913 -0.047327407 -0.074653454
-0.048782304 -0.122269854 -0.009563538 -0.023610348 -0.037246957 0.10490158 0.077055946 0.022077816
-0.06994627 0.018037757 -0.09730534 0.08067769 0.1142312 -0.038975205 0.109065056 0.11486077
-0.026358975 -0.052513443 0.0071373163 0.023370901 -0.13090983 -0.026684945 -0.05113335 0.07650796
-0.0040596016 0.0930461 0.107930064 -0.044320785 0.030441508 -0.029954368 -0.06163144 -0.096313216
0.0032724838 0.025104884 -0.042735636 0.024016488 0.088377245 0.05895596 0.05831821 0.02188176
-0.10871335 -0.103422984 -0.10487502 0.09293327 -0.124559484 -0.10558221 0.07527232 0.065733254
-0.13368824 0.081715666 -0.032269213 0.030468667 -0.08859125 -0.02146775 0.031431805 0.10783219
0.085757665 -0.076902 -0.092763565 -0.008606016 0.04438392 0.077541135 -0.14092681 -0.011556666
0.005001061 -0.06604639 0.11154429 -0.0375402 -0.13483076 -0.08443951 0.004534394 -0.10524141
0.032302238 0.13757509 0.005789325 -0.034839734 0.133234 0.104402706 0.09397711 0.010727554
0.0064652595 -0.109676085 0.014395813 0.13755406 0.007476177 -0.12620233 0.077621244 0.12692001
0.11855964 0.00667011 0.026567874 0.022886297 -0.057961848 -0.020634929 0.11537247 0.014428233
0.1332876 -0.093913265 -0.020668326 -0.5158641 0.025281185 0.6844701 0.403511 0.10717532

hidden_layer_list.0.bias f4 [30]
00000000: a2c0 a33b 1c62 3bbd e807 e8bd bcc0 1cbe
00000010: c5f4 9cbd 43dd c63d 59f6 873e 5958 723e
00000020: ddd9 0d3e 2458 963e 499f c3bb d025 283e
00000030: d7ae fcbd 319f 87bd f7d2 08be d996 c7bd
00000040: f7b7 80bd 69a3 b7bc 8f6c 613e fc32 d13d
00000050: 0fcc 673e 2ac5 c63d 01f6 543e e649 9bbd
00000060: a268 0fbe f11d 533c f196 933e 6c9f 3bb9
00000070: 7a4c 9e3d 26c5 043e
0.004997329 -0.04574786 -0.11329633 -0.15307897 -0.076638736 0.09710171 0.26555136 0.23666514
0.1385264 0.2936412 -0.005969916 0.16420674 -0.123380356 -0.0662216 -0.13361727 -0.09745569
-0.062850885 -0.022416787 0.22014068 0.102148026 0.22636436 0.09705575 0.20796968 -0.075824544
-0.14004758 0.012885557 0.28826097 -0.00017893099 0.077294305 0.12965831

output_layer.weight f4 [4, 30]
00000000: 085f 3b3e 28ac 30be df7d 9abd d622 b8bb
00000010: dbfe 333e 1118 ba3e cfdc 9abe a92d 30bf
00000020: b50e 843e 3de3 0abd deb6 d9bd de28 b2bd
00000030: bf65 d93d bb35 e83d 202f 0c3e 3cd8 17bd
00000040: f2ba 80bd 6e51 43bd 5a3f 4d3e cab2 46be
00000050: 0621 803e aceb 1ebb 27d7 5bbe 7487 1d3e
00000060: 0b76 85bd b93e 9abd 2c6c c1be ca93 2f3e
00000070: 2d1e ae3e 7c96 adbe de2f 843e 205c 7fbd
00000080: 7a8c d33c 5514 aabd cdee 3c3d c59b f03d
00000090: a98f abbf 2019 6abf df5b c63e 42d1 8abf
000000a0: 3210 04be ffab ac3e beb6 353e 9098 34be
000000b0: 1e6f 123e 96c1 113e b512 733e 593d ddbf
000000c0: 5d50 9c3e 048d aa3e 3cf2 483e 8715 513e
000000d0: 8190 c0bf f215 8ebd e5c4 1b3d c96f a03d
000000e0: 68e0 b0bf 2e23 133f 919c b63e ca7e 9b3e
000000f0: 9060 16be 5f54 5abd 0664 f93d 26e5 9b3d
00000100: 3fff afbc ea38 a2be 6793 ae3d efd1 d43e
00000110: 4f9e 5ebe ac83 233e 0f1a f9bc c985 36bf
00000120: b255 013e b89f 0abd 4e25 27be b0a5 2abe
00000130: e9ae 3abf baf4 2bbe 3790 353d e666 a93e
00000140: efda 14bd 959d 3abe 6cf3 d03d 263c bfbd
00000150: 52ca 123e bc89 08bc 8700 2c3e a463 59bf
00000160: d79d 7abf 310e c43e e3fd 8fbf 411f ecbc
00000170: 1008 113e f324 02be 4f01 9e3c 69aa 89bf
00000180: eb0d d63e 50ec 6a3e f292 6fbf 9086 dd3e
00000190: 9869 f9bd 21d3 9abe 0c4b c5bc 6d21 12be
000001a0: dd4e 09be d271 72bd ba83 c1be eafc d23e
000001b0: 8b59 3bbf e1ea 6bbf ddde 80bf a2a3 98bf
000001c0: ebf6 153f 1b38 2a3e 9cab 13be f2a1 06be
000001d0: c5ff 293f 0760 b9be 0f5b b1be fdc5 42bf
0.1829797 -0.17253172 -0.07543539 -0.005619387 0.17577688 0.36346486 -0.3024659 -0.6881967
0.2579247 -0.033908118 -0.10630582 -0.08699201 0.1061511 0.11338373 0.13689852 -0.03707145
-0.06285657 -0.04768508 0.20043698 -0.1940414 0.25025195 -0.0024249358 -0.21468793 0.15383703
-0.065166555 -0.07531495 -0.3777784 0.17146221 0.34007397 -0.33903873 0.2581777 -0.062343717
0.02582382 -0.08304659 0.046126176 0.11748461 -1.3403217 -0.9144459 0.38741967 -1.084511
-0.12896803 0.33724973 0.17745492 -0.17636323 0.143002 0.14234003 0.23737605 -1.7284347
0.30530062 0.3331071 0.19623655 0.20418368 -1.5044099 -0.069377795 0.03802957 0.07833821
-1.3818483 0.57475555 0.35666326 0.3037017 -0.14685273 -0.05330312 0.12177281 0.07612066
-0.021484016 -0.31684047 0.085242085 0.41566417 -0.21740077 0.15968198 -0.030407934 -0.7129789
0.12630346 -0.033843726 -0.16322824 -0.16664767 -0.7292314 -0.16792575 0.044326987 0.33086318
-0.036341604 -0.18224175 0.10202679 -0.09337644 0.14334992 -0.00833362 0.16797076 -0.84917665
-0.97897094 0.38292077 -1.1249355 -0.028823497 0.14163232 -0.12709408 0.019287733 -1.075513
0.41807494 0.22941709 -0.93583596 0.43266726 -0.121783435 -0.30239204 -0.024083637 -0.14270563
-0.1340899 -0.05919058 -0.37795812 0.41208583 -0.73183507 -0.9215527 -1.0068012 -1.1924937
0.5857989 0.16622965 -0.14420933 -0.13147715 0.664059 -0.36206076 -0.34639785 -0.76083356

output_layer.bias f4 [4]
00000000: 1145 c83c cdf7 02bd eb18 703e 83f6 9c3d
0.024446996 -0.031974602 0.23447005 0.07664206
