K-Digital Training/김소현 강사님/Pytorch/숙제/language_model/best_model_epoch_81.pth (torch, 14536 bytes, 6 tensors)

input_layer.weight f4 [50, 26]
0.10105143 -0.0865614 -0.038019367 0.09205082 -0.18463096 0.11761423 -0.040346052 0.099772885
0.027263474 -0.024013273 0.05439495 0.009674759 0.07162714 -0.076426655 -0.014298584 -0.017655812
0.028425848 -0.00078344916 0.1714382 0.061029404 -0.073034875 -0.118446566 -0.032872133 -0.08459287
-0.062845126 0.009390355 0.5852657 0.45360366 -0.6217202 -0.1179353 -0.42999712 -0.08745071
0.87359387 -0.15819228 -0.039144456 -0.4091127 0.6183831 -0.12742463 0.30247277 0.23048462
0.25928885 0.040220894 -0.89459765 -0.20335005 -0.15250632 0.0073415623 -0.3091264 -0.45411554
0.1787301 -0.9072994 0.5057665 0.49686503 0.2615517 0.2519363 0.108104 0.9176271
0.57710564 -0.093866475 -0.2577558 -0.092652105 0.17318477 1.1129569 0.65791273 0.3711343
0.23951373 0.020629952 -0.2902733 0.38262373 0.40222824 0.39921176 0.3091272 0.16893135
0.845363 0.121371984 -0.605858 0.39438346 -0.69691366 -0.4982035 -0.5784678 -0.13447198
0.4235895 -0.036148183 0.40645793 0.45276096 -0.40234742 0.19012795 -0.23938107 0.008632253
-0.69322896 0.28294393 -0.15307681 -0.3192566 0.27417204 -0.06367376 0.592795 0.07958449
0.20641093 0.25385198 -0.10822579 0.4591968 0.41806465 0.71305746 -0.07265847 -0.44295844
-0.4811302 -0.30701452 0.55453545 0.5222009 0.7854159 0.3811895 -0.6429819 0.24477977
0.18170597 0.48351687 -0.1974095 0.28789547 0.0576301 -0.13633396 -0.23645492 -0.12920383
0.84863603 0.41781732 0.32535273 0.08687292 0.5008439 0.37242672 -0.3709753 0.75901794
-0.5981715 -0.59473556 0.27647036 0.51697 0.21199425 0.75915486 0.6099228 0.62189674
0.22870792 0.66808695 0.26369542 0.356227 0.41219667 0.22511756 0.2997842 0.35343736
0.13131978 0.35365033 -0.07971126 0.56060845 0.36172244 0.60958827 0.5120336 0.24898197
0.4158809 -0.035845723 -0.29443082 -0.65000606 -0.11457173 -0.08388337 0.13943261 -0.06408703
-0.1465539 0.07545566 0.062790416 0.1270226 -0.101484634 0.042520918 -0.0713962 -0.044062335
-0.15628855 -0.089382075 -0.06006208 0.08386619 0.035828345 0.048443906 0.19574453 0.19114017
0.13376045 0.0062450324 -0.13567145 0.15326665 -0.049041472 -0.01585508 -0.46271122 -0.17399782
0.1965254 0.7818806 0.51980716 0.11128263 -0.6839083 -0.14422089 0.092876054 0.7746824
-0.1978011 0.16817145 0.121376015 -0.36673996 -0.10853403 0.20091407 1.2805878 0.29428038
0.18539886 0.020164583 0.70404947 0.40410125 -0.30618095 0.8430421 -0.8403925 -0.7306457
0.49159765 0.39616126 -0.26321828 -0.38367963 -0.7582627 -0.0771446 0.95656574 0.2609102
0.28430614 -0.82504493 0.22732055 0.17220666 0.06682594 0.5657385 0.12095805 -0.0048407055
-0.88276905 -0.4399259 -0.036479287 0.09921461 -0.1499845 -0.24444291 0.41082823 -0.92065454
1.055585 0.72982275 -0.41220832 -0.18772246 0.21266057 0.60603946 0.759278 0.04778993
-0.89667636 -0.18284884 0.06783052 0.611229 -0.2541165 0.20639268 -0.22042513 -0.362446
-0.28474414 0.22945161 1.3322381 0.285074 0.15178134 0.21790731 0.5355149 0.39793342
00000000: 0df4 ce3d 1a47 b1bd 32ba 1bbd 2485 bc3d
00000010: e60f 3dbe bbdf f03d e741 25bd ba55 cc3d
00000020: a657 df3c 7cb7 c4bc 3dcd 5e3d e182 1e3c
00000030: 40b1 923d 9485 9cbd 9c44 6abc eca2 90bc
00000040: 53dd e83c 6260 4dba 7f8d 2f3e f8f9 793d
00000050: 4f93 95bd 1d94 f2bd eea4 06bd 073f adbd
00000060: f2b4 80bd 01da 193c f9d3 153f bd3e e83e
00000070: 0e29 1fbf 1088 f1bd 9528 dcbe 5c19 b3bd
00000080: d9a3 5f3f 28fd 21be f055 20bd 3877 d1be
00000090: 5b4e 1e3f 9a7b 02be b6dd 9a3e 2904 6c3e
000000a0: 82c1 843e aabe 243d 5a04 65bf ff3a 50be
000000b0: 9e2a 1cbe 7d91 f03b d145 9ebe d581 e8be
000000c0: 0605 373e c644 68bf ea79 013f 1865 fe3e
000000d0: 1bea 853e cbfd 803e a165 dd3d 9ce9 6a3f
000000e0: 32bd 133f 113d c0bd 91f8 83be 63c0 bdbd
000000f0: 5957 313e 5f75 8e3f f86c 283f 5105 be3e
00000100: 1643 753e 2500 a93c b49e 94be 42e7 c33e
00000110: dcf0 cd3e 7c65 cc3e ec45 9e3e 57fc 2c3e
00000120: b669 583f e091 f83d 8319 1bbf a1ec c93e
00000130: ef68 32bf 8714 ffbe 7716 14bf 06b3 09be
00000140: b9e0 d83e 1e10 14bd 411b d03e 49d0 e73e
00000150: 7b00 cebe e7b0 423e 5020 75be 4b6e 0d3c
00000160: 7477 31bf 07de 903e 2bc0 1cbe 9a75 a3be
00000170: 4760 8c3e 6367 82bd 6ac1 173f 31fd a23d
00000180: 635d 533e e3f8 813e 7ca5 ddbd d81b eb3e
00000190: 920c d63e ef8a 363f f7cd 94bd 73cb e2be
000001a0: b356 f6be 0231 9dbe 09f6 0d3f f5ae 053f
000001b0: 0411 493f 452b c33e 769a 24bf 8ca7 7a3e
000001c0: 2111 3a3e 868f f73e b725 4abe 0967 933e
000001d0: 8a0d 6c3d 219b 0bbe 3d21 72be 024e 04be
000001e0: 3640 593f 27ec d53e a294 a63e 6eea b13d
000001f0: 4e37 003f b7ae be3e 79f0 bdbe 004f 423f
00000200: c421 19bf 9740 18bf 868d 8d3e 2558 043f
00000210: 0515 593e f957 423f e723 1c3f a034 1f3f
00000220: 6932 6a3e bf07 2b3f 1603 873e 6363 b63e
00000230: 710b d33e 3885 663e 517d 993e bef5 b43e
00000240: b178 063e a811 b53e a83f a3bd 0984 0f3f
00000250: af33 b93e fa0d 1c3f a214 033f 21f5 7e3e
00000260: 57ee d43e f7d2 12bd a3bf 96be cc66 26bf
00000270: 95a4 eabd 0bcb abbd 6cc7 0e3e 1040 83bd
00000280: 3a12 16be 7f88 9a3d 4398 803d 3612 023e
00000290: 2dd7 cfbd 6a2a 2e3d 2c38 92bd b57a 34bd
000002a0: 1b0a 20be f30d b7bd a803 76bd 09c2 ab3d
000002b0: bec0 123d 1e6d 463d 4171 483e 40ba 433e
000002c0: 80f8 083e 21a3 cc3b 75ed 0abe eff1 1c3e
000002d0: b6df 48bd 83e2 81bc 7ce8 ecbe 7c2c 32be
000002e0: f43d 493e 5429 483f 1512 053f 26e8 e33d
000002f0: 9d14 2fbf a4ae 13be cd35 be3d 9651 463f
00000300: 5f8c 4abe 2335 2c3e fd93 f83d 57c5 bbbe
00000310: 1747 debd 6bbc 4d3e 4dea a33f ebab 963e
00000320: 33d9 3d3e 3230 a53c 963c 343f 5ce6 ce3e
00000330: c0c3 9cbe 9bd1 573f f623 57bf 990b 3bbf
00000340: b0b2 fb3e a6d5 ca3e 8cc4 86be a871 c4be
00000350: 811d 42bf fdfd 9dbd 7ee1 743f 0696 853e
00000360: 9390 913e 2536 53bf b8c6 683e f156 303e
00000370: 0adc 883d 3dd4 103f dbb8 f73d c89e 9ebb
00000380: 27fd 61bf f83d e1be 4e6b 15bd 0831 cb3d
00000390: 8995 19be 3e4f 7abe 1458 d23e 04b0 6bbf
000003a0: 691d 873f aad5 3a3f f80c d3be 513a 40be
000003b0: b1c3 593e 6725 1b3f 0b60 423f 60bf 433d
000003c0: 958c 65bf ba3c 3bbe baea 8a3d 8179 1c3f
000003d0: 8f1b 82be 9a58 533e 20b7 61be 8692 b9be
000003e0: fcc9 91be 5df5 6a3e c786 aa3f 38f5 913e
000003f0: 916c 1b3e 1823 5f3e 8117 093f eebd cb3e

input_layer.bias f4 [50]
-0.036175195 0.06340791 0.32463887 0.104474396 0.09464483 0.49413207 -0.08414486 0.13431643
0.054648086 0.1586618 0.038943652 -0.16699465 0.014006091 0.34137997 0.12339041 0.116040125
0.0006949134 0.46535167 0.099384576 -0.1751982 -0.1398631 0.01159248 -0.023421794 0.21006566
-0.04610242 0.18271135 -0.16539778 -0.18639162 0.04240165 -0.1241764 -0.05719216 0.09315334
-0.17011534 0.28455496 -0.11902199 0.3425154 0.22345002 -0.036779467 -0.17163089 0.02073544
-0.1095619 0.2221695 -0.16498291 0.034856554 -0.10808349 -0.12613353 -0.10228828 -0.01944308
0.07778034 0.17246258
00000000: 712c 14bd 02dc 813d 1137 a63e acf6 d53d
00000010: 26d5 c13d e1fe fc3e 2454 acbd 3f8a 093e
00000020: acd6 5f3d 3d78 223e 6183 1f3d a500 2bbe
00000030: ce79 653c 5bc9 ae3e 1cb4 fc3d 72a6 ed3d
00000040: d92a 363a 9342 ee3e 248a cb3d 2867 33be
00000050: 4638 0fbe 63ee 3d3c 10df bfbc 741b 573e
00000060: e4d5 3cbd af18 3b3e 095e 29be 72dd 3ebe
00000070: 5aad 2d3d 3250 febd 5442 6abd 2ec7 be3d
00000080: b732 2ebe 30b1 913e cdc1 f3bd 2e5e af3e
00000090: 15d0 643e 11a6 16bd 02c0 2fbe 5fdd a93c
000000a0: fd61 e0bd 6780 633e 48f1 28be bfc5 0e3d
000000b0: e05a ddbd 2629 01be 857c d1bd 1847 9fbc
000000c0: 4d4b 9f3d 089a 303e

hidden_layer_list.0.weight f4 [30, 50]
0.072266154 -0.29690176 0.10897297 0.5108951 0.61428344 0.12729058 -0.11905735 0.62841636
-0.321026 0.5552943 -0.2577515 0.098669164 -0.06439533 0.109843925 -0.04438182 -0.12334388
0.08925543 0.26727134 0.4711015 -0.032914348 -0.08412668 -0.05249574 -0.09621578 0.33803716
0.13635021 0.67696184 0.106823236 0.013993698 0.5355272 0.09363801 0.08397372 -0.32485494
-0.035767738 0.23662208 -0.004907141 -0.0556249 -0.07557511 0.114691205 0.117775746 -0.0551064
-0.0303488 0.250454 -0.046170305 0.6260779 -0.12578061 0.06748417 -0.12710778 -0.06747114
0.47998464 -0.06721644 -0.022966526 -0.0646457 -0.06307904 -0.08601742 -0.0987129 -0.08810855
0.13561314 -0.066633664 -0.117604315 0.09719928 0.05486569 0.09727881 -0.1406711 -0.13461645
-0.1003733 -0.07450125 -0.0003114315 0.061172985 0.08279681 -0.12163721 0.056400493 -0.08178517
0.032507125 0.04440167 0.022631899 0.050035596 -0.007061435 0.09336466 0.02949514 0.123898014
0.03065573 -0.07486503 0.090820596 0.0076615894 0.13667524 -0.015639886 0.13992436 -0.08255639
0.07107584 -0.10550102 0.09709051 0.025671175 0.08029042 -0.121788986 -0.14067921 0.06814215
-0.058182582 0.056008916 -0.08390369 -0.043718357 0.0006335683 0.085164726 0.07986306 -0.012632659
-0.040001154 -0.0024526096 0.072888896 -0.119864516 -0.0432132 -0.13632968 0.02041359 -0.016727764
0.080114484 0.11297735 -0.12091997 -0.06258775 -0.022734838 -0.0014102337 -0.032281976 -0.08891809
-0.05464506 -0.0036420273 0.11372783 -0.036041677 0.09339358 -0.11431797 0.00632427 -0.110361226
-0.13270508 0.01401516 -0.06475542 0.10411641 0.11170315 -0.14076003 -0.009855738 -0.024160227
-0.08060674 -0.098732285 -0.059846405 0.062438283 0.033625025 0.08511538 -0.008434377 0.07345102
0.027347777 -0.030838057 -0.008267594 -0.1286218 -0.0032477689 -0.04645913 -0.047327407 -0.074653454
-0.048782304 -0.122269854 -0.009563538 -0.023610348 -0.037246957 0.10490158 0.077055946 0.022077816
-0.06994627 0.018037757 -0.09730534 0.08067769 0.1142312 -0.038975205 0.109065056 0.11486077
-0.026358975 -0.052513443 0.0071373163 0.023370901 -0.13090983 -0.026684945 -0.05113335 0.07650796
-0.0040596016 0.0930461 0.107930064 -0.044320785 0.030441508 -0.029954368 -0.06163144 -0.096313216
0.0032724838 0.025104884 -0.042735636 0.024016488 0.088377245 0.05895596 0.05831821 0.02188176
-0.10871335 -0.103422984 -0.10487502 0.09293327 -0.124559484 -0.10558221 0.07527232 0.065733254
-0.13368824 0.081715666 -0.032269213 0.030468667 -0.08859125 -0.02146775 0.031431805 0.10783219
0.085757665 -0.076902 -0.092763565 -0.008606016 0.04438392 0.077541135 -0.14092681 -0.011556666
0.005001061 -0.06604639 0.11154429 -0.0375402 -0.13483076 -0.08443951 0.004534394 -0.10524141
0.032302238 0.13757509 0.005789325 -0.034839734 0.133234 0.104402706 0.09397711 0.010727554
0.0064652595 -0.109676085 0.014395813 0.13755406 0.007476177 -0.12620233 0.077621244 0.12692001
0.11855964 0.00667011 0.026567874 0.022886297 -0.057961848 -0.020634929 0.11537247 0.014428233
0.1332876 -0.093913265 -0.020668326 -0.45642698 0.021661317 0.58760685 0.36633795 0.0965463
00000000: 4700 943d 8203 98be 382d df3d 05ca 023f
00000010: ae41 1d3f 7658 023e 57d4 f3bd e5df 203f
00000020: 855d a4be c427 0e3f 01f8 83be 0f13 ca3d
00000030: b3e1 83bd daf5 e03d b6c9 35bd b79b fcbd
00000040: 8dcb b63d cad7 883e 3734 f13e 32d1 06bd
00000050: 9c4a acbd c605 57bd c70c c5bd 3513 ad3e
00000060: 649f 0b3e 5f4d 2d3f 24c6 da3d d345 653c
00000070: 5018 093f 49c5 bf3d 6afa ab3d 6353 a6be
00000080: 3181 12bd 0f4d 723e 15cc a0bb efd6 63bd
00000090: 20c7 9abd 39e3 ea3d 6934 f13d 40b7 61bd
000000a0: 0c9e f8bc 823b 803e 131d 3dbd a446 203f
000000b0: a2cc 00be 2435 8a3d 8b28 02be 4f2e 8abd
000000c0: 8cc0 f53e c6a8 89bd 4c24 bcbc f764 84bd
000000d0: 952f 81bd e729 b0bd fd29 cabd 4172 b4bd
000000e0: 2cde 0a3e 3b77 88bd 88da f0bd 6b10 c73d
000000f0: d9ba 603d 1d3a c73d 160c 10be e5d8 09be
00000100: 8490 cdbd 1d94 98bd a147 a3b9 8690 7a3d
00000110: 6091 a93d ee1c f9bd 3404 673d fc7e a7bd
00000120: 3126 053d 87de 353d 8866 b93c 20f2 4c3d
00000130: 9c63 e7bb f935 bf3d cb9f f13c 3ebe fd3d
00000140: ba21 fb3c d652 99bd 2600 ba3d 120e fb3b
00000150: 98f4 0b3e 381f 80bc 5548 0f3e 5313 a9bd
00000160: 3690 913d eb10 d8bd 64d7 c63d 5b4c d23c
00000170: 4e6f a43d 816c f9bd 360e 10be 1d8e 8b3d
00000180: dc50 6ebd 9b69 653d b3d5 abbd 0512 33bd
00000190: 0d16 263a d86a ae3d 3e8f a33d 36f9 4ebc
000001a0: 40d8 23bd f6bb 20bb c646 953d 877b f5bd
000001b0: 5300 31bd 029a 0bbe 673a a73c aa08 89bc
000001c0: 1013 a43d ab60 e73d e4a4 f7bd 022e 80bd
000001d0: 693e babc 97d7 b8ba 1b3a 04bd b01a b6bd
000001e0: 80d3 5fbd 14af 6ebb 23ea e83d 70a0 13bd
000001f0: 2245 bf3d 8a1f eabd d23b cf3b 1105 e2bd
00000200: d7e3 07be d79f 653c 7d9e 84bd fc3a d53d
00000210: 9fc4 e43d 6623 10be f679 21bc abeb c5bc
00000220: 2615 a5bd 2734 cabd 8121 75bd 49bf 7f3d
00000230: 65ba 093d f950 ae3d 5730 0abc 7d6d 963d
00000240: 7208 e03c 18a0 fcbc cd74 07bc 6fb5 03be
00000250: 85d8 54bb ee4b 3ebd 62da 41bd e9e3 98bd
00000260: f4cf 47bd 9e68 fabd 63b0 1cbc 7d6a c1bc
00000270: 4490 18bd a4d6 d63d 82cf 9d3d 89dc b43c
00000280: fd3f 8fbd ebc3 933c 0648 c7bd 583a a53d
00000290: 0cf2 e93d 77a4 1fbd 805d df3d 203c eb3d
000002a0: c7ee d7bc 5618 57bd 26e0 e93b 5574 bf3c
000002b0: 3a0d 06be 639a dabc 3471 51bd 35b0 9c3d
000002c0: 6806 85bb f48e be3d 700a dd3d b689 35bd
000002d0: 7860 f93c dd62 f5bc 4071 7cbd dd3f c5bd
000002e0: 2b77 563b c2a8 cd3c 900b 2fbd 3abe c43c
000002f0: 21ff b43d ce7b 713d 13df 6e3d 6041 b33c
00000300: 1ba5 debd 6ecf d3bd b7c8 d6bd cc53 be3d
00000310: 0b19 ffbd 7c3b d8bd 6028 9a3d 289f 863d
00000320: 92e5 08be 8b5a a73d b92c 04bd 6d99 f93c
00000330: 546f b5bd 23dd afbc a3be 003d 20d7 dc3d
00000340: b7a1 af3d cc7e 9dbd d3fa bdbd 3f00 0dbc
00000350: eacb 353d e3cd 9e3d 1e4f 10be 2c58 3dbc
00000360: f1df a33b 5443 87bd 5571 e43d c1c3 19bd
00000370: 1311 0abe 9fee acbd 4195 943b cf88 d7bd
00000380: 5a4f 043d 7ce0 0c3e 61b4 bd3b 1cb4 0ebd
00000390: 7e6e 083e 16d1 d53d 1277 c03d 9fc2 2f3c
000003a0: 87da d33b db9d e0bd 6bdc 6b3c f9da 0c3e
000003b0: b8fa f43b 2f3b 01be e3f7 9e3d 52f7 013e
000003c0: 66cf f23d f090 da3b dfa4 d93c 0b7c bb3c
000003d0: 6769 6dbd 950a a9bc 6748 ec3d 6564 6c3c
000003e0: 8b7c 083e 9955 c0bd 9f50 a9bc ccb0 e9be
000003f0: 1373 b13c 676d 163f a690 bb3e 11ba c53d

hidden_layer_list.0.bias f4 [30]
7.245752e-05 -0.04574786 -0.11329633 -0.15307897 -0.076638736 0.09700637 0.2512294 0.22631612
0.13156906 0.28066605 -0.005969916 0.14792915 -0.123380356 -0.0662216 -0.13004947 -0.09745569
-0.10522752 -0.029553605 0.21430647 0.09382684 0.22341242 0.091709465 0.1971632 -0.075824544
-0.14004758 0.012885557 0.27509373 -0.010531928 0.070168585 0.11896275
00000000: 56f4 9738 1c62 3bbd e807 e8bd bcc0 1cbe
00000010: c5f4 9cbd 47ab c63d 24a1 803e 6abf 673e
00000020: 0aba 063e 76b3 8f3e 499f c3bb bd7a 173e
00000030: d7ae fcbd 319f 87bd b02b 05be d996 c7bd
00000040: 8781 d7bd 671a f2bc 2873 5b3e 4928 c03d
00000050: 3ac6 643e 2cd2 bb3d 26e5 493e e649 9bbd
00000060: a268 0fbe f11d 533c 16d9 8c3e 1c8e 2cbc
00000070: 8cb4 8f3d bea2 f33d

output_layer.weight f4 [4, 30]
0.1858382 -0.17253172 -0.07543539 -0.005619387 0.17577688 0.35736775 -0.3171562 -0.65787923
0.2618028 -0.058040947 -0.10630582 -0.074371025 0.1061511 0.11338373 0.13731165 -0.03707145
-0.054891866 -0.105132766 0.20818837 -0.17024603 0.25216886 0.0056214617 -0.24567452 0.15383703
-0.065166555 -0.07531495 -0.38774884 0.17766082 0.32263032 -0.29802576 0.22505641 -0.062343717
0.02582382 -0.08304659 0.046126176 0.09648301 -1.1468391 -0.8409588 0.35596025 -0.88759273
-0.12896803 0.27525085 0.17745492 -0.17636323 0.14300214 0.14234003 0.010034954 -1.5089754
0.2748721 0.29868698 0.17244679 0.17556794 -1.3197227 -0.069377795 0.03802957 0.07833821
-1.1972533 0.5197792 0.31696266 0.2568958 -0.13297969 -0.05330312 0.12177281 0.07612066
-0.021484016 -0.28836006 0.050524086 0.3685883 -0.20133586 0.12800881 -0.030407934 -0.52846
0.12630346 -0.033843726 -0.16337825 -0.16664767 -0.14548504 -0.18989523 0.043859553 0.29354593
-0.029488415 -0.18408246 0.07652718 -0.09337644 0.14334992 -0.00833362 0.13439207 -0.6598275
-0.77497697 0.32027945 -0.96927345 -0.028823497 0.14163232 -0.12709408 0.019287733 -0.9594716
0.38439262 0.21176392 -0.78438294 0.39516094 -0.121783435 -0.3013539 -0.024083637 -0.14270563
-0.13398688 -0.05919058 -0.02142769 0.36076424 -0.60787755 -0.8176382 -0.9034418 -1.0793931
0.550092 0.16622965 -0.14420933 -0.13147715 0.63258374 -0.35729226 -0.3391018 -0.64027905
00000000: 5e4c 3e3e 28ac 30be df7d 9abd d622 b8bb
00000010: dbfe 333e e8f8 b63e 4c62 a2be c66a 28bf
00000020: 040b 863e 58bc 6dbd deb6 d9bd d64f 98bd
00000030: bf65 d93d bb35 e83d 6d9b 0c3e 3cd8 17bd
00000040: 4bd6 60bd d94f d7bd 552f 553e fa54 2ebe
00000050: 471c 813e 3d34 b83b 1a92 7bbe 7487 1d3e
00000060: 0b76 85bd b93e 9abd 0487 c6be b8ec 353e
00000070: cd2f a53e d596 98be 3075 663e 205c 7fbd
00000080: 7a8c d33c 5514 aabd cdee 3c3d e298 c53d
00000090: a0cb 92bf 1349 57bf 6c40 b63e 4739 63bf
000000a0: 3210 04be aeed 8c3e beb6 353e 9098 34be
000000b0: 276f 123e 96c1 113e a669 243c 1b26 c1bf
000000c0: 09bc 8c3e 80ed 983e e495 303e 15c8 333e
000000d0: acec a8bf f215 8ebd e5c4 1b3d c96f a03d
000000e0: 993f 99bf 4010 053f ee48 a23e d987 833e
000000f0: d42b 08be 5f54 5abd 0664 f93d 26e5 9b3d
00000100: 3fff afbc eea3 93be 58f2 4e3d 9bb7 bc3e
00000110: fd2a 4ebe be14 033e 0f1a f9bc 2849 07bf
00000120: b255 013e b89f 0abd a14c 27be b0a5 2abe
00000130: 08fa 14be e573 42be 13a6 333d a74b 963e
00000140: b091 f1bc 1d80 3cbe 48ba 9c3d 263c bfbd
00000150: 52ca 123e bc89 08bc 139e 093e 74ea 28bf
00000160: e464 46bf abfb a33e 4e22 78bf 411f ecbc
00000170: 1008 113e f324 02be 4f01 9e3c ee9f 75bf
00000180: 1ccf c43e a4d8 583e 52cd 48bf 8952 ca3e
00000190: 9869 f9bd 0f4b 9abe 0c4b c5bc 6d21 12be
000001a0: db33 09be d271 72bd 1f89 afbc 17b6 b83e
000001b0: dd9d 1bbf bd50 51bf f647 67bf 8e29 8abf
000001c0: d4d2 0c3f 1b38 2a3e 9cab 13be f2a1 06be
000001d0: 02f1 213f 03ef b6be c09e adbe 54e9 23bf

output_layer.bias f4 [4]
0.029468352 -0.033034723 0.2275356 0.07864218
00000000: 9d67 f13c 6b4f 07bd 18ff 683e 270f a13d
