K-Digital Training/김소현 강사님/Pytorch/숙제/language_model/best_model_epoch_68.pth (torch, 14536 bytes, 6 tensors)

input_layer.weight f4 [50, 26]
0.10105143 -0.0865614 -0.038019367 0.09205082 -0.18463096 0.11761423 -0.040346052 0.099772885
0.027263474 -0.024013273 0.05439495 0.009674759 0.07162714 -0.076426655 -0.014298584 -0.017655812
0.028425848 -0.00078344916 0.1714382 0.061029404 -0.073034875 -0.118446566 -0.032872133 -0.08459287
-0.062845126 0.009390355 0.56047785 0.41196007 -0.6074856 -0.09000919 -0.39234856 -0.1186956
0.81258166 -0.23193908 -0.040190123 -0.3476697 0.6033394 -0.101375066 0.30217 0.21692273
0.21901166 0.05336108 -0.7385214 -0.19629191 -0.14663768 -0.010237847 -0.24376999 -0.42765903
0.06764907 -0.80284506 0.40132466 0.4457002 0.24049664 0.20964818 0.17669356 0.8377975
0.5230731 -0.07292275 -0.22765847 -0.09398144 0.14692517 1.0160547 0.56045836 0.3763127
0.20330425 0.024663767 -0.22289959 0.35131332 0.36320078 0.35195526 0.31591982 0.15404177
0.7592687 0.16135149 -0.54162556 0.38042068 -0.6067242 -0.3886405 -0.547076 -0.09631345
0.36037835 -0.04538628 0.36508173 0.42259744 -0.34945843 0.19554426 -0.23690262 0.023074063
-0.60684973 0.24272649 -0.13400118 -0.3126695 0.2582103 -0.06809481 0.44140488 0.073767796
0.18632424 0.24975845 -0.13023329 0.40678567 0.44587916 0.5855249 -0.030319067 -0.4055854
-0.4697904 -0.2893263 0.5563793 0.4776948 0.7405382 0.41198066 -0.5903087 0.30689564
0.17481507 0.40451133 -0.22718602 0.26822272 0.045819078 -0.12513158 -0.18706957 -0.14958106
0.7071303 0.40016112 0.32190132 0.09783016 0.42504957 0.35654253 -0.26430687 0.6665964
-0.49496835 -0.5270863 0.24807358 0.43351826 0.24278972 0.6967612 0.57241994 0.51345676
0.24105415 0.5112571 0.23656751 0.2846311 0.3104431 0.25789413 0.27332297 0.36100855
0.1368445 0.3399587 0.086286075 0.51204044 0.37463906 0.53877115 0.4890507 0.29188862
0.26524583 0.054586295 -0.2952921 -0.48554304 -0.11457173 -0.08388337 0.13943261 -0.06408703
-0.1465539 0.07545566 0.062790416 0.1270226 -0.101484634 0.042520918 -0.0713962 -0.044062335
-0.15628855 -0.089382075 -0.06006208 0.08386619 0.035828345 0.048443906 0.19574453 0.19114017
0.13376045 0.0062450324 -0.13567145 0.15326665 -0.049041472 -0.01585508 -0.45376912 -0.1511902
0.2029804 0.7366703 0.47907478 0.15750366 -0.63159496 -0.060282536 0.08446406 0.6909795
-0.23186398 0.14614426 0.105750486 -0.3583916 -0.053580943 0.1767481 1.1357138 0.2773898
0.18073161 0.037924763 0.62142813 0.38933802 -0.17886159 0.7537688 -0.72812593 -0.672269
0.47408637 0.35896227 -0.2640168 -0.34764555 -0.72224146 -0.12601188 0.89953065 0.16870673
0.28677666 -0.74915785 0.2388983 0.19537728 0.07497098 0.5541091 0.06757154 0.014043835
-0.72965103 -0.43013594 -0.032732032 0.07610545 -0.07233889 -0.22613192 0.27979067 -0.8259111
0.94163215 0.6792864 -0.4025481 -0.16416742 0.21812834 0.55631626 0.71420294 0.09402621
-0.83836967 -0.09624497 0.058158185 0.52009463 -0.29183698 0.18217741 -0.23757444 -0.35349715
-0.22698152 0.20309812 1.1792738 0.26592252 0.1461743 0.23531975 0.44617492 0.3814199
00000000: 0df4 ce3d 1a47 b1bd 32ba 1bbd 2485 bc3d
00000010: e60f 3dbe bbdf f03d e741 25bd ba55 cc3d
00000020: a657 df3c 7cb7 c4bc 3dcd 5e3d e182 1e3c
00000030: 40b1 923d 9485 9cbd 9c44 6abc eca2 90bc
00000040: 53dd e83c 6260 4dba 7f8d 2f3e f8f9 793d
00000050: 4f93 95bd 1d94 f2bd eea4 06bd 073f adbd
00000060: f2b4 80bd 01da 193c 7a7b 0f3f 6eec d23e
00000070: 2d84 1bbf bd56 b8bd e9e1 c8be ae16 f3bd
00000080: 5a05 503f 7081 6dbe 669e 24bd c301 b2be
00000090: 7374 1a3f bb9d cfbd 07b6 9a3e fe20 5e3e
000000a0: 9844 603e 2691 5a3d bd0f 3dbf bf00 49be
000000b0: 3028 16be a5bc 27bc d79e 79be 20f6 dabe
000000c0: 988b 8a3d 4187 4dbf 6d7a cd3e d132 e43e
000000d0: c044 763e 03ae 563e 28ef 343e e679 563f
000000e0: 1ee8 053f 8658 95bd 4d1f 69be 5779 c0bd
000000f0: 8d73 163e 150e 823f 337a 0f3f 0fac c03e
00000100: fd2e 503e ab0b ca3c ca3f 64be 57df b33e
00000110: 74f5 b93e 7b33 b43e 3ec0 a13e 20bd 1d3e
00000120: 6f5f 423f 5339 253e f9a7 0abf 80c6 c23e
00000130: 4752 1bbf e3fb c6be 2c0d 0cbf fc3f c5bd
00000140: 8383 b83e f7e6 39bd feeb ba3e b15e d83e
00000150: 37ec b2be c13c 483e 9a96 72be d105 bd3c
00000160: 815a 1bbf 4b8d 783e 9b37 09be 3716 a0be
00000170: 2434 843e 4b75 8bbd d2ff e13e 9213 973d
00000180: c8cb 3e3e aec0 7f3e e05b 05be 3646 d03e
00000190: 464a e43e f6e4 153f b15f f8bc e4a8 cfbe
000001a0: 5e88 f0be 9422 94be e06e 0e3f 6a94 f43e
000001b0: e993 3d3f 21ef d23e 791e 17bf 6d21 9d3e
000001c0: b902 333e 1c1c cf3e 74a3 68be 7d54 893e
000001d0: c9ac 3b3d 7e22 00be 2a8f 3fbe c72b 19be
000001e0: 7e06 353f ebe1 cc3e 40d0 a43e 2e5b c83d
000001f0: 19a0 d93e be8c b63e 3b53 87be 10a6 2a3f
00000200: 7e6c fdbe 21ef 06bf 0007 7e3e 1bf6 dd3e
00000210: de9d 783e f15e 323f 1d8a 123f e771 033f
00000220: e6d6 763e bfe1 023f c13e 723e 2bbb 913e
00000230: 66f2 9e3e b30a 843e fdf0 8b3e 1dd6 b83e
00000240: f720 0c3e 110f ae3e c1b6 b03d 1515 033f
00000250: b1d0 bf3e e8ec 093f da64 fa3e 6d72 953e
00000260: 4dce 873e e195 5f3d 8730 97be 1999 f8be
00000270: 95a4 eabd 0bcb abbd 6cc7 0e3e 1040 83bd
00000280: 3a12 16be 7f88 9a3d 4398 803d 3612 023e
00000290: 2dd7 cfbd 6a2a 2e3d 2c38 92bd b57a 34bd
000002a0: 1b0a 20be f30d b7bd a803 76bd 09c2 ab3d
000002b0: bec0 123d 1e6d 463d 4171 483e 40ba 433e
000002c0: 80f8 083e 21a3 cc3b 75ed 0abe eff1 1c3e
000002d0: b6df 48bd 83e2 81bc 6d54 e8be 9bd1 1abe
000002e0: 18da 4f3e 6d96 3c3f 4a49 f53e a448 213e
000002f0: 35b0 21bf d2ea 76bd 7efb ac3d 08e4 303f
00000300: c06d 6dbe d7a6 153e b693 d83d 1b7f b7be
00000310: b177 5bbd 74fd 343e 125f 913f 0906 8e3e
00000320: b511 393e ff56 1b3d ea15 1f3f 5057 c73e
00000330: 7e27 37be fef6 403f 7666 3abf d219 2cbf
00000340: 73bb f23e e7c9 b73e 362d 87be 99fe b1be
00000350: d1e4 38bf 4209 01be a447 663f 75c1 2c3e
00000360: 64d4 923e cfc8 3fbf c2a1 743e fb10 483e
00000370: 638a 993d 18da 0d3f f362 8a3d 1d18 663c
00000380: 69ca 3abf c73a dcbe 0612 06bd 2ddd 9b3d
00000390: 6926 94bd 208f 67be b940 8f3e e96e 53bf
000003a0: ce0e 713f b7e5 2d3f c91a cebe 811b 28be
000003b0: 095d 5f3e be6a 0e3f 01d6 363f d090 c03d
000003c0: 659f 56bf 151c c5bd 4737 6e3d ec24 053f
000003d0: a86b 95be b78c 3a3e b746 73be 94fd b4be
000003e0: d86d 68be f4f8 4f3e 72f2 963f ff26 883e
000003f0: b7ae 153e a9f7 703e 0a71 e43e 7849 c33e

input_layer.bias f4 [50]
-0.036175195 0.057819355 0.3072906 0.10153145 0.09392436 0.46205136 -0.08414486 0.13425483
0.049369648 0.1577347 0.035094887 -0.16699465 0.014006091 0.33148462 0.11899433 0.10994575
0.0006949134 0.4451575 0.09311896 -0.1751982 -0.1398631 0.01159248 -0.023421794 0.20678839
-0.04610242 0.17910923 -0.16539778 -0.18639162 0.042675328 -0.1241764 -0.05719216 0.08868624
-0.17011534 0.27040642 -0.11902199 0.33083457 0.21447168 -0.036779467 -0.17163089 0.02073544
-0.1095619 0.21728373 -0.16498291 0.03527664 -0.10808349 -0.12613353 -0.10228828 -0.01944308
0.07850157 0.16515024
00000000: 712c 14bd fdd3 6c3d 3255 9d3e b9ef cf3d
00000010: 6a5b c03d ff91 ec3e 2454 acbd 197a 093e
00000020: d437 4a3d 3585 213e a8bf 0f3d a500 2bbe
00000030: ce79 653c 5ab8 a93e 4db3 f33d 3d2b e13d
00000040: d92a 363a afeb e33e 27b5 be3d 2867 33be
00000050: 4638 0fbe 63ee 3d3c 10df bfbc 56c0 533e
00000060: e4d5 3cbd 6968 373e 095e 29be 72dd 3ebe
00000070: 53cc 2e3d 3250 febd 5442 6abd 22a1 b53d
00000080: b732 2ebe b672 8a3e cdc1 f3bd 2663 a93e
00000090: 779e 5b3e 11a6 16bd 02c0 2fbe 5fdd a93c
000000a0: fd61 e0bd a07f 5e3e 48f1 28be 3d7e 103d
000000b0: e05a ddbd 2629 01be 857c d1bd 1847 9fbc
000000c0: 6ec5 a03d 251d 293e

hidden_layer_list.0.weight f4 [30, 50]
0.072266154 -0.26924264 0.08302079 0.42117968 0.5410333 0.112573266 -0.11905735 0.5458204
-0.2763845 0.4731564 -0.21786313 0.098669164 -0.06439533 0.11424222 -0.011895934 -0.10985334
0.08925543 0.2459769 0.43647814 -0.032914348 -0.08412668 -0.05249574 -0.09621578 0.29074886
0.13635021 0.59694344 0.106823236 0.013993698 0.45393366 0.09363801 0.08397372 -0.28298742
-0.035767738 0.2264507 -0.004907141 -0.05495253 -0.06971781 0.114691205 0.117775746 -0.0551064
-0.0303488 0.20806079 -0.046170305 0.54985166 -0.12578061 0.06748417 -0.12710778 -0.06747114
0.40153503 -0.054466043 -0.022966526 -0.0646457 -0.06307904 -0.08601742 -0.0987129 -0.08810855
0.13561314 -0.066633664 -0.117604315 0.09719928 0.05486569 0.09727881 -0.1406711 -0.13461645
-0.1003733 -0.07450125 -0.0003114315 0.061172985 0.08279681 -0.12163721 0.056400493 -0.08178517
0.032507125 0.04440167 0.022631899 0.050035596 -0.007061435 0.09336466 0.02949514 0.123898014
0.03065573 -0.07486503 0.090820596 0.0076615894 0.13667524 -0.015639886 0.13992436 -0.08255639
0.07107584 -0.10550102 0.09709051 0.025671175 0.08029042 -0.121788986 -0.14067921 0.06814215
-0.058182582 0.056008916 -0.08390369 -0.043718357 0.0006335683 0.085164726 0.07986306 -0.012632659
-0.040001154 -0.0024526096 0.072888896 -0.119864516 -0.0432132 -0.13632968 0.02041359 -0.016727764
0.080114484 0.11297735 -0.12091997 -0.06258775 -0.022734838 -0.0014102337 -0.032281976 -0.08891809
-0.05464506 -0.0036420273 0.11372783 -0.036041677 0.09339358 -0.11431797 0.00632427 -0.110361226
-0.13270508 0.01401516 -0.06475542 0.10411641 0.11170315 -0.14076003 -0.009855738 -0.024160227
-0.08060674 -0.098732285 -0.059846405 0.062438283 0.033625025 0.08511538 -0.008434377 0.07345102
0.027347777 -0.030838057 -0.008267594 -0.1286218 -0.0032477689 -0.04645913 -0.047327407 -0.074653454
-0.048782304 -0.122269854 -0.009563538 -0.023610348 -0.037246957 0.10490158 0.077055946 0.022077816
-0.06994627 0.018037757 -0.09730534 0.08067769 0.1142312 -0.038975205 0.109065056 0.11486077
-0.026358975 -0.052513443 0.0071373163 0.023370901 -0.13090983 -0.026684945 -0.05113335 0.07650796
-0.0040596016 0.0930461 0.107930064 -0.044320785 0.030441508 -0.029954368 -0.06163144 -0.096313216
0.0032724838 0.025104884 -0.042735636 0.024016488 0.088377245 0.05895596 0.05831821 0.02188176
-0.10871335 -0.103422984 -0.10487502 0.09293327 -0.124559484 -0.10558221 0.07527232 0.065733254
-0.13368824 0.081715666 -0.032269213 0.030468667 -0.08859125 -0.02146775 0.031431805 0.10783219
0.085757665 -0.076902 -0.092763565 -0.008606016 0.04438392 0.077541135 -0.14092681 -0.011556666
0.005001061 -0.06604639 0.11154429 -0.0375402 -0.13483076 -0.08443951 0.004534394 -0.10524141
0.032302238 0.13757509 0.005789325 -0.034839734 0.133234 0.104402706 0.09397711 0.010727554
0.0064652595 -0.109676085 0.014395813 0.13755406 0.007476177 -0.12620233 0.077621244 0.12692001
0.11855964 0.00667011 0.026567874 0.022886297 -0.057961848 -0.020634929 0.11537247 0.014428233
0.1332876 -0.093913265 -0.020668326 -0.4292304 0.019837257 0.5449584 0.34989515 0.09012753
00000000: 4700 943d 2cda 89be ce06 aa3d dda4 d73e
00000010: 2981 0a3f d08c e63d 57d4 f3bd e3ba 0b3f
00000020: 4582 8dbe 8e41 f23e 8317 5fbe 0f13 ca3d
00000030: b3e1 83bd d3f7 e93d 2ae7 42bc cafa e0bd
00000040: 8dcb b63d 5ee1 7b3e 107a df3e 32d1 06bd
00000050: 9c4a acbd c605 57bd c70c c5bd 09dd 943e
00000060: 649f 0b3e 49d1 183f 24c6 da3d d345 653c
00000070: fe69 e83e 49c5 bf3d 6afa ab3d bae3 90be
00000080: 3181 12bd b1e2 673e 15cc a0bb e715 61bd
00000090: 36c8 8ebd 39e3 ea3d 6934 f13d 40b7 61bd
000000a0: 0c9e f8bc e30d 553e 131d 3dbd 14c3 0c3f
000000b0: a2cc 00be 2435 8a3d 8b28 02be 4f2e 8abd
000000c0: 0096 cd3e c917 5fbd 4c24 bcbc f764 84bd
000000d0: 952f 81bd e729 b0bd fd29 cabd 4172 b4bd
000000e0: 2cde 0a3e 3b77 88bd 88da f0bd 6b10 c73d
000000f0: d9ba 603d 1d3a c73d 160c 10be e5d8 09be
00000100: 8490 cdbd 1d94 98bd a147 a3b9 8690 7a3d
00000110: 6091 a93d ee1c f9bd 3404 673d fc7e a7bd
00000120: 3126 053d 87de 353d 8866 b93c 20f2 4c3d
00000130: 9c63 e7bb f935 bf3d cb9f f13c 3ebe fd3d
00000140: ba21 fb3c d652 99bd 2600 ba3d 120e fb3b
00000150: 98f4 0b3e 381f 80bc 5548 0f3e 5313 a9bd
00000160: 3690 913d eb10 d8bd 64d7 c63d 5b4c d23c
00000170: 4e6f a43d 816c f9bd 360e 10be 1d8e 8b3d
00000180: dc50 6ebd 9b69 653d b3d5 abbd 0512 33bd
00000190: 0d16 263a d86a ae3d 3e8f a33d 36f9 4ebc
000001a0: 40d8 23bd f6bb 20bb c646 953d 877b f5bd
000001b0: 5300 31bd 029a 0bbe 673a a73c aa08 89bc
000001c0: 1013 a43d ab60 e73d e4a4 f7bd 022e 80bd
000001d0: 693e babc 97d7 b8ba 1b3a 04bd b01a b6bd
000001e0: 80d3 5fbd 14af 6ebb 23ea e83d 70a0 13bd
000001f0: 2245 bf3d 8a1f eabd d23b cf3b 1105 e2bd
00000200: d7e3 07be d79f 653c 7d9e 84bd fc3a d53d
00000210: 9fc4 e43d 6623 10be f679 21bc abeb c5bc
00000220: 2615 a5bd 2734 cabd 8121 75bd 49bf 7f3d
00000230: 65ba 093d f950 ae3d 5730 0abc 7d6d 963d
00000240: 7208 e03c 18a0 fcbc cd74 07bc 6fb5 03be
00000250: 85d8 54bb ee4b 3ebd 62da 41bd e9e3 98bd
00000260: f4cf 47bd 9e68 fabd 63b0 1cbc 7d6a c1bc
00000270: 4490 18bd a4d6 d63d 82cf 9d3d 89dc b43c
00000280: fd3f 8fbd ebc3 933c 0648 c7bd 583a a53d
00000290: 0cf2 e93d 77a4 1fbd 805d df3d 203c eb3d
000002a0: c7ee d7bc 5618 57bd 26e0 e93b 5574 bf3c
000002b0: 3a0d 06be 639a dabc 3471 51bd 35b0 9c3d
000002c0: 6806 85bb f48e be3d 700a dd3d b689 35bd
000002d0: 7860 f93c dd62 f5bc 4071 7cbd dd3f c5bd
000002e0: 2b77 563b c2a8 cd3c 900b 2fbd 3abe c43c
000002f0: 21ff b43d ce7b 713d 13df 6e3d 6041 b33c
00000300: 1ba5 debd 6ecf d3bd b7c8 d6bd cc53 be3d
00000310: 0b19 ffbd 7c3b d8bd 6028 9a3d 289f 863d
00000320: 92e5 08be 8b5a a73d b92c 04bd 6d99 f93c
00000330: 546f b5bd 23dd afbc a3be 003d 20d7 dc3d
00000340: b7a1 af3d cc7e 9dbd d3fa bdbd 3f00 0dbc
00000350: eacb 353d e3cd 9e3d 1e4f 10be 2c58 3dbc
00000360: f1df a33b 5443 87bd 5571 e43d c1c3 19bd
00000370: 1311 0abe 9fee acbd 4195 943b cf88 d7bd
00000380: 5a4f 043d 7ce0 0c3e 61b4 bd3b 1cb4 0ebd
00000390: 7e6e 083e 16d1 d53d 1277 c03d 9fc2 2f3c
000003a0: 87da d33b db9d e0bd 6bdc 6b3c f9da 0c3e
000003b0: b8fa f43b 2f3b 01be e3f7 9e3d 52f7 013e
000003c0: 66cf f23d f090 da3b dfa4 d93c 0b7c bb3c
000003d0: 6769 6dbd 950a a9bc 6748 ec3d 6564 6c3c
000003e0: 8b7c 083e 9955 c0bd 9f50 a9bc 16c4 dbbe
000003f0: be81 a23c 6582 0b3f 7525 b33e c894 b83d

hidden_layer_list.0.bias f4 [30]
-0.0058961767 -0.04574786 -0.11329633 -0.15307897 -0.076638736 0.09557559 0.2400663 0.222803
0.12516844 0.2713236 -0.005969916 0.13805671 -0.123380356 -0.0662216 -0.13004947 -0.09745569
-0.10522752 -0.03564401 0.20859484 0.08894264 0.21982512 0.08662036 0.19028683 -0.075824544
-0.14004758 0.012885557 0.26324582 -0.016519714 0.06641949 0.11286099
00000000: b734 c1bb 1c62 3bbd e807 e8bd bcc0 1cbe
00000010: c5f4 9cbd 23bd c33d f1d3 753e 7826 643e
00000020: 282c 003e edea 8a3e 499f c3bb bd5e 0d3e
00000030: d7ae fcbd 319f 87bd b02b 05be d996 c7bd
00000040: 8781 d7bd 74ff 11bd e399 553e 8f27 b63d
00000050: d619 613e 0466 b13d 8dda 423e e649 9bbd
00000060: a268 0fbe f11d 533c 28c8 863e 5a54 87bc
00000070: f106 883d aa23 e73d

output_layer.weight f4 [4, 30]
0.1926743 -0.17253172 -0.07543539 -0.005619387 0.17577688 0.35907358 -0.35783708 -0.65706146
0.26959518 -0.10483307 -0.10630582 -0.056698103 0.1061511 0.11338373 0.13731165 -0.03707145
-0.054891866 -0.17576084 0.21697566 -0.1539575 0.25749788 0.014283812 -0.29500437 0.15383703
-0.065166555 -0.07531495 -0.42534193 0.19161505 0.32354242 -0.2722953 0.20270307 -0.062343717
0.02582382 -0.08304659 0.046126176 0.08151864 -1.0065751 -0.794753 0.33422872 -0.7440129
-0.12896803 0.23539393 0.17745492 -0.17636323 0.14300214 0.14234003 0.010034954 -1.3428187
0.2541036 0.2749947 0.15563002 0.15579866 -1.186542 -0.069377795 0.03802957 0.07833821
-1.0639118 0.48346427 0.29044074 0.22517894 -0.12695448 -0.05330312 0.12177281 0.07612066
-0.021484016 -0.27699536 0.035807695 0.34917077 -0.19507904 0.11451758 -0.030407934 -0.44135565
0.12630346 -0.033843726 -0.16337825 -0.16664767 -0.14548504 -0.19899645 0.042441264 0.27594876
-0.027422953 -0.18588632 0.066232055 -0.09337644 0.14334992 -0.00833362 0.12035951 -0.5636071
-0.66952634 0.29177776 -0.88296 -0.028823497 0.14163232 -0.12709408 0.019287733 -0.8944003
0.36591086 0.202456 -0.70297396 0.37462783 -0.121783435 -0.3003306 -0.024083637 -0.14270563
-0.13398688 -0.05919058 -0.02142769 0.3310842 -0.54132515 -0.7624696 -0.8463871 -1.0180466
0.5305086 0.16622965 -0.14420933 -0.13147715 0.6153031 -0.35226595 -0.33257365 -0.57807213
00000000: 694c 453e 28ac 30be df7d 9abd d622 b8bb
00000010: dbfe 333e 7ed8 b73e 6c36 b7be 2e35 28bf
00000020: 6108 8a3e b8b2 d6bd deb6 d9bd 453c 68bd
00000030: bf65 d93d bb35 e83d 6d9b 0c3e 3cd8 17bd
00000040: 4bd6 60bd a6fa 33be de2e 5e3e 09a7 1dbe
00000050: c3d6 833e a606 6a3c d00a 97be 7487 1d3e
00000060: 0b76 85bd b93e 9abd 6bc6 d9be bc36 443e
00000070: 5aa7 a53e 4a6a 8bbe 6591 4f3e 205c 7fbd
00000080: 7a8c d33c 5514 aabd cdee 3c3d 3ff3 a63d
00000090: 74d7 80bf ef74 4bbf 0720 ab3e a177 3ebf
000000a0: 3210 04be 1b0b 713e beb6 353e 9098 34be
000000b0: 276f 123e 96c1 113e a669 243c 7ce1 abbf
000000c0: de19 823e 1bcc 8c3e 7a5d 1f3e af89 1f3e
000000d0: 9ce0 97bf f215 8ebd e5c4 1b3d c96f a03d
000000e0: 432e 88bf a188 f73e a6b4 943e 4f95 663e
000000f0: 5b00 02be 5f54 5abd 0664 f93d 26e5 9b3d
00000100: 3fff afbc 56d2 8dbe 17ab 123d 83c6 b23e
00000110: cdc2 47be 3188 ea3d 0f1a f9bc 5ef9 e1be
00000120: b255 013e b89f 0abd a14c 27be b0a5 2abe
00000130: 08fa 14be bac5 4bbe e4d6 2d3d 2849 8d3e
00000140: 1aa6 e0bc fc58 3ebe aca4 873d 263c bfbd
00000150: 52ca 123e bc89 08bc 0c7f f63d 8e48 10bf
00000160: 1466 2bbf e563 953e ab09 62bf 411f ecbc
00000170: 1008 113e f324 02be 4f01 9e3c 6bf7 64bf
00000180: ab58 bb3e a050 4f3e 1af6 33bf 38cf bf3e
00000190: 9869 f9bd efc4 99be 0c4b c5bc 6d21 12be
000001a0: db33 09be d271 72bd 1f89 afbc de83 a93e
000001b0: 4994 0abf 3531 43bf d3ac 58bf 5a4f 82bf
000001c0: 69cf 073f 1b38 2a3e 9cab 13be f2a1 06be
000001d0: 8184 1d3f 345c b4be 1847 aabe 89fc 13bf

output_layer.bias f4 [4]
0.031522874 -0.033832274 0.22442316 0.080266416
00000000: 211e 013d b693 0abd 2fcf 653e b862 a43d
