K-Digital Training/김소현 강사님/Pytorch/숙제/model.pth (torch, 385234 bytes, 12 tensors)

weight f4 [100, 784]
0	0x3d02d05c	0.03193699
1	0x3dcdd31e	0.10050033
2	0x3d4cc464	0.04999198
3	0x3d02cb59	0.03193221
4	0xbb98f1e9	-0.00466751
5	0xbd34cff3	-0.04414363
6	0x3d9ba7ed	0.07600389
7	0x3e2c5ba9	0.1683184
8	0xbbf1898d	-0.0073711337
9	0x3d48c415	0.049015123
10	0x3cfbf86a	0.030758101
11	0x3dc02bd6	0.09383361
12	0xbd31cab1	-0.043406192
13	0xbcba52f6	-0.022744637
14	0xbcf1a2df	-0.029496608
15	0xbd164929	-0.036690865
16	0x3df465f2	0.11933507
17	0x3c9dfc44	0.019285329
18	0xbd29416a	-0.04132215
19	0xb8f4b2cf	-0.00011668132
20	0xbd5d9a86	-0.054102443
21	0xbd79b0d7	-0.060959663
22	0xbdc0526d	-0.093907215
23	0xbdd0e93d	-0.10200737
24	0xbddb204a	-0.10699518
25	0x3c87d5d7	0.016581459
26	0x3d1d5816	0.038414083
27	0x3cbae11f	0.022812424
28	0x3c293bcd	0.010329199
29	0xbd6a90c4	-0.057266966
30	0xbd548181	-0.051881317
31	0x3d85e463	0.06537702
32	0xbe006163	-0.1253715
33	0xbd9102ca	-0.0708061
34	0xbd33ed65	-0.04392757
35	0xbd140b1a	-0.0361434
36	0xbd1de240	-0.038545847
37	0x3d12506b	0.035721224
38	0x3bdf5c63	0.0068164333
39	0x3cff64ef	0.031176059
40	0xbd1e06a4	-0.03858055
41	0x3c834539	0.016024219
42	0x3d6d5a82	0.057947643
43	0x39b6a2cb	0.00034835035
44	0x3cf06732	0.029346082
45	0x3d85d45a	0.065346435
46	0x3d7c7193	0.06163175
47	0x3cd11b6d	0.025525773
48	0xbd7f6d18	-0.0623599
49	0xbda8a2b0	-0.08234155
50	0xbe209a86	-0.15683946
51	0xbe25aa16	-0.16178164
52	0xbdc58b35	-0.09645692
53	0x3cfa7a84	0.030575998
54	0x3d912a9b	0.070882045
55	0x3d5ca1ca	0.05386523
56	0x3d30170b	0.042990725
57	0xbdeee7ae	-0.11665283
58	0xbd72af69	-0.059249315
59	0x3cb8d40f	0.022562055
60	0xbcce502e	-0.025184717
61	0xbd14aa80	-0.036295414
62	0x3d0ca683	0.034338485
63	0x3c53ed94	0.012935061
64	0x3cd1fdc7	0.025633706
65	0x3c91197b	0.017712345
66	0xbd6de199	-0.058076475
67	0x3d06d4aa	0.032917656
68	0x3bc1605e	0.0059013804
69	0xbb1cf44f	-0.002394933
70	0x3c79427a	0.015213603
71	0xbd4d49df	-0.050119277
72	0x3cda933a	0.026681531
73	0xbcde91f9	-0.027169215
74	0x3ba0133e	0.0048851063
75	0xbd754f7c	-0.059890255
76	0xbc913b99	-0.017728614
77	0xbcf50460	-0.029909313
78	0xbdbc5bca	-0.09197195
79	0x3c1af172	0.009456979
80	0x3d911416	0.07083909
81	0x3cab56f8	0.020915493
82	0x3bcd3f43	0.006263645
83	0x3c82aaef	0.015950648
84	0xbd90ab9d	-0.07063983
85	0xbc0ba0ea	-0.008522252
86	0xbd17bd12	-0.037045546
87	0xbcd5d9dc	-0.02610486
88	0x3dc8fe7d	0.09814165
89	0x3ccd3f12	0.025054488
90	0x3d27fb1b	0.041010957
91	0x3cfaa626	0.030596804
92	0x3c82abba	0.015951026
93	0x3c89bdb9	0.0168141
94	0x3cfe9fce	0.03108206
95	0x3d696650	0.05698234
96	0x3b40e0c5	0.0029430848
97	0x3c2a7315	0.010403414
98	0xbd550833	-0.052009773
99	0x3b69d571	0.00356802
100	0x3c8c091d	0.01709419
101	0x3d31ef7d	0.043441284
102	0x3c7cd2cf	0.01543112
103	0xbd1d069d	-0.038336385
104	0xbdc44e58	-0.095852554
105	0xbc4262bd	-0.011864361
106	0xbd473f4c	-0.04864435
107	0x3a5b38da	0.00083626586
108	0x3ce21e06	0.027602207
109	0xbb0d7ece	-0.0021590474
110	0x3cfc388f	0.030788688
111	0xbd1a61cc	-0.037690923
112	0xbd1d4b9a	-0.038402177
113	0xbc9edc56	-0.019392174
114	0xbcf832fc	-0.030297749
115	0x3d8cf566	0.068827435
116	0x3da6b277	0.08139508
117	0x3c95380d	0.018215204
118	0x3cd0bb12	0.025479827
119	0x3c4102cd	0.011780453
120	0xbd2274c1	-0.039662126
121	0xbc6b83c1	-0.014374674
122	0x3c3f2628	0.011666812
123	0x3ccbcfd8	0.024879381
124	0xbbf83062	-0.007574127
125	0xbc9e915e	-0.019356426
126	0xbcf404da	-0.02978747
127	0xbd510a6d	-0.051035333
128	0xbd45333b	-0.04814456
129	0x3cc87a51	0.024472388
130	0x3c5ce102	0.01348138
131	0xbc66906c	-0.014072519
132	0xbbba2e72	-0.0056818062
133	0xbd2a9485	-0.041645546
134	0xbc8454f0	-0.016153783
135	0x3d07a0d5	0.033112366
136	0x3bdd0bca	0.00674579
137	0xbd5082b4	-0.0509059
138	0xbd8e600b	-0.069519125
139	0x3c9a49f0	0.018834084
140	0xbd237bc5	-0.039912958
141	0xbd463f83	-0.048400413
142	0x3d923f01	0.07140923
143	0x3d434cf7	0.04768082
144	0x3dd18e07	0.10232168
145	0x3d95262b	0.072826706
146	0x3d6620f7	0.05618378
147	0xbca40890	-0.020023614
148	0x3ce00279	0.027344929
149	0x3cffae9c	0.03121119
150	0x3c7f7d56	0.015593847
151	0x3cdbcae1	0.026830139
152	0xbcb58feb	-0.022163352
153	0x3ae485ef	0.0017434935
154	0xbd733f2b	-0.059386414
155	0xbcace525	-0.021105358
156	0x3ad2b7d7	0.0016076517
157	0xbcebc4c4	-0.028780349
158	0xbcd0669f	-0.025439559
159	0xbc7c0277	-0.015381447
160	0xbd2c464d	-0.04205923
161	0xbcba15fb	-0.02271556
162	0xbc3914dc	-0.011296477
163	0xbd48f38a	-0.049060382
164	0xbcdd647a	-0.02702545
165	0xbc9d9ec6	-0.019240748
166	0xbcef3575	-0.029200295
167	0x3d8328aa	0.064042404
168	0xbd10533b	-0.035235625
169	0xbd9e1c97	-0.07720297
170	0x3da37de8	0.07982999
171	0x3bccedfe	0.006253957
172	0x3d553623	0.052053582
173	0x3d8f49af	0.06996476
174	0x3d6ceab2	0.05784101
175	0x3d533298	0.05156192
176	0x3d0c4cc1	0.034252886
177	0x3cbc00cd	0.0229496
178	0x3c43c4cd	0.011948776
179	0x3c926772	0.017871592
180	0x3c0e8313	0.008698243
181	0x3bcd5527	0.0062662545
182	0xbcc3139a	-0.023813058
183	0xbcd1c004	-0.025604255
184	0x3ce2ec52	0.027700577
185	0xbcbb79c7	-0.022885216
186	0xbd29cf2a	-0.041457333
187	0xbce4327d	-0.027856106
188	0x3c99dfa5	0.0187834
189	0x3b550794	0.0032505738
190	0x3d0c4041	0.034240965
191	0xbd1dbfc4	-0.03851296
192	0x3c65d3e2	0.014027568
193	0xbae0f8db	-0.0017164008
194	0xbcdcb6a5	-0.02694256
195	0xbd11539f	-0.035480138
196	0x3d842de6	0.06454067
197	0x3cc360eb	0.023849925
198	0x3dc77cfc	0.09740636
199	0x3d7fdda4	0.062467232
200	0x3d60e3f0	0.05490488
201	0x3d345069	0.044021998
202	0x3dbab89f	0.09117245
203	0x3d0ae154	0.033906296
204	0x3d5fd0f8	0.054642648
205	0x3b841a32	0.004031443
206	0x3d04dbff	0.032436367
207	0x3c8562b4	0.016282417
208	0x3cea1331	0.028573604
209	0x3cca45e1	0.024691524
210	0xbd79fa6e	-0.061029844
211	0x3ce9ead7	0.028554363
212	0x3d1591d0	0.03651601
213	0xbcb9b43b	-0.022668948
214	0xbb26af1b	-0.002543396
215	0x3befcb6a	0.00731795
216	0xbae9c0ec	-0.0017833984
217	0x3c8cd89b	0.01719313
218	0x3cbb7406	0.022882473
219	0x3c4bfd0b	0.012450467
220	0x3bb8749c	0.0056291353
221	0x3c83f147	0.016106261
222	0x3d2c0f66	0.042006873
223	0xbd4ccb37	-0.04999849
224	0x3d5cb0de	0.05387961
225	0x3e1be9ee	0.15225956
226	0x3de1a48e	0.110177144
227	0x3d769225	0.060197968
228	0x3dc490e8	0.09597951
229	0x3dd275a6	0.10276346
230	0x3d988445	0.074471034
231	0x3c444825	0.011980091
232	0x3d6dcc23	0.058056008
233	0x3ca0f1c6	0.019646537
234	0x3d8127ea	0.06306441
235	0x3c92b650	0.017909199
236	0x3ce5d141	0.028053882
237	0xbd20aa4e	-0.039224915
238	0xbcdc1c85	-0.026869068
239	0xbd100ace	-0.035166554
240	0x3c831304	0.016000278
241	0x3c09de77	0.008414856
242	0x36d68a65	6.3938082e-06
243	0xbc24504d	-0.010028911
244	0xbd21c686	-0.039495967
245	0xbbdfa59d	-0.0068251626
246	0xbb650f58	-0.0034951773
247	0x3b9c40e8	0.0047684796
248	0xbbd7ac93	-0.0065818517
249	0x3c94faab	0.018185934
250	0xbb892139	-0.0041848687
251	0x3d82f23e	0.0639386
252	0x3d45caed	0.04828923
253	0x3d271aae	0.040796928
254	0x3cf86fd1	0.030326756
255	0x3d9fcc1d	0.078026034

bias f4 [100]
0	0x3d0f8c85	0.03504612
1	0xbd55d8b9	-0.052208636
2	0xbca6f4f9	-0.020380484
3	0x3e0c3347	0.13691436
4	0x3ccddce5	0.025129745
5	0x3e3ce94c	0.1844837
6	0xbc22a237	-0.00992637
7	0xbdbcb4a2	-0.092141405
8	0x3cd162e7	0.025559856
9	0x3d07a29b	0.033114057
10	0xbb8745b0	-0.0041281804
11	0x3d9d9e95	0.07696263
12	0x3d2fce3b	0.042921286
13	0x3d868cef	0.0656985
14	0xbd0e11dc	-0.034685
15	0xbd3ae05e	-0.04562413
16	0x3dc269e4	0.09492853
17	0xbb996070	-0.0046806857
18	0x3950306e	0.00019854467
19	0xbd159ec2	-0.036528356
20	0x3da29310	0.07938206
21	0xbd789bbc	-0.060695395
22	0xbdb30af4	-0.087423235
23	0xbdda11a9	-0.106479
24	0x3e298587	0.16554843
25	0xbb4c16cf	-0.0031141525
26	0x3b1f0831	0.0024266357
27	0xbcccbae7	-0.024991466
28	0x3df929aa	0.1216615
29	0x3c4ab2ac	0.0123717
30	0x3daf3b9c	0.085562915
31	0xbce80869	-0.028324323
32	0x3c7f0fab	0.0155677
33	0x3dd47417	0.10373705
34	0x3d8c8c1e	0.06862663
35	0x3c5cf5a3	0.013486299
36	0xbdabb2dd	-0.08383725
37	0x3c8d3798	0.017238423
38	0xbd09d549	-0.03365067
39	0x3dc53e78	0.096310556
40	0x3bdfd8c6	0.0068312613
41	0xbc6c9f40	-0.014442265
42	0xbd0ec331	-0.034854118
43	0xbc8b9a41	-0.017041327
44	0x3d27f88c	0.041008517
45	0x3a6a8617	0.00089463725
46	0xbd10eed1	-0.035384003
47	0x3cb53e09	0.022124307
48	0x3d48ab92	0.048991747
49	0x3cd1e668	0.025622562
50	0xbcc8e37e	-0.02452254
51	0x3e1cd5bd	0.1531591
52	0x3ccd696b	0.025074681
53	0x3d126f50	0.035750687
54	0xbd0aa4b8	-0.033848494
55	0x3b70af32	0.0036725518
56	0x3e22ae0a	0.15886703
57	0x3d213088	0.039352924
58	0x3d24a790	0.040198863
59	0x3dddf502	0.10837747
60	0x3d899577	0.06717961
61	0x3d23d317	0.039996233
62	0x3c4d49b1	0.012529776
63	0x3df516da	0.11967249
64	0xbd0e6577	-0.034764733
65	0x3cce842e	0.025209513
66	0xbcea9b2a	-0.028638441
67	0x3d7260ef	0.059174474
68	0xbd85a8f5	-0.065263666
69	0x3dbb6b87	0.091513686
70	0x3e3e13f2	0.18562296
71	0x3c6801b9	0.014160567
72	0x3d1d42a4	0.03839363
73	0x3c04cb33	0.008105087
74	0xbd3ebca0	-0.046566606
75	0x3dd710d2	0.10501255
76	0x3e0946ee	0.13405964
77	0x3e2776a6	0.16353855
78	0x3c1cac90	0.0095626265
79	0xbd02630f	-0.03183275
80	0x3e419a9f	0.1890664
81	0xbbb5c686	-0.0055473475
82	0x3cd9dc08	0.026594177
83	0x3def8f17	0.11697214
84	0x3de28eb9	0.110623784
85	0x3db1d183	0.08682539
86	0xbd821f49	-0.063536234
87	0x3cbbbcc2	0.022917155
88	0x3d414264	0.047182456
89	0x3dd21dc3	0.10259583
90	0x3d5be087	0.053680923
91	0x3db63aff	0.08897971
92	0xbd1a03d2	-0.0376013
93	0x3d8dfffe	0.06933592
94	0x3d6fec1b	0.058574777
95	0xbc680b5f	-0.014162867
96	0x3d340f62	0.043959983
97	0x3c6f2432	0.014596032
98	0x3e287a58	0.1645292
99	0x3e15ad70	0.14616942

weight f4 [80, 100]
0	0xbd0de7e0	-0.03464496
1	0xbd2eedc3	-0.042707216
2	0xbd903ea4	-0.07043198
3	0x3dbff426	0.093727395
4	0xbbad1eff	-0.005283236
5	0x3e3500f9	0.17676152
6	0x3dcadeee	0.09905802
7	0xbf03bfbd	-0.51464444
8	0x3d368196	0.044557177
9	0xbd43ce85	-0.047804374
10	0x3cad8c1a	0.02118497
11	0xbbf27daf	-0.0074002366
12	0x3e1e6225	0.15467127
13	0x3e13ef77	0.14446817
14	0x3d34f2fe	0.044177048
15	0x3dbf1de9	0.09331877
16	0xbce43385	-0.027856598
17	0x3dd1d149	0.10244996
18	0x3dd0c9ce	0.10194741
19	0xbd3cc764	-0.04608859
20	0x3d2104d4	0.039311245
21	0x3b733c33	0.003711474
22	0x3c5c5887	0.013448841
23	0xbd660d70	-0.05616516
24	0x3d1cddc1	0.03829742
25	0x3db7d79e	0.089766726
26	0x3dfdb762	0.12388493
27	0x3c849126	0.016182493
28	0xbde951ff	-0.11392593
29	0x3dd07d32	0.10180129
30	0xbeac08fe	-0.3360061
31	0x3e2af41a	0.1669468
32	0xbc6c501b	-0.0144233955
33	0x3df86d7a	0.12130256
34	0xbe8ddfdd	-0.27709857
35	0x3d2d5a03	0.04232217
36	0xbea38f8b	-0.31945452
37	0xbba153af	-0.004923306
38	0xbd6ca1af	-0.05777138
39	0xbd81b462	-0.063332334
40	0xbd6d39bf	-0.0579164
41	0xbc311afc	-0.010809656
42	0x3e04cfd9	0.12969913
43	0x3dcb5519	0.099283405
44	0x3e11cb99	0.14237823
45	0xbdf96ab1	-0.12178553
46	0xbcfb52c1	-0.030679109
47	0x39c8a99c	0.00038273341
48	0x3de64f06	0.11245541
49	0x3d051a17	0.032495584
50	0x3e04838f	0.1294081
51	0x3d8f39f8	0.069934785
52	0xbc05660a	-0.008142004
53	0x3dc63dc8	0.096797526
54	0x3dabf3aa	0.083960846
55	0x3dcd753a	0.10032125
56	0x3df460d3	0.1193253
57	0x3df469c0	0.11934233
58	0xbc36a8af	-0.011148616
59	0x3d51a944	0.051186815
60	0x3d3f66bc	0.046728835
61	0x3d500b81	0.05079222
62	0x3e0fd37f	0.14045523
63	0xbe549969	-0.20761646
64	0x3e274ddc	0.16338295
65	0xbb7f502f	-0.0038957705
66	0x3d2eeaee	0.042704515
67	0xbd79fad9	-0.061030243
68	0xbd088ff5	-0.033340413
69	0xbe4bf164	-0.19916302
70	0xbe5ea804	-0.2174378
71	0x3d463758	0.048392624
72	0xbe01349c	-0.12617725
73	0x3db9519b	0.09048768
74	0x3d89d528	0.067301095
75	0x3e85204e	0.2600121
76	0xbe6a3a9e	-0.22873923
77	0x3e80d857	0.25165054
78	0xbbc08002	-0.0058746347
79	0x3ddad0a3	0.106843255
80	0x3cb52d4a	0.022116322
81	0x3e1daafa	0.15397254
82	0x3def3ce1	0.116815336
83	0x3e1011d3	0.140693
84	0x3e046170	0.12927794
85	0x3dbbab8d	0.0916358
86	0xbd26e317	-0.040743914
87	0xbcb0f76d	-0.021602357
88	0xbd7085c2	-0.05872131
89	0x3e982a71	0.2971988
90	0x3e4b6735	0.19863589
91	0x3dcff5ef	0.1015433
92	0x3be6c1db	0.0070421523
93	0x3d289ae8	0.041163355
94	0x3dc5de62	0.09661557
95	0xba38e3fb	-0.00070530147
96	0x3bf75a5a	0.0075486125
97	0xbd4862f4	-0.048922494
98	0x3e2dcbfe	0.16972348
99	0x3ddca88c	0.10774335
100	0x3dd879b2	0.105700865
101	0x3d242aa4	0.040079728
102	0x3ca2d7e0	0.019878328
103	0xbbec1c8b	-0.007205551
104	0x3df115d6	0.11771743
105	0x3dc78752	0.09742607
106	0x3d80054e	0.06251012
107	0x3e53a997	0.20670162
108	0xbca82975	-0.02052758
109	0xbd616cea	-0.05503551
110	0xbdaf9f40	-0.085752964
111	0xbd852dc9	-0.065028735
112	0x3d0506be	0.032477133
113	0xbc92d1bf	-0.01792228
114	0x3dd390af	0.103303306
115	0x3cd89521	0.026438298
116	0xbcb32748	-0.021869317
117	0xbda6788c	-0.08128461
118	0x3c93ea68	0.01805611
119	0x3d6f794c	0.058465287
120	0xbd0acc71	-0.033886377
121	0x3df8677f	0.12129115
122	0x3d8da0bd	0.06915424
123	0x3dff28a3	0.12458923
124	0x3cf8bc4d	0.030363226
125	0x3daccc5e	0.084374174
126	0x3d7454dd	0.059651244
127	0x3dfef2ff	0.124486916
128	0xbe09fdf3	-0.1347578
129	0x3defecbf	0.117150776
130	0xbb7499d6	-0.0037323139
131	0xbe6565a1	-0.2240205
132	0xbd8cd888	-0.068772376
133	0xbdc41358	-0.09574002
134	0xbe549f4c	-0.20763892
135	0x3c620e98	0.013797425
136	0xbe234d18	-0.15947378
137	0x3da2e73d	0.079542615
138	0x3d871a2e	0.0659679
139	0x3c08732a	0.0083282385
140	0x3d8a43a7	0.06751185
141	0xbd1595b3	-0.036519717
142	0xbbd13541	-0.006384522
143	0xbd0c3a6c	-0.034235403
144	0x3c01a01b	0.007911707
145	0x3dc392c1	0.095494755
146	0xbccb43d7	-0.024812622
147	0xbd855e69	-0.06512148
148	0x3cf4bd27	0.029875351
149	0xbd602a6c	-0.054727957
150	0x3cbd2c60	0.023092449
151	0x3d4ab05b	0.049484592
152	0x3ddf5b89	0.10906131
153	0xbd5fc3ee	-0.054630212
154	0xbdb528f7	-0.08845704
155	0xbcc675ea	-0.024226148
156	0x3c9a061f	0.018801747
157	0xbdb328ab	-0.08747991
158	0x3d9eef97	0.07760542
159	0xbc18d696	-0.009328505
160	0x3e12d7b3	0.14340095
161	0x3e13bb09	0.14426817
162	0x3c3d1d20	0.0115425885
163	0x3e59dddf	0.21276043
164	0x3da08455	0.0783774
165	0xbd200a2e	-0.039072208
166	0xbd755ccf	-0.059902962
167	0x3de49655	0.11161486
168	0xbde9f639	-0.11423916
169	0x3e4e4fae	0.20147583
170	0x3ce4bb12	0.027921233
171	0x3db1c442	0.08680011
172	0x3dd90fa3	0.105986856
173	0x3bcc41e2	0.00623344
174	0x3da66633	0.08124962
175	0xbdd88f30	-0.10574186
176	0x3e564d88	0.20928013
177	0x3d8d293d	0.06892631
178	0xbdc526db	-0.09626552
179	0x3be24034	0.0069046263
180	0xbecb3721	-0.39690498
181	0xbdc87259	-0.09787435
182	0xbdcdd4c0	-0.100503445
183	0xbd8cb0c5	-0.068696536
184	0xbe050e21	-0.12993671
185	0xbd6db883	-0.058037292
186	0x3d6e91f9	0.05824468
187	0x3d86905d	0.06570504
188	0x3d4cd960	0.050011992
189	0xbe05e337	-0.13074957
190	0xbe0366fc	-0.12832254
191	0x3df5f911	0.12010396
192	0x3dc13807	0.094345145
193	0x3d69f3bb	0.057117205
194	0xbd6f3dcc	-0.058408543
195	0xbda93288	-0.08261591
196	0x3cd91bab	0.02650245
197	0xbdb8ffa5	-0.09033135
198	0xbd237ed9	-0.039915893
199	0x3e49616a	0.19666067
200	0xbce921c1	-0.028458478
201	0xbd6ff91c	-0.05858718
202	0xbd0a67f8	-0.03379056
203	0xbe1604e9	-0.1465031
204	0xbd6713ae	-0.056415252
205	0x3e80f184	0.25184262
206	0xbdcdaa14	-0.100422055
207	0x3e8b7104	0.27234662
208	0x3df32bb5	0.11873571
209	0x3c7ede4b	0.015555928
210	0xbd4ae609	-0.049535785
211	0x3dbc4cb6	0.09194319
212	0x3dad9264	0.084751874
213	0xbcabe67b	-0.020983925
214	0x3d81e24b	0.0634199
215	0xbda990ab	-0.08279546
216	0xbd8fea8a	-0.07027157
217	0x3dc41afc	0.09575459
218	0xbdc96473	-0.09833612
219	0xbd1b1829	-0.037864838
220	0x3dff14cb	0.12455138
221	0x3de6123d	0.112339474
222	0x3de3f0ea	0.11129935
223	0x3c2c66be	0.0105225425
224	0xbdd7f85e	-0.10545419
225	0x3d2f5d75	0.042813737
226	0x3d7dde5c	0.061979637
227	0x3d85e6b8	0.06538147
228	0xbe92d7b4	-0.28680193
229	0x3d993276	0.07480328
230	0x3c8277ca	0.01592626
231	0xbd81c1ef	-0.06335818
232	0xbded7c36	-0.11595957
233	0x3e787ff0	0.24267554
234	0x3d8e17a7	0.06938105
235	0xbc11540a	-0.008870134
236	0x3c1218d6	0.008917054
237	0x3d6185b4	0.05505915
238	0x3d33974c	0.04384546
239	0xbd0ff472	-0.03514523
240	0x3d234392	0.039859362
241	0x3d3bd9f5	0.045862157
242	0x3b1e8f40	0.002419427
243	0x3de836c8	0.11338574
244	0xba012c54	-0.0004927565
245	0xbcd63fbf	-0.026153443
246	0xbd8e554f	-0.06949865
247	0xbdc17c0d	-0.09447489
248	0x3e3caf63	0.1842628
249	0x3d21c96d	0.039498735
250	0x3db86e0f	0.09005367
251	0xbdef12af	-0.116734855
252	0x3dd3d823	0.10343959
253	0x3d9cfd17	0.076654606
254	0x3e13b8d4	0.14425975
255	0x3c5f34f0	0.013623461

bias f4 [80]
0	0x3b03fec7	0.0020140873
1	0x3dc4ce5a	0.09609671
2	0x3c868a7c	0.016423456
3	0x3d99b82d	0.07505832
4	0xbd895c3e	-0.06707047
5	0xbd41f734	-0.047354892
6	0xbc0872b9	-0.008328133
7	0x3d1be8ce	0.038063817
8	0x3dadf8d5	0.084947266
9	0xbd09957f	-0.033589836
10	0xbbf18663	-0.0073707565
11	0x3d875678	0.066082895
12	0xbdc2d0e1	-0.09512497
13	0x3da9fae4	0.08299807
14	0x3d669b1b	0.056300264
15	0x3d122763	0.035682093
16	0x3d5016d1	0.05080301
17	0x3e4554a2	0.19270566
18	0x3d03d4c4	0.03218533
19	0x3c9775ef	0.018488852
20	0x3dbad5c6	0.09122805
21	0x3d56911d	0.052384485
22	0xbd9107fc	-0.07081601
23	0xbd329e06	-0.043607734
24	0xbd487f69	-0.048949633
25	0xbd4ac2cf	-0.04950219
26	0xbdaa1ab2	-0.08305873
27	0x3d780550	0.06055194
28	0xbc1572df	-0.009121626
29	0x3c09b7f8	0.008405678
30	0x3d7a40cd	0.061096955
31	0x3dded7d8	0.10881013
32	0xbd26fcbc	-0.04076837
33	0x3e05cf64	0.13067394
34	0xbcae2aaf	-0.021260587
35	0xbdfd0a09	-0.1235543
36	0xbdec49f8	-0.11537546
37	0x3c9f4aaf	0.019444792
38	0x3d339a43	0.043848287
39	0xbe0f3091	-0.1398337
40	0x3cf9381e	0.030422267
41	0x3d26160e	0.040548377
42	0x3d603b8c	0.05474429
43	0x3d6cf553	0.057851147
44	0x3d8b8931	0.068132766
45	0x3dc6dacf	0.09709703
46	0x3dc57612	0.09641661
47	0xbccf2afa	-0.025289048
48	0x3da9c43f	0.08289384
49	0x3dbffcb4	0.09374371
50	0xbc9cc926	-0.019138884
51	0xbd833720	-0.06406999
52	0x3c1d4c8a	0.009600768
53	0xbd525b3c	-0.05135654
54	0xbdb5d997	-0.088793926
55	0x3e3cca20	0.1843648
56	0x3e7c080c	0.24612445
57	0x3d049204	0.032365814
58	0xbd270977	-0.04078051
59	0xbdc95aa6	-0.09831743
60	0xbc874ffb	-0.01651763
61	0x3cf529c9	0.029927151
62	0xbd0406f8	-0.03223321
63	0xbd14009c	-0.036133394
64	0x3e65efda	0.22454777
65	0x3d467c15	0.048458178
66	0xbc1b0bb8	-0.009463243
67	0x3dab151e	0.08353637
68	0x3e146210	0.14490533
69	0x3cb2eaaa	0.021840412
70	0xbd954831	-0.0728916
71	0xbe068c93	-0.13139562
72	0x3dff1d7c	0.124567956
73	0xbd8fc742	-0.07020427
74	0x3e575dfa	0.21031943
75	0xbd0e0934	-0.034676746
76	0xbcfd607d	-0.030929798
77	0x3d80ecea	0.06295188
78	0x3e3be76e	0.18350002
79	0x3b8645b4	0.0040976647

weight f4 [60, 80]
0	0xbb2acb67	-0.0026061179
1	0xbdb241dd	-0.08703969
2	0xbd56cee1	-0.05244339
3	0x3dcdc5de	0.10047506
4	0x3dab6496	0.083687946
5	0xbd7bbb7a	-0.06145809
6	0xbcca0881	-0.024662258
7	0xbd930b73	-0.07179918
8	0xbd1529a4	-0.036416665
9	0x3cc0a65a	0.023516823
10	0x3c5f8306	0.013642078
11	0xbafd75c6	-0.0019337467
12	0x3c8f0ff8	0.01746367
13	0x3d5bda47	0.053674962
14	0xbc1bf0db	-0.009517874
15	0x3d984c11	0.074363835
16	0x3cfe46ee	0.031039681
17	0x3c596ff3	0.01327132
18	0x3d2dff6d	0.04247992
19	0x3c5db2df	0.013531416
20	0x3d8b865b	0.06812736
21	0x3d0b8957	0.034066524
22	0x3d72ff8d	0.059325743
23	0xbd476a7e	-0.048685543
24	0xbda24953	-0.07924142
25	0xbdce0bda	-0.10060854
26	0xbdae531c	-0.085119456
27	0x3dd61cc3	0.104547046
28	0x3dd3b337	0.10336917
29	0x3d0eaa05	0.034830112
30	0xbdaf3a47	-0.085560374
31	0x3da8d192	0.08243097
32	0x3d461d99	0.04836807
33	0x3c76509d	0.015033868
34	0x3da09b8f	0.078421704
35	0x3d9cef96	0.07662885
36	0xbc4da175	-0.012550701
37	0xbd4896da	-0.04897199
38	0xbce5ce40	-0.02805245
39	0xbccf6bb6	-0.025319915
40	0xbd8d660a	-0.06904228
41	0x3dbcfe01	0.09228135
42	0xbd8f92f1	-0.07010449
43	0xbd304eaf	-0.04304379
44	0xbcf04ba8	-0.02933295
45	0x3db79476	0.089638636
46	0xbc9bf18e	-0.01903608
47	0xbd4edb1b	-0.050501924
48	0xbd51d941	-0.05123258
49	0x3d3a8de2	0.045545466
50	0xbde303a8	-0.11084682
51	0xbd78827f	-0.060671326
52	0x3cd1994d	0.025585795
53	0x3d16799c	0.03673707
54	0x3cda6b82	0.026662592
55	0xba90357b	-0.0011002267
56	0xbccda118	-0.02510123
57	0xbd7fad26	-0.062420987
58	0x3dc49b0f	0.095998876
59	0x3d4421ed	0.047883917
60	0x3d037932	0.032098003
61	0x3d720226	0.05908408
62	0xbd8aaf75	-0.06771747
63	0x3d6262db	0.055270057
64	0xbd72f8ed	-0.059319425
65	0xba130021	-0.0005607624
66	0xbd02849d	-0.03186475
67	0xbd11e3cd	-0.03561764
68	0x3d48b63e	0.049001925
69	0xbb74b7ea	-0.0037341067
70	0xbdcd9c01	-0.10039521
71	0x3dc77d18	0.097406566
72	0x3d6e109b	0.058121305
73	0xbc5862d7	-0.013207159
74	0x3d320378	0.04346034
75	0xbc11a627	-0.008889711
76	0x3db99898	0.09062308
77	0xbb8b1273	-0.0042441427
78	0x3cf67f27	0.030089928
79	0xbdbe63b3	-0.0929636
80	0xbda82f4e	-0.08212148
81	0x3c8de1dc	0.017319612
82	0xbd869cf3	-0.065729044
83	0x3e9c9ebd	0.30589858
84	0x3cebd86f	0.028789727
85	0xbd07112a	-0.032975353
86	0xbd46d7ad	-0.04854553
87	0x3dbaa469	0.0911339
88	0x3db02c92	0.08602251
89	0xbe254941	-0.16141225
90	0x3c84b3ba	0.016198982
91	0xbdb5b2e0	-0.08872008
92	0xbdab7c71	-0.08373345
93	0xbddff195	-0.1093475
94	0x3d98340b	0.074318014
95	0xbd723457	-0.059131946
96	0x3dc71d29	0.09722359
97	0x3db032bd	0.086034276
98	0x3dc38819	0.09547443
99	0xbce11ce7	-0.027479602
100	0x3d2460ef	0.040131506
101	0xbd105653	-0.035238575
102	0xbd8c2377	-0.06842702
103	0x3d091df8	0.033475846
104	0x3d85eb37	0.06539004
105	0xbd94e52f	-0.07270276
106	0xbd7c39a1	-0.061578397
107	0x3d928f6b	0.07156261
108	0x3c4c9854	0.01248749
109	0xbcf08c28	-0.029363707
110	0x3da328cf	0.07966768
111	0x3e0766cb	0.13222806
112	0xbd27dedd	-0.040984023
113	0xbcc84f34	-0.02445183
114	0x3c5d031c	0.013489511
115	0x3e4dec63	0.20109706
116	0xbda867bd	-0.082229115
117	0xbd207518	-0.03917417
118	0x3d64df66	0.05587711
119	0xbdf107be	-0.11769055
120	0xbda23ede	-0.07922147
121	0x3dbda979	0.0926084
122	0xbdfa31c8	-0.12216526
123	0x3ae53ae9	0.001748887
124	0x3e5082ad	0.20362349
125	0xbdc43db0	-0.095820785
126	0xbde8503f	-0.11343431
127	0x3d5113cc	0.05104427
128	0xbe0f0b00	-0.1396904
129	0x3d2aebca	0.041728772
130	0x3dac7e43	0.0842252
131	0x3d9780ce	0.073976144
132	0x3ea8ad1b	0.3294457
133	0x3d91e2be	0.07123326
134	0x3dbf1c71	0.09331597
135	0xbb863fe7	-0.004096973
136	0x3d224afa	0.039622284
137	0x3d020335	0.03174134
138	0x3a45cc6d	0.00075454154
139	0x3cce0484	0.025148638
140	0x3c4f091a	0.012636447
141	0xbc86c425	-0.01645095
142	0x3e8f3dc6	0.27976817
143	0xbcc33ab3	-0.0238317
144	0x3dfebec3	0.12438729
145	0xbd47ccef	-0.048779424
146	0x3d8fddbe	0.07024716
147	0x3c370585	0.01117075
148	0xbd8dd5fd	-0.06925581
149	0xbd835d9f	-0.06414341
150	0xbc327740	-0.010892689
151	0xbdb6d1ef	-0.089267604
152	0x3dc5e7f5	0.09663383
153	0xbdbe4d11	-0.09292043
154	0x3e32bee9	0.17455639
155	0xbe21e458	-0.15809762
156	0x3cc5ab54	0.024129547
157	0x3d70f3ea	0.058826365
158	0xbd0f28a7	-0.03495088
159	0xbc4de2f5	-0.012566318
160	0x3de75c87	0.11296945
161	0x3dfa1790	0.122115254
162	0x3de46699	0.111523814
163	0xbe965f8a	-0.29369766
164	0xbd667ee0	-0.05627334
165	0x3c9ea0af	0.01936373
166	0x3daa148b	0.083046995
167	0xbc254833	-0.010088014
168	0xbb2a3975	-0.0025974188
169	0x3e2648d0	0.16238713
170	0x3e10eac2	0.14152053
171	0x3de56be8	0.11202222
172	0x3d64b23e	0.055834047
173	0xbbf3fdbb	-0.0074460185
174	0x3cac8477	0.021059258
175	0xbd937c00	-0.072013855
176	0x3e2024e0	0.15639067
177	0x3e066d7a	0.131277
178	0xbdab1383	-0.08353331
179	0xbda5b077	-0.080902986
180	0xbda56c9c	-0.08077356
181	0x3d9b8008	0.075927794
182	0xbd9e2774	-0.07722369
183	0x3c382a7a	0.011240596
184	0xbc6e30c0	-0.01453799
185	0x3e23980c	0.1597597
186	0x3d7d8d12	0.061902113
187	0x3e014ecd	0.12627716
188	0xbd8429af	-0.06453263
189	0x3d58b8cb	0.052910607
190	0x3ddd0add	0.10793088
191	0xbe2a1fdc	-0.16613716
192	0xbdaaeae7	-0.08345585
193	0xbd73b341	-0.05949712
194	0xbcb197a7	-0.021678759
195	0xbe5685fc	-0.20949548
196	0x3d3dc2a0	0.046328187
197	0x3de1acfe	0.11019324
198	0x3e0397d9	0.12850894
199	0x3bfff197	0.007810782
200	0xbc07c676	-0.008287063
201	0x3df3cb3b	0.119039975
202	0x3c0d20cf	0.008613779
203	0x3d83d410	0.06436932
204	0xbdee5ab7	-0.11638396
205	0x3d785ff0	0.060638368
206	0x3cbacdaf	0.022803156
207	0x3d2116b7	0.039328303
208	0x3e2e59ba	0.17026415
209	0x398e4187	0.00027133172
210	0x3dfe4d16	0.12417047
211	0xbca1e9d1	-0.019764813
212	0xbf046b0e	-0.5172585
213	0x3df8a5cf	0.121410005
214	0xbc3d8ce8	-0.011569239
215	0xbd7ce432	-0.06174106
216	0xbe11f596	-0.1425384
217	0x3d67e7dc	0.056617603
218	0xbdba89a8	-0.09108287
219	0x3de6b319	0.11264629
220	0xbd7cff22	-0.06176675
221	0x3deadeec	0.114683
222	0xbe22a8fd	-0.15884776
223	0x3df2b06a	0.118500546
224	0xbd38c6d9	-0.04511151
225	0x3dd0b5f7	0.10190957
226	0x3de53afd	0.11192892
227	0xbe9e1118	-0.30872416
228	0xbd874be3	-0.06606271
229	0x3e0e9cef	0.13927053
230	0xbd6c7944	-0.057732835
231	0x3dde3f57	0.10851925
232	0xbe384521	-0.1799512
233	0x3d9061e7	0.070499234
234	0xbd758fe9	-0.059951697
235	0x3e4bdfbb	0.19909565
236	0xbc4abe41	-0.012374462
237	0x3dc6aba5	0.09700707
238	0x3d32873d	0.043586005
239	0x3dd00715	0.10157601
240	0x3e1ade9b	0.1512398
241	0x3dcabb44	0.09898999
242	0x3df8c540	0.121469975
243	0x3dd03224	0.101658136
244	0x3d257352	0.04039318
245	0xbd5f4afb	-0.054514866
246	0x3d9e45aa	0.07728131
247	0xbc941b82	-0.018079523
248	0x3e3b2408	0.18275464
249	0x3c515143	0.012775722
250	0x3daaddac	0.08343062
251	0x3d4c9f4e	0.049956612
252	0x3c8e022c	0.01733502
253	0x3d9461a5	0.07245187
254	0x3cfa413d	0.030548686
255	0x3e20de98	0.15709913

bias f4 [60]
0	0xbd890215	-0.0668985
1	0x3ddeece1	0.10885025
2	0xbdfe65b3	-0.12421741
3	0x3cfaafd6	0.030601423
4	0xbdabadcc	-0.083827585
5	0x3db47e91	0.08813203
6	0x3e1a7f85	0.15087707
7	0xbc68b0b3	-0.014202285
8	0x3e5b6a20	0.21427202
9	0x3c3fc511	0.011704699
10	0x3b209bc7	0.0024506913
11	0x3d76bed9	0.0602406
12	0x3d3b6c62	0.04575766
13	0x3d130126	0.035889767
14	0xbde002d0	-0.109380364
15	0xbd46bf73	-0.048522424
16	0xbcebe407	-0.028795255
17	0xbc85f55b	-0.016352346
18	0x3dd77823	0.10520961
19	0xbe6b1850	-0.22958493
20	0x3e85cf8b	0.26134905
21	0x3dd90890	0.10597336
22	0xbbcf53df	-0.006327137
23	0x3b384ca0	0.0028121844
24	0xbc664780	-0.014055133
25	0x3e52109d	0.2051415
26	0x3dd816d1	0.10551227
27	0x3c33b7ea	0.0109691415
28	0xbd8da53d	-0.06916282
29	0xbd88dfa0	-0.06683278
30	0x3df2a04e	0.11846982
31	0xbdd26be9	-0.102744885
32	0x3c671d51	0.014106111
33	0xbd0910ec	-0.033463404
34	0xbd5b0b4f	-0.05347758
35	0x3d8abef0	0.067747
36	0x3c8a35fc	0.016871445
37	0xbd2c73df	-0.04210269
38	0x3e20bb8a	0.1569654
39	0xbe02337a	-0.12714949
40	0xbcb5625c	-0.022141628
41	0xbd8f9bc2	-0.0701213
42	0xbda29cc7	-0.07940059
43	0x3c84066c	0.016116343
44	0x3c7d1b77	0.015448443
45	0xbdf7011a	-0.12060757
46	0x3dd2216b	0.1026028
47	0x3bfd3c61	0.007728145
48	0x3e1fdda4	0.15611893
49	0x3d25bde7	0.040464308
50	0x3cd371d7	0.025811119
51	0xbd9edea4	-0.07757309
52	0x3ba62398	0.005070161
53	0xbb02bee2	-0.00199502
54	0x3dccfddc	0.10009357
55	0x3e0cf868	0.13766634
56	0xbda1423c	-0.07873961
57	0x3dc9321e	0.09824012
58	0x3d592ba0	0.05302012
59	0xbe50ca4b	-0.20389669

weight f4 [40, 60]
0	0xbc3a485e	-0.011369793
1	0x3e18c900	0.14920425
2	0xbd734e88	-0.059401065
3	0x3db4c233	0.08826103
4	0x3e6642f5	0.2248648
5	0x3d1dd75c	0.03853546
6	0x3d99ced4	0.075101525
7	0xbd6d5ecc	-0.057951733
8	0x3da82c74	0.08211604
9	0xbdd98068	-0.10620195
10	0xbdba9913	-0.09111228
11	0x3d107215	0.035265047
12	0x3dcf227f	0.101140015
13	0x3badb27e	0.005300819
14	0x3d87b9a9	0.06627209
15	0x3db61a2f	0.08891713
16	0xbdb57362	-0.08859898
17	0xbd99acc6	-0.07503657
18	0xbdb58083	-0.08862402
19	0x3e1cb5ef	0.15303777
20	0xbdd9902f	-0.10623204
21	0x3dbf6f4b	0.09347399
22	0xbe0afede	-0.13573787
23	0x3cf52001	0.029922487
24	0xbdea2442	-0.11432697
25	0xbd54e52f	-0.05197638
26	0xbcd62f3b	-0.026145568
27	0x3df3cebb	0.11904665
28	0xbda0e83d	-0.07856796
29	0xbd25376a	-0.04033605
30	0x3cb76d14	0.02239088
31	0xbd0c0223	-0.034181725
32	0xbde4c1f3	-0.111698054
33	0x3b756a8a	0.0037447535
34	0x3db87939	0.090074964
35	0x3d934147	0.07190185
36	0xbbfeeb23	-0.0077794953
37	0xbd90c7d5	-0.07069365
38	0xbd904384	-0.070441276
39	0xbc8ca33a	-0.017167676
40	0xbd2aec79	-0.041729424
41	0xbd8dec50	-0.06929839
42	0xbdd49f22	-0.10381915
43	0xbcfa2285	-0.030534038
44	0xbca2af32	-0.01985893
45	0x3d0dda33	0.03463192
46	0xbe83c603	-0.25737008
47	0xbdcb3d75	-0.099238314
48	0x3d96105f	0.07327341
49	0x3b322a0d	0.0027185709
50	0x3d22e39b	0.039767843
51	0xbd1e1fa6	-0.0386044
52	0xbe8ce4f1	-0.27518418
53	0x3de6d78a	0.112715796
54	0x3dae2a66	0.085041806
55	0x3d18ddfb	0.037321072
56	0xbe09d013	-0.1345828
57	0x3eae50e8	0.34046102
58	0x3b14b6ea	0.0022692033
59	0x3d95762f	0.07297932
60	0xbdff5593	-0.12467494
61	0x3e3c430a	0.18384948
62	0xbdf70d70	-0.1206311
63	0xbb0fcb95	-0.0021941413
64	0x3d2c3101	0.04203892
65	0x3dd3ebeb	0.10347732
66	0x3d4a4b0d	0.04938798
67	0xbdbf8e6f	-0.09353339
68	0x3d856ccb	0.06514891
69	0x3e117a41	0.14206792
70	0xbb27af47	-0.0025586651
71	0xbc5f4315	-0.013626833
72	0x3c99a017	0.018753095
73	0x3bdaca2f	0.006676934
74	0x3e2b0a88	0.16703236
75	0xbd6866e9	-0.056738768
76	0x3d79a34a	0.06094674
77	0x3d5e11c3	0.054216158
78	0x3dc8d5b6	0.09806387
79	0x3d6707fa	0.05640409
80	0x3dc0bdfd	0.094112374
81	0x3d43d728	0.04781261
82	0xbceea8ad	-0.029133165
83	0xbe3242b3	-0.17408256
84	0x3dcdde9f	0.10052227
85	0xbb6ceba3	-0.0036151193
86	0x3e014fd0	0.12628102
87	0x3d41029e	0.047121637
88	0xbd4a98c8	-0.04946211
89	0xbce912a2	-0.028451268
90	0x3de0a0b7	0.10968154
91	0xbe2f8d80	-0.17143822
92	0x3c82717b	0.015923252
93	0xbe16b646	-0.1471797
94	0xbda33421	-0.07968927
95	0x3cdfcfee	0.027320828
96	0xbd978918	-0.073991954
97	0x3e4ae799	0.1981491
98	0x3e6e02fb	0.23243324
99	0xbdf08023	-0.1174319
100	0x3d23c09e	0.039978616
101	0xbce942b9	-0.028474199
102	0x3dba0500	0.09082985
103	0x3c31e37e	0.010857461
104	0x3dad6403	0.08466341
105	0xbc800572	-0.015627597
106	0x3e56e69b	0.20986407
107	0x3d2160d3	0.03939898
108	0x3e0e4bff	0.13896178
109	0xbe05b900	-0.13058853
110	0xbdd8c321	-0.10584093
111	0xbb59de49	-0.0033244065
112	0x3e1a89f7	0.15091692
113	0xbdc216d4	-0.0947701
114	0x3b4aa820	0.0030922964
115	0xbe3a1096	-0.1817039
116	0xbcec5cf0	-0.02885291
117	0xbd9bfde1	-0.07616783
118	0x3d98f84f	0.07469236
119	0x3ac48717	0.0014993873
120	0xbbbc5bad	-0.0057482333
121	0xbdaf876f	-0.08570754
122	0x3e182be5	0.14860494
123	0x3c732b2a	0.014841834
124	0x3e1fcd9a	0.15605775
125	0x3e4c3e08	0.19945538
126	0xbd2ff36e	-0.042956762
127	0x3e14cd5b	0.14531462
128	0xbe2daeb6	-0.16961178
129	0x3d3ad2d4	0.045611218
130	0x3e4ea76f	0.20181058
131	0xbe3ddf37	-0.18542181
132	0xbdf58dc6	-0.11989932
133	0xbe02d55e	-0.12776706
134	0x3c0b5915	0.0085051255
135	0x3d0e477e	0.03473615
136	0x3db22ace	0.086995706
137	0x3d8dc66b	0.06922611
138	0x3c531bf5	0.012885083
139	0x3df01ee9	0.11724646
140	0x3ce2423c	0.027619474
141	0xbdb6fc24	-0.08934811
142	0xbe273b51	-0.16331221
143	0xbe1d9d28	-0.15391982
144	0xbdd86327	-0.10565787
145	0x3ddcd141	0.107820995
146	0x3da6b39a	0.08139725
147	0x3d5248b9	0.051338885
148	0x3e1d89c8	0.1538459
149	0x3dd2b2f9	0.102880426
150	0x3e39d3dd	0.18147226
151	0xbdaf54a0	-0.08561063
152	0x3d48f993	0.049066138
153	0x3df3f470	0.11911857
154	0x3dc15540	0.09440088
155	0xbd2a38a5	-0.041557927
156	0x3dba6277	0.09100812
157	0xbdb72786	-0.08943085
158	0x3d1b9a4f	0.037988957
159	0xbd8b16cf	-0.0679146
160	0x3e278aa8	0.16361487
161	0xbd9c32da	-0.07626887
162	0x3d9bbafc	0.07604024
163	0x3e20c733	0.15700988
164	0x3cd33506	0.02578212
165	0x3e042c5d	0.12907548
166	0x3d8b92ac	0.06815085
167	0xbda53363	-0.08066442
168	0x3d013b80	0.031550884
169	0xbe2e106e	-0.16998455
170	0xbdbfc1fe	-0.09363173
171	0xbd0a004e	-0.033691697
172	0x3ddf183d	0.10893295
173	0x3c5916a9	0.0132500315
174	0xbdd9816e	-0.1062039
175	0xbe2d5fc1	-0.16931058
176	0x3e266e05	0.16252907
177	0xbe7c788b	-0.24655358
178	0x3d902e4a	0.07040079
179	0xbe283887	-0.16427813
180	0xbdad594e	-0.08464299
181	0xbe24720a	-0.16059127
182	0x3e274683	0.16335492
183	0x3de8670b	0.11347779
184	0x3df0a13a	0.117495015
185	0xbc42dc06	-0.011893278
186	0xbe5e160e	-0.216881
187	0xbde8456f	-0.113413684
188	0x3de5d2b9	0.11221833
189	0xbd82a470	-0.0637902
190	0xbb7d61e0	-0.0038663074
191	0x3e363a08	0.17795575
192	0xbd5c363b	-0.053762656
193	0xbcdf0b8b	-0.027227184
194	0x3cb2f0ee	0.0218434
195	0xbd98ef27	-0.0746749
196	0xbd8e1c9a	-0.06939049
197	0xbd5efd0e	-0.05444055
198	0xbd0c0af6	-0.03419014
199	0x3e4f29bc	0.20230764
200	0x3d489a61	0.048975352
201	0x3de65c55	0.1124808
202	0x3e0f9c49	0.14024462
203	0xbccd0079	-0.02502464
204	0x3d86bbdf	0.06578802
205	0x3d04efa5	0.032455105
206	0x3d9fcf36	0.07803194
207	0xbdddf383	-0.10837462
208	0xbd0ad541	-0.03389478
209	0x3d8591f5	0.0652198
210	0xbde44358	-0.11145657
211	0x3e0de56b	0.13857047
212	0x3e08c462	0.13356164
213	0x3e2695f9	0.16268148
214	0x3d984e85	0.074368514
215	0x3e1b1f38	0.15148628
216	0x3c9576a9	0.018245058
217	0x3cdcfac0	0.026975036
218	0xbdbfa879	-0.093583055
219	0x3e23052a	0.15919939
220	0xbdf36a36	-0.118854925
221	0x3de784ff	0.11304664
222	0x3df1a2c1	0.11798621
223	0xbe1e9089	-0.15484823
224	0xbdb07868	-0.08616716
225	0x3b313596	0.0027039996
226	0xbe16e232	-0.14734724
227	0xbde5ddf9	-0.112239785
228	0xbe4192f5	-0.18903716
229	0x3e08ad0a	0.13347259
230	0x3d1d1e18	0.038358778
231	0xbc6e10a2	-0.014530333
232	0xbe1608b9	-0.14651765
233	0x3e3b6309	0.18299498
234	0x3e2a0ea8	0.16607153
235	0x3d259880	0.04042864
236	0xbe14361d	-0.14473768
237	0x3e0ef503	0.13960652
238	0x3dc9bc76	0.09850399
239	0x3e15f03c	0.14642423
240	0xbd95d186	-0.07315354
241	0xbe28630f	-0.16444038
242	0x3dd3438e	0.103156194
243	0x3dfb45f1	0.122692
244	0xbe1fc3e9	-0.15602078
245	0x3de14398	0.109992206
246	0x3de1dd7a	0.110285714
247	0x3d9cc1e0	0.07654166
248	0xbe1562e9	-0.14588512
249	0x3d8dbb5b	0.06920501
250	0x3e2e0a0c	0.1699602
251	0xbdacc13e	-0.084352955
252	0x3d50d97f	0.05098867
253	0xbda909dd	-0.082538344
254	0x3e2e3aa4	0.17014557
255	0x3c2ac3a8	0.010422625

bias f4 [40]
0	0xbe8f1492	-0.2794538
1	0x3d461943	0.048363935
2	0x3e2fc967	0.17166673
3	0xbe2546b9	-0.1614026
4	0x3d0e6151	0.034760777
5	0xbc11fc8a	-0.008910308
6	0xbd876832	-0.066116706
7	0x3e590c17	0.21196018
8	0x3db24cbb	0.087060414
9	0x3d9d297f	0.076739304
10	0xbe675455	-0.22590764
11	0xbd934468	-0.07190782
12	0xbd6819ec	-0.056665346
13	0xbdaee9e2	-0.08540703
14	0x3d3b7eb0	0.045775115
15	0xbd8de8cb	-0.06929167
16	0x3df11127	0.1177085
17	0x3e285dac	0.16441983
18	0xbe246e55	-0.16057713
19	0x3d9bddf0	0.076106906
20	0x3dde3018	0.10849017
21	0x3e17f825	0.14840753
22	0x3e311d5c	0.17296356
23	0xbd1ce36f	-0.038302835
24	0x3c4a1803	0.012334826
25	0x3e1ec523	0.15504889
26	0x3da004d6	0.078134224
27	0x3cc41d18	0.023939654
28	0x3e222e4d	0.15837975
29	0xbc8139df	-0.015774665
30	0xbcb35c24	-0.021894522
31	0x3ea7d188	0.32777047
32	0xbe0dba25	-0.1384054
33	0xbd9a5a1b	-0.075367175
34	0x3da932b4	0.08261624
35	0xbd96fc87	-0.073723845
36	0x3d82eddb	0.063930236
37	0xbe412457	-0.18861519
38	0x3dd87016	0.10568254
39	0xbd5eb012	-0.054367132

weight f4 [20, 40]
0	0xbcda8060	-0.026672542
1	0x3e11a34c	0.14222449
2	0x3dbe2e7b	0.09286209
3	0xbe198504	-0.14992148
4	0x3d7cb602	0.061697014
5	0xbcf63ca3	-0.03005821
6	0x3da5d9c4	0.08098176
7	0x3e422834	0.18960649
8	0x3e5deb2d	0.21671744
9	0xbd0f9dbb	-0.035062533
10	0x3b8f552f	0.0043741683
11	0xbdcdc15e	-0.100466475
12	0xbdcff6af	-0.10154473
13	0x3bdefef1	0.0068052937
14	0x3e148d69	0.14507069
15	0x3e3e17ae	0.1856372
16	0xbd626751	-0.05527431
17	0xbe135929	-0.1438948
18	0x3e206f35	0.15667422
19	0xbe6d1a83	-0.23154645
20	0x3e6d34bf	0.23164652
21	0xbeccfd20	-0.4003687
22	0x3e0d75e5	0.13814504
23	0xbd4bf6d9	-0.04979596
24	0x3e169f74	0.14709264
25	0x3d831d95	0.06402127
26	0xbb4adc1b	-0.0030953947
27	0xbdcb3747	-0.09922653
28	0x3d09485a	0.033516265
29	0x3e22ede5	0.15911062
30	0x3cef4c1a	0.029211093
31	0xbdff8426	-0.12476377
32	0xbd406dbc	-0.04697965
33	0xbc4e75fe	-0.012601374
34	0xbdd8f0e9	-0.10592825
35	0x3e1bff7a	0.15234175
36	0x3c9910ed	0.018684829
37	0xbd727790	-0.059196055
38	0xbc779c85	-0.015113001
39	0x3e0b69b5	0.13614543
40	0xbe2d25c7	-0.16908942
41	0xbd90ec1f	-0.070762865
42	0x3e50598b	0.20346658
43	0xbbf95277	-0.0076087075
44	0x3e289521	0.16463138
45	0xbe1bc84c	-0.15213126
46	0x3dd4c6e4	0.10389498
47	0xbe328720	-0.17434359
48	0xbd391ee8	-0.04519549
49	0xbdae00f8	-0.084962785
50	0x3d674cf2	0.056469865
51	0xbda53361	-0.080664404
52	0x3e0ec3a7	0.13941823
53	0x3dd44d1b	0.10366269
54	0x3d2cbf78	0.042174786
55	0x3e122aeb	0.14274184
56	0xbd9c83c3	-0.07642319
57	0x3e605572	0.21907595
58	0xbc5946d2	-0.013261514
59	0x3e4dae51	0.20086028
60	0xbe0a63d5	-0.13514645
61	0xbeb09c25	-0.3449413
62	0xbd96e622	-0.07368113
63	0xbcdb1afa	-0.026746262
64	0xbc663982	-0.014051797
65	0xbed38340	-0.41311073
66	0x3e2dfb41	0.16990377
67	0x3cef3064	0.02919788
68	0xbe53bfc1	-0.20678617
69	0x3e3ac3d6	0.18238768
70	0x3e253b4b	0.161359
71	0xbc78663e	-0.015161095
72	0x3de7e975	0.11323825
73	0x3d9b509b	0.07583734
74	0xbe3837f8	-0.179901
75	0xbe154341	-0.14576437
76	0x3d5b93ac	0.053607628
77	0x3deeef58	0.11666745
78	0xbe44c25e	-0.1921477
79	0x3bf3b404	0.007437231
80	0x3ea3f729	0.32024506
81	0xbf0390f0	-0.5139303
82	0xbe690698	-0.22756422
83	0x3e075d98	0.13219297
84	0x3c968511	0.018373998
85	0xbf0acfdd	-0.54223424
86	0xbd88716e	-0.0666226
87	0x3c53e7ff	0.01293373
88	0xbd8240a0	-0.063599825
89	0x3d7a4274	0.06109853
90	0xbde49b27	-0.111624055
91	0xbd215f7d	-0.039397705
92	0x3dc93aed	0.09825692
93	0xbdc5283c	-0.09626815
94	0xbd801ef2	-0.06255902
95	0xbdedb1cc	-0.11606178
96	0xbe212a5a	-0.15738812
97	0xbd5178a1	-0.05114043
98	0x3c439370	0.011937007
99	0xbe0cde08	-0.13756573
100	0x3e497364	0.19672924
101	0xbf01b20b	-0.50662297
102	0x3da74892	0.081681386
103	0x3d9f579b	0.07780381
104	0xbdeeff3d	-0.116697766
105	0xbe8b8d85	-0.27256408
106	0xbcad0039	-0.02111827
107	0xbe684ffe	-0.22686765
108	0x3dd14c91	0.10219682
109	0x3d3a8ea7	0.0455462
110	0x3e1467f6	0.14492783
111	0x3e2cffae	0.16894409
112	0x3cee96a7	0.029124571
113	0xbd1570c0	-0.03648448
114	0x3e45aaaf	0.19303392
115	0xbd91c58a	-0.07117756
116	0xbda80dbd	-0.08205745
117	0x3e4f6c4e	0.20256159
118	0x3d5b61ad	0.053559948
119	0x3ddd3875	0.10801784
120	0x3c87bf6b	0.016570767
121	0x3d71279c	0.058875665
122	0x3dcc41ac	0.099734634
123	0x3e05612b	0.13025348
124	0x3ccccee2	0.025000993
125	0x3d8287aa	0.06373532
126	0x3cb0106b	0.021492204
127	0xbde21a53	-0.11040177
128	0xbd192d34	-0.037396625
129	0xbd9d3ba3	-0.076773904
130	0x3e37453a	0.17897502
131	0x3cc316ef	0.023814647
132	0x3d29d507	0.041462924
133	0xbc396b61	-0.011317105
134	0x3cb2869d	0.021792704
135	0x3c803068	0.015648082
136	0x3e370796	0.17873988
137	0xbe0ba544	-0.13637263
138	0x3b1b7e58	0.002372643
139	0xbd974581	-0.07386304
140	0xbb551b6a	-0.003251756
141	0xbedf6335	-0.43630376
142	0x3c8774b0	0.016535133
143	0x3dd93cd9	0.10607309
144	0xbdb7f2c0	-0.08981848
145	0xbe9d7658	-0.30754352
146	0x3cba4820	0.02273947
147	0x3e2dccea	0.169727
148	0xbe2024a4	-0.15638977
149	0x3da20af4	0.079122454
150	0x3cf304f3	0.029665446
151	0xbd66387d	-0.056206215
152	0x3db6f88b	0.089341246
153	0xbe0daeaf	-0.13836168
154	0xbd736cca	-0.05942992
155	0x3e08924f	0.13337062
156	0xbbb05228	-0.0053808875
157	0xbd90230b	-0.07037934
158	0xbe15279c	-0.14565891
159	0xbc02fbba	-0.007994587
160	0xbd4eca71	-0.050486032
161	0x3e6998a3	0.22812133
162	0x3e487486	0.195757
163	0xbe222793	-0.15835409
164	0x3d49c742	0.049262293
165	0x3df41bd3	0.119193695
166	0xbd255eed	-0.04037373
167	0xbd3d10ba	-0.04615853
168	0x3bc45d13	0.0059925406
169	0x3d8eeaf0	0.069784045
170	0xbddf7794	-0.109114796
171	0xbc9944dc	-0.018709593
172	0x3dc068b2	0.09394969
173	0xbe03f0cb	-0.12884824
174	0x3e108588	0.14113438
175	0xbcc5085b	-0.024051836
176	0x3c19ce95	0.009387632
177	0xbdf59f03	-0.1199322
178	0x3e344299	0.1760353
179	0x3dbdf792	0.09275736
180	0xbbfdd62c	-0.0077464785
181	0xbdb01c6d	-0.08599172
182	0x3d571be9	0.05251685
183	0xbdf4a44c	-0.119454
184	0xbda2e8ca	-0.07954557
185	0x3da47b24	0.080313
186	0x3ddf8fc6	0.109160945
187	0x3e828817	0.25494453
188	0xbdadf986	-0.084948584
189	0x3a3c0e7e	0.00071737904
190	0x3e29611f	0.16540955
191	0x3e1df795	0.15426476
192	0xbd794384	-0.060855404
193	0xbd07e1fb	-0.033174496
194	0xbe77f61c	-0.24214977
195	0x3d01ac84	0.031658664
196	0xbc858edc	-0.016303472
197	0x3d6104c2	0.054936178
198	0xbe333099	-0.17499007
199	0x3cd0d670	0.025492877
200	0xbcc61221	-0.024178566
201	0x3d875a6e	0.06609045
202	0x3e0c3175	0.13690741
203	0xbe937882	-0.28802878
204	0x3caf76a4	0.021418877
205	0xbc227b88	-0.009917147
206	0x3df503b5	0.11963598
207	0x3e277aba	0.1635541
208	0xbdf77992	-0.120837346
209	0x3e04bd2f	0.12962793
210	0xbdb70ee4	-0.08938387
211	0xbe35add0	-0.17742085
212	0xbd722598	-0.059117883
213	0xbd3bd7a5	-0.04585995
214	0xbd088145	-0.033326406
215	0x3caf2964	0.021382041
216	0xbec10d76	-0.37705582
217	0xbd147416	-0.03624352
218	0x3c72da35	0.014822532
219	0xbe4918b3	-0.19638328
220	0x3ca09f7d	0.0196073
221	0xbe34761a	-0.17623177
222	0xbd941d80	-0.07232189
223	0x3d748e51	0.059706036
224	0x3dc3e3c4	0.09564927
225	0x3e7c43e8	0.24635279
226	0xbddda129	-0.108217545
227	0x3e589ce8	0.21153605
228	0xbe63714c	-0.22211188
229	0x3cf5d303	0.030007845
230	0x3e237d69	0.15965809
231	0x3e0fd444	0.14045817
232	0xbe421308	-0.18952572
233	0xbc7be15f	-0.015373557
234	0xbdc419da	-0.09575243
235	0xbd770335	-0.060305793
236	0xbe4c0f14	-0.19927627
237	0x3e998a44	0.299883
238	0x3e065bf3	0.13121013
239	0x3dfc0579	0.12305731
240	0x3eac4b1b	0.3365105
241	0x3e0af298	0.13569105
242	0xbd0fdbeb	-0.03512184
243	0xbd1be3c7	-0.038059022
244	0xbc274754	-0.010209877
245	0xbde976a7	-0.11399584
246	0xbd4e7cd5	-0.050412018
247	0xbe14e6d7	-0.14541183
248	0x3d40ab99	0.04703865
249	0xbdc162df	-0.09442686
250	0x3e2b143f	0.16706942
251	0x3e38ee76	0.18059716
252	0x3d16c65e	0.03681027
253	0x3e188b01	0.14896776
254	0xbe0c875f	-0.13723515
255	0x3e12a27b	0.14319794

bias f4 [20]
0	0x3cad83d1	0.021181019
1	0xbd558603	-0.052129757
2	0xbd3dd8af	-0.046349224
3	0xbe908a83	-0.28230676
4	0x3e82ceb6	0.25548333
5	0x3e1de2eb	0.15418594
6	0xbe37e05e	-0.17956683
7	0xbd9d980b	-0.076950155
8	0x3e1ce6ec	0.15322465
9	0x3ada6141	0.0016661064
10	0x3e526a17	0.20548283
11	0x3dc95190	0.0983001
12	0x3e59327a	0.21210662
13	0xbbf64a20	-0.0075161606
14	0xbe0ef1c7	-0.13959418
15	0xbec9f7a7	-0.39446756
16	0x3e4e9c84	0.20176893
17	0x3d32a2cf	0.043612298
18	0xbc1d367b	-0.009595509
19	0xbd6cb6f7	-0.057791676

weight f4 [10, 20]
0	0xbdd636b6	-0.10459654
1	0x3e001bec	0.12510651
2	0xbe1488d8	-0.14505327
3	0xbd8fc39a	-0.0701973
4	0x3dbd9092	0.0925609
5	0x3eaff22a	0.34364444
6	0xbe251106	-0.16119775
7	0xbd077afb	-0.033076268
8	0xbea3c463	-0.3198577
9	0x3df14b31	0.1178192
10	0x3cb480fd	0.022034163
11	0xbd71a6cd	-0.058996964
12	0x3e3765aa	0.17909876
13	0x3e12104a	0.14264026
14	0xbd04da10	-0.032434523
15	0xbe0d3b82	-0.13792232
16	0xbf4a49e3	-0.7901899
17	0x3dada06f	0.08477866
18	0xbe8b517f	-0.27210614
19	0x3db13b8a	0.08653934
20	0x3e095725	0.13412149
21	0xbe8037f9	-0.25042704
22	0x3d355ef2	0.04428
23	0xbd8df9a3	-0.0693238
24	0xbe09ad2c	-0.13444966
25	0x3db5980f	0.088668935
26	0x3e91810c	0.28418767
27	0xbd12d0ab	-0.035843533
28	0xbf00fbcd	-0.5038422
29	0xbe4ade15	-0.1981128
30	0x3de5104f	0.11184751
31	0xbe7297a9	-0.23690666
32	0x3d30f4c9	0.043202195
33	0xbdb83450	-0.08994353
34	0xbe408b3d	-0.18803115
35	0x3e3fbca2	0.18724301
36	0xbf1e3e80	-0.6181412
37	0xbeab55b0	-0.33463812
38	0x3f031a3c	0.51211905
39	0x3e2b4297	0.16724621
40	0x3c904eb8	0.017615661
41	0xbd213e2b	-0.03936593
42	0x3d490f18	0.04908666
43	0x3e62f9f5	0.22165664
44	0x3e789d71	0.24278809
45	0xbead12f4	-0.33803523
46	0x3e44e3f3	0.1922758
47	0xbe217a46	-0.157693
48	0xbe8d8743	-0.2764226
49	0xbdfea68d	-0.12434111
50	0xbe8b4f9f	-0.27209184
51	0xbea083eb	-0.31350645
52	0x3e1f46bb	0.15554325
53	0xbd32cf38	-0.04365465
54	0x3e23da6f	0.16001295
55	0x3d86f659	0.06589956
56	0xbf322e11	-0.6960154
57	0x3e4d28fe	0.20035169
58	0x3e11c2ef	0.14234518
59	0xbd99a21d	-0.07501624
60	0x3d977fe4	0.0739744
61	0xbe4d2936	-0.20035252
62	0xbf07cc21	-0.5304585
63	0xbe1ad783	-0.15121274
64	0xbcde5ab4	-0.02714286
65	0x3e21c199	0.15796508
66	0xbeb15a78	-0.34639335
67	0x3e81c09c	0.25342262
68	0x3cae9465	0.021310994
69	0xbe906be9	-0.2820733
70	0x3d98ff8d	0.074706174
71	0xbe21d1d7	-0.15802704
72	0x3e47391e	0.19455382
73	0x3caeb811	0.021328004
74	0xbc27b2d4	-0.010235507
75	0xbde75fe3	-0.11297586
76	0xbf639490	-0.88898563
77	0xbebcc64e	-0.36870044
78	0xbee3a5dd	-0.4446248
79	0x3e327d10	0.1743052
80	0xbdb2bf37	-0.087278776
81	0x3e8bd7bb	0.27313027
82	0xbebfc4ff	-0.37454984
83	0x3b8aaf84	0.004232349
84	0x3d7b76f2	0.061392732
85	0xbdc26453	-0.094917916
86	0x3da4c9ec	0.08046326
87	0x3e8d1859	0.27557638
88	0x3d3a1804	0.04543306
89	0xbe1e2c74	-0.15446645
90	0xbe822c72	-0.25424534
91	0xbea3a20a	-0.31959563
92	0xbe8c4d46	-0.27402705
93	0xbe3982a2	-0.18116239
94	0xbd8eda0a	-0.069751814
95	0x3d6a67a2	0.05722774
96	0xbf612780	-0.879509
97	0xbda3a156	-0.07989757
98	0xbd53eefe	-0.051741593
99	0xbe8bed56	-0.2732951
100	0xbe890c2e	-0.26767105
101	0xbe0a5db6	-0.1351231
102	0xbe2a2e94	-0.1661933
103	0xbe8b31e3	-0.27186498
104	0x3dca616a	0.098818615
105	0x3dbbb4c7	0.0916534
106	0x3dadc8c4	0.08485559
107	0xbe906651	-0.2820306
108	0x3e15eb8c	0.14640635
109	0x3e8d6885	0.27618805
110	0x3e975281	0.29555133
111	0x3e504a6d	0.20340891
112	0x3e8af9e4	0.27143776
113	0x3e5853ef	0.21125768
114	0x3d8de7c3	0.06928971
115	0x3c57ef13	0.013179558
116	0x3e6c7c3a	0.23094264
117	0xbee15df0	-0.4401698
118	0xbdbefbb9	-0.09325356
119	0x3e2140ff	0.1574745
120	0x3d8ce4c8	0.06879574
121	0x3d10fe34	0.035398677
122	0x3c288685	0.010285978
123	0xbc715586	-0.014729863
124	0x3e307b74	0.17234594
125	0x3e0ee612	0.13954952
126	0xbe52370b	-0.2052881
127	0xbda72c96	-0.08162801
128	0x3e04efd9	0.1298212
129	0xbc294dec	-0.010333519
130	0xbdb78b7b	-0.08962151
131	0x3e207884	0.15670973
132	0xbd7f3be0	-0.06231296
133	0x3ce34a03	0.027745252
134	0xbb443cd8	-0.0029943492
135	0xbebe6556	-0.37186688
136	0xbf9c450d	-1.2208573
137	0xbbbb73fc	-0.0057206135
138	0xbd5f6455	-0.054539043
139	0x3da9dd82	0.082942024
140	0xbc84a97d	-0.0161941
141	0xbe6a24c5	-0.22865589
142	0x3e53640d	0.20643635
143	0xbe58bb23	-0.21165137
144	0xbec87ff1	-0.39160112
145	0xbf9407e8	-1.1564913
146	0xbee06354	-0.4382578
147	0x3e1f2652	0.15541962
148	0xbe3e7620	-0.18599749
149	0x3e3df392	0.18549946
150	0xbd2d4565	-0.042302508
151	0xbdf72dae	-0.120692596
152	0x3e2e5567	0.17024766
153	0x3df53ec4	0.11974862
154	0xbe4168fd	-0.18887706
155	0x3e663c86	0.22484025
156	0x3e2789e3	0.16361193
157	0xbfc1bd79	-1.5135947
158	0x3d9d1948	0.07670838
159	0xbeedcc2a	-0.46444827
160	0xbe1826e5	-0.14858587
161	0x3ca88085	0.020569095
162	0xbef77c53	-0.4833704
163	0x3d97a71b	0.0740492
164	0xbddd276c	-0.10798535
165	0xbd4f973a	-0.05068133
166	0xbe68b351	-0.22724654
167	0x3d40096e	0.046883993
168	0xbf0daf52	-0.5534564
169	0x3da1323b	0.07870909
170	0x3e50f4d1	0.2040589
171	0x3e43b59c	0.19112247
172	0x3dfd0b1f	0.12355637
173	0xbe180325	-0.1484495
174	0x3e0d2a97	0.13785778
175	0x3e151f73	0.14562778
176	0xbee5d14c	-0.44886243
177	0xbe0ed580	-0.13948631
178	0xbe2f722b	-0.17133395
179	0x3e30e3eb	0.17274444
180	0xbe9d102a	-0.30676395
181	0x3df4e722	0.119581476
182	0x3dbebc72	0.09313287
183	0x3dc4ba5c	0.09605858
184	0xbde9ed1f	-0.114221804
185	0xbf157275	-0.5837777
186	0xbd094c6d	-0.03352015
187	0x3be0d49b	0.006861282
188	0x3e860665	0.26176754
189	0x3e4cd11b	0.20001642
190	0xbde3e8b9	-0.11128373
191	0x3e7123c0	0.23548794
192	0xbe0fbc45	-0.14036663
193	0x3de41d06	0.11138348
194	0x3d74df54	0.059783295
195	0x3e404db2	0.18779638
196	0xbe216d09	-0.1576425
197	0xbfc93fba	-1.5722573
198	0xbeeb6c27	-0.4598095
199	0xbe854ba1	-0.26034263

bias f4 [10]
0	0xbe4dc069	-0.2009293
1	0xbe982ce1	-0.2972174
2	0x3bf98afa	0.0076154443
3	0x3d5be792	0.05368764
4	0xbe2ed06d	-0.17071696
5	0x3e1e660b	0.15468614
6	0x3d7526b2	0.059851356
7	0x3df32434	0.118721396
8	0xbea069fe	-0.31330866
9	0xbe5e2a75	-0.21695884
